saved_agents/actor_target_0.pth (torch_old, 524675 bytes, 6 tensors)

fc1.weight f4 [400, 24]
000000 c0 a9 e2 bb 38 ca 45 bd 69 9e 94 3b 90 be e1 bc
       -0.0069172084 -0.048288554 0.0045354855 -0.027556688
000010 b5 5d 8a be a1 08 0d bd 41 80 e4 bc 6e b5 b7 3c
       -0.27024618 -0.034432057 -0.027893187 0.02242538
000020 36 a2 02 3c 54 21 12 bc 63 c9 b5 3c 4c f6 de 3c
       0.007973244 -0.008919079 0.022190755 0.027217053
000030 73 af 7e 3c 50 70 f6 3c ad 50 ce 3c ee d2 3b 3d
       0.01554476 0.030082852 0.025184954 0.045855455
000040 28 47 99 bc 2a 13 25 bd de 79 18 3d b7 75 9d bc
       -0.018710688 -0.04030148 0.037225597 -0.01922117
000050 13 f6 84 3e b7 c2 93 3a d6 e5 f2 bb e3 b6 b2 bd
       0.2596899 0.001127324 -0.0074126525 -0.08726289
000060 fd bc a6 3d 81 68 d6 bd f9 dc 63 bc 62 4d 1b 3c
       0.081415154 -0.10469151 -0.013907664 0.009478899
000070 85 7f ea 3d 6e dc 70 3c ef ea 6c 3c e5 e0 63 3d
       0.11450104 0.014700992 0.014460309 0.055634398
000080 1f 0b 8f 3c 44 e7 f2 bd 0d 24 e1 bc 68 3e ce 3d
       0.017461358 -0.11860517 -0.02748301 0.10070497
000090 b8 ab f2 3d a3 0c 5b 3c da 8d 05 3c af 41 bb 3d
       0.11849159 0.013369712 0.008151496 0.091433875
0000a0 e5 57 bd 3d 5c 57 8f bc 2c c0 4d bb 73 e0 02 3e
       0.0924528 -0.01749771 -0.003139506 0.12780933
0000b0 26 bb 9a 3d 4d 7c 16 3d dc 63 42 3d 1d 19 de 3d
       0.07555227 0.036739636 0.047458515 0.10844634
0000c0 43 09 cc bc 29 73 f6 3d 08 51 13 bd cc bb ed 3d
       -0.02490676 0.12033684 -0.03596595 0.11608085
0000d0 9e 75 08 3d 57 e3 5e be f4 96 b5 bc fb 7b 00 3e
       0.033315293 -0.21766411 -0.022166707 0.12547295
0000e0 a5 6d 38 3c 31 43 4f 3e 91 2f 07 3d 51 fd 70 bd
       0.01125661 0.20240475 0.033004347 -0.05883533
0000f0 32 26 02 3d 67 61 85 be 93 c2 39 bd 3b 7d 33 bd
       0.031774707 -0.26050875 -0.045351576 -0.0438206
000100 8f 2e d4 bc ee fb 60 3e b8 60 30 3d c8 17 28 be
       -0.025901107 0.21971104 0.04306099 -0.16415322
000110 eb e6 0c 3d a3 8b a3 be 2b 56 9c 3d d5 b5 50 be
       0.034399908 -0.31942472 0.07633623 -0.20381863
000120 e4 5f 9d bb a3 9b b0 3d 72 3b b8 bc 9c c5 92 3d
       -0.004802691 0.08623435 -0.022489283 0.07166597
000130 db d0 c5 bd 4e c0 fd bd 3d da 7d bc 59 8f 9b 3d
       -0.09658977 -0.12390195 -0.015493927 0.07595701
000140 62 6f 9f 3c a1 c7 f7 3d 92 47 28 bd 01 cb 2e 3d
       0.019462291 0.12098623 -0.04108388 0.04267407
000150 69 96 01 3d 43 50 4e 3b ca 5e 63 3b ca e1 86 3d
       0.031637583 0.0031480945 0.003469395 0.065860346
000160 25 30 0f 3d 4b 0c c7 3d 2c 08 28 ba 8d 1c c6 3d
       0.034958024 0.097191416 -0.0006409909 0.096734144
000170 5e e6 e7 3d 1b 93 4c bd 55 e5 27 3c d7 62 af 3d
       0.11323236 -0.04994498 0.010247548 0.08563774
000180 27 1b 87 3d 92 e5 ae 3d 5f 74 9b 3d 22 82 74 bc
       0.06596976 0.08539881 0.075905554 -0.014923604
000190 bc 1d fe 3d 9e 17 82 3c 4f 6a 01 3d e8 3d 0e 3d
       0.12408015 0.015880402 0.031595524 0.034727007
0001a0 ba 9b a1 3c a7 88 ec 3c 2d 07 af bc 30 ad e7 3c
       0.019727577 0.028873755 -0.021365726 0.028280824
0001b0 bd 83 88 3d ac c2 68 bd 58 9a d2 bc 2a dc 6b bc
       0.06665752 -0.05682628 -0.025708362 -0.014395753
0001c0 fb df b7 3d 54 67 13 3b 3b 31 33 bd fb 77 ef 3d
       0.08978268 0.0022492008 -0.04374812 0.11692806
0001d0 aa 18 0e 3d a0 7d a8 3c 18 e9 93 bd 85 ae b3 3d
       0.03469149 0.020567715 -0.072221935 0.08773521
0001e0 56 0a 19 3e b3 8b 0f bd b8 54 01 bd ef e4 32 3e
       0.14945349 -0.035045337 -0.031574935 0.17470144
0001f0 4f a4 fd 3d cb ed 8d bd 8d f4 13 bd 58 d7 e6 3d
       0.12384855 -0.06930121 -0.036121894 0.11271542
000200 5f 28 8b 3d 8c da e6 bc 37 30 61 bd af a2 11 3e
       0.067948096 -0.028180383 -0.054977622 0.14222215
000210 82 62 79 3d f4 67 d0 bc 7a e7 cd bd 57 e7 0a 3e
       0.06088496 -0.025440194 -0.10053916 0.13564812
000220 fc 3d d3 3d 38 df 52 3d 5c 3c eb bc 04 fe d4 3b
       0.10314557 0.05148241 -0.028715305 0.0065000076
000230 f3 9c b2 3d cb b3 24 3d c4 91 aa bc 7d 6e 88 bd
       0.08721342 0.040210526 -0.02082146 -0.06661699
000240 82 4f 1f 3e 38 7d ba 3c 7b 08 08 bc dc 0b 1e 3c
       0.15557674 0.022764787 -0.008302803 0.009646382
000250 55 48 ba bd 58 48 c2 3d 66 4e a7 3c 19 26 89 3d
       -0.090958275 0.09486455 0.020423125 0.0669672
000260 ac cf 1f 3e 7c f0 84 bd 02 82 39 bd c6 e3 9c 3c
       0.15606564 -0.06491181 -0.04529 0.01915158
000270 f6 b1 23 be 75 57 9e 3d 05 33 15 3c 3c fb 9e 3b
       -0.15985855 0.07731525 0.009106402 0.004851727
000280 72 5b 07 3e c4 80 86 bd e2 70 cf bc 80 85 ca 3c
       0.13218477 -0.06567529 -0.025322381 0.02472186
000290 27 21 10 be 07 e2 88 bd 30 e1 af ba 98 88 1c 3c
       -0.14075147 -0.06683736 -0.0013418552 0.009554051
0002a0 a0 0c 26 3c f8 32 f7 3d 2f ac d5 bb be f9 aa 3d
       0.010134846 0.120702684 -0.00652077 0.08348416
0002b0 83 d9 f4 3c 93 88 57 be 92 2f 89 bd 90 de e5 3c
       0.029888874 -0.21048193 -0.066985264 0.028060228
0002c0 58 c6 d6 3c 73 e4 fa 3d 80 7a 99 bd a4 f0 87 bd
       0.026217625 0.122506045 -0.07494068 -0.066376954
0002d0 5e 74 fb bc 87 e1 50 be 50 81 14 bd ae 33 f5 3c
       -0.030695137 -0.20398532 -0.036256135 0.02993187
0002e0 ee e3 87 3d b1 d0 72 3d 85 ac 27 3c 54 1d d6 3d
       0.06635271 0.059281055 0.010234003 0.10454813
0002f0 cd ed 86 3c 51 db df bd fe dd 8b bb 66 43 fa 3d
       0.016470814 -0.10930503 -0.004268407 0.122198865
000300 6e 81 ad 3d 01 04 55 bd 6a 69 bf 3c 74 1e 79 3d
       0.084719524 -0.05200577 0.023365695 0.060820058
000310 66 9b 35 3d 86 14 55 be 29 77 8f 3c 0c 49 94 3c
       0.044337653 -0.2080861 0.017512875 0.018101238
000320 de dc 0d bd 78 4c 75 3b a0 c9 b9 3c 3d 3d d3 3b
       -0.034634463 0.0037429612 0.02267915 0.006446509
000330 fc 66 e6 3c d7 be 8f be bd 02 48 3c e4 d6 66 3c
       0.028125279 -0.28075287 0.012207684 0.01408932
000340 ad 61 2a 3d 8f 49 28 bc 07 dc 08 3b 25 f4 cd 39
       0.041597057 -0.010271444 0.00208831 0.0003928255
000350 d1 64 5f 3c e0 d1 5c be 9d 90 93 3b b2 b6 e6 3c
       0.013634876 -0.21564436 0.004503323 0.028163288
000360 55 d2 30 3e 8f 76 49 bd 15 4f 7c 3c 36 0c cc 3d
       0.17267735 -0.049185332 0.015399714 0.099632666
000370 ec 00 3c be 83 ca ad bc 75 ff 0d bc 69 35 81 3d
       -0.18359727 -0.02121473 -0.008666863 0.06309015
000380 15 3b fd 3d ee 69 09 bd 55 fc 98 bc 8c 32 4f 3d
       0.12364785 -0.033548288 -0.018675009 0.050585315
000390 70 14 c5 bd 64 97 8a bc fe 17 d4 bc 82 3f 8b 3d
       -0.09623039 -0.016917892 -0.025890347 0.067992225
0003a0 b7 0e 2e 3e c9 5c 36 bc e1 d1 51 3c 08 9c 85 3d
       0.16997801 -0.01113052 0.012806387 0.06523901
0003b0 f0 3d 90 3d ed 5a 06 3d 5f 3b 2f bd c5 0c af 3d
       0.07043064 0.032801557 -0.04278123 0.085473575
0003c0 3e 33 31 3d c2 e7 68 bd 57 e0 79 3c 5f 5c dc bc
       0.04326176 -0.056861646 0.015251241 -0.026899515
0003d0 ba f8 98 3e 35 88 21 be 81 16 3e bc 60 65 aa bd
       0.29877263 -0.15774615 -0.011602045 -0.08320117
0003e0 46 4a c8 bd 83 32 0a be 02 2c fd 3c cb c9 e9 bc
       -0.097797915 -0.13495831 0.030904774 -0.028538605
0003f0 17 a0 ac 3d 5c a5 1f 3e 16 3c 44 bc c9 d5 ab 3c
       0.08428972 0.15590423 -0.011977216 0.020975964

fc1.bias f4 [400]
000000 2e f7 47 3e 16 51 4b bd 47 77 89 bc b2 a3 18 3d
       0.19527885 -0.049637876 -0.016780509 0.037265487
000010 00 89 03 bc 00 06 1e bd e1 fd d6 bc f1 49 3a be
       -0.008028269 -0.03857994 -0.026244106 -0.18192269
000020 9e 9f 84 bd 17 cc 86 be 96 5b 4d bd ba 05 a5 be
       -0.06475757 -0.26327583 -0.05013617 -0.32230932
000030 9d 70 df 3b 9f be e9 bc 57 34 d6 bd b2 81 a5 bd
       0.0068188445 -0.028533278 -0.10459202 -0.08081378
000040 df 35 86 3b af 42 0f 3b a2 79 e5 bd 50 e6 bc 3d
       0.0040957774 0.0021859815 -0.1120484 0.09223616
000050 09 91 46 be 59 15 18 3e 38 12 d2 bd b2 20 44 be
       -0.19391264 0.14851893 -0.10257381 -0.19153097
000060 a7 39 65 be 6e ca 6a be ef 67 1f bd 0a ee a7 3d
       -0.22385274 -0.22928783 -0.03891748 0.08199699
000070 cd 1c 0f 3d 18 a9 23 be a7 70 de 3d da f8 bd 3d
       0.034939576 -0.15982473 0.108613305 0.0927598
000080 01 be 43 3d d9 e5 24 3e 10 47 0b 3e 2b 9b e2 3c
       0.047788624 0.16103305 0.13601327 0.02766188
000090 87 85 b0 3d e0 8c 1f be ef a2 b9 bc d7 cf ba bd
       0.08619218 -0.15581083 -0.0226607 -0.091216736
0000a0 36 8f ab bd e4 91 59 be 3a 70 9a 3d dd 9e ba bd
       -0.08376925 -0.21247059 0.07540937 -0.09112332
0000b0 e0 87 17 bb 0d cc 46 3e 73 ac 1c 3d 1c b7 32 bc
       -0.002312176 0.19413777 0.038250398 -0.0109079145
0000c0 b9 14 23 3e f4 26 b1 be 7a e9 1c 3e c5 72 1c be
       0.15925874 -0.3460003 0.15323439 -0.15278156
0000d0 b1 8a 40 3e 4f d0 12 3d 02 5f 3c be da fe 35 be
       0.18802907 0.03584319 -0.18395618 -0.17773
0000e0 17 0b 2c be 77 28 c3 3d 1a bf e5 3d f5 c3 8d 3d
       -0.16801105 0.095292024 0.1121809 0.069221415
0000f0 7e 97 6f 3d a0 57 c4 3d 6c 8f 5f be 77 71 34 bd
       0.058494084 0.09587026 -0.21832055 -0.04405352
000100 6e 94 ab bc 16 ed 87 3d 2f 69 bf 3d 3c 8c 14 3c
       -0.0209448 0.066370174 0.09346234 0.009066638
000110 f1 01 00 3d 26 cf 28 be 1e d6 37 be ca 17 53 be
       0.03125185 -0.16485271 -0.17952773 -0.20614544
000120 fd ae f8 3d a0 bc 83 bd c8 55 2e be c7 94 87 bb
       0.12142751 -0.06432462 -0.1702491 -0.0041376087
000130 6a 7d d3 3b ff 66 50 be 40 11 e2 3d 98 90 20 3d
       0.0064541595 -0.2035179 0.110384464 0.039200395
000140 d0 63 1d 3e 1e b3 cd bd 48 2a 13 be 6f aa 78 be
       0.15370107 -0.100439295 -0.14371598 -0.24283765
000150 c6 77 d4 3c 62 e0 79 be 68 a7 c3 3c 0a b3 12 be
       0.025936019 -0.24402002 0.023883536 -0.1432611
000160 6e 23 5b be d1 03 a3 bc 66 e1 d4 3c 89 28 b6 bd
       -0.21400234 -0.01989928 0.025986385 -0.0889445
000170 1d e3 05 be ad be 68 be f7 ae 40 be f5 d9 2e 3d
       -0.13074918 -0.22728987 -0.18816744 0.04268833
000180 cd d7 78 be 53 82 71 bd 05 a2 ac bd db 21 ad bd
       -0.24301071 -0.058962177 -0.0842934 -0.08453723
000190 f4 45 25 3e c3 c9 4a be 10 36 26 3d a1 d6 d9 3c
       0.16139966 -0.19803528 0.0405789 0.0265916
0001a0 27 ed 67 bd b0 2f 13 be 3a 56 f6 3d 26 06 42 be
       -0.05662265 -0.1437366 0.12028165 -0.18947658
0001b0 b2 9f 6c bc 5c 3a 0e bd 97 9e 92 bd 18 19 08 be
       -0.014442371 -0.034723625 -0.07159155 -0.13290823
0001c0 01 b5 9c 3d c7 a9 09 3e 61 d9 82 be 68 96 3f 3d
       0.07651711 0.13443671 -0.25556472 0.046774298
0001d0 ba 9d 97 be a2 50 a4 bd 40 a8 54 bd e9 3c 9d 3d
       -0.29612523 -0.08023192 -0.05191827 0.07677633
0001e0 7d b0 00 3e 1f 21 a5 3c 70 74 4e bd dd b5 59 be
       0.12567325 0.020157395 -0.050404012 -0.21260782
0001f0 53 82 ad bc 56 7f 11 3e e8 a0 8d bc e2 e7 b1 bd
       -0.021180307 0.14208731 -0.01728864 -0.08686806
000200 c8 8a 03 be d6 80 2f 3d 48 f9 11 3e 58 9a f5 bb
       -0.1284591 0.042847477 0.1425525 -0.007495206
000210 20 fb 61 3c 83 47 38 3e 5a 6a da 3b 89 72 21 3d
       0.013792783 0.1799603 0.00666551 0.03941587
000220 1b a8 92 3d bd 76 91 bc 5e 26 31 3d 6c 39 79 be
       0.0716097 -0.017756814 0.04324948 -0.24338311
000230 2d 41 64 3b e7 93 05 be f4 6e 8e 3d 12 9d f4 bd
       0.0034828887 -0.13044702 0.069547564 -0.11944021
000240 b4 77 6f be bd 64 f7 3d 33 e3 1d be 55 f3 35 be
       -0.23385507 0.12079761 -0.15418701 -0.17768605
000250 99 53 28 be 45 46 86 bd df 00 fe bd c3 d1 53 be
       -0.1643814 -0.065563716 -0.1240251 -0.20685486
000260 41 94 ad 3d 53 c4 6d 3d 92 e1 38 3e 34 0e 20 be
       0.08475543 0.058048557 0.18054798 -0.15630418
000270 d3 4f 5c bd fd b2 17 bd 1a 92 34 be 61 b5 c8 bd
       -0.053787064 -0.03703593 -0.17633858 -0.0980022
000280 9b be 03 3e d3 9b b9 bd df 79 91 3d 66 9c eb bc
       0.12865679 -0.09062924 0.07103323 -0.0287611
000290 6b b7 5d be 4f 63 f9 bd e2 70 d1 3b 9e 2d 84 3d
       -0.21652 -0.12177145 0.0063916305 0.06454013
0002a0 16 c3 b8 bd f7 e7 dc bd 2c 63 85 be 7b 47 6d be
       -0.09021585 -0.10786431 -0.26052225 -0.23171799
0002b0 73 96 0e be cc 2f 7b 3d 37 a7 d7 3c 28 5a 44 3d
       -0.1392458 0.06132488 0.026324851 0.047937542
0002c0 e3 c8 4b be b8 f7 5b bc 1b 67 45 be 45 28 bc bd
       -0.19900851 -0.01342576 -0.19277613 -0.09187368
0002d0 e9 93 a3 3d 87 22 83 bc d2 87 8a be db 66 7c be
       0.07987196 -0.016007675 -0.27056748 -0.24648611
0002e0 08 9f 10 be 33 08 15 be 64 fa 52 be aa 20 58 3c
       -0.14123166 -0.14553909 -0.20603329 0.0131913815
0002f0 c5 61 70 bd 49 82 01 be 8b a5 7c 3d b2 e3 9c be
       -0.05868699 -0.12647356 0.06168131 -0.30642468
000300 7e ae 97 3d d6 d9 d1 3d 78 1d 81 bd 61 13 b6 3d
       0.074063286 0.10246627 -0.06304449 0.08890415
000310 f5 59 ce bd 67 b8 10 be b2 70 a2 3d 9f 40 66 be
       -0.10075752 -0.14132844 0.07931651 -0.22485588
000320 ab bd 4a be 6e 2b 35 3e 7c cd 58 bd a0 b9 cd 3c
       -0.19798915 0.17692348 -0.05293034 0.025112927
000330 47 1a 15 be 3c 45 c4 bc 17 ab d3 bd a2 ca 08 3e
       -0.14560805 -0.023958795 -0.10335367 0.13358548
000340 ad 84 f8 3d b7 78 8e be f5 22 21 3e 07 36 8a bc
       0.12134681 -0.27826473 0.15735991 -0.016871465
000350 72 bf 8e be a4 aa 51 3c 09 83 2f be 77 2b c0 3d
       -0.27880436 0.012797032 -0.1713983 0.0938329
000360 a1 2e ce bd aa 8e 39 be 52 36 9d be ee 53 1c 3d
       -0.100674875 -0.18120828 -0.30705506 0.03816598
000370 19 95 6b be 28 85 d7 3c 7a e3 1f 3d 9b b8 2f be
       -0.23006095 0.026308611 0.039035298 -0.17160265
000380 15 76 24 3d 5a 4a 50 be 51 d8 aa bd dd 17 92 bd
       0.040151674 -0.20340863 -0.0834204 -0.07133458
000390 e6 75 f1 3d 16 5d a4 be ed 39 81 bd 45 93 fe bd
       0.117900655 -0.3210227 -0.063098766 -0.12430433
0003a0 66 0d 22 bd 13 16 5e bd b2 df 64 be 25 ea 3b bd
       -0.03956356 -0.05422027 -0.22350958 -0.045877595
0003b0 80 08 40 bd 8f b3 5f be 50 37 a5 3d ce 6e e1 3d
       -0.046883106 -0.2184584 0.08067191 0.110074624
0003c0 d3 e4 ca 3d 7f 95 df 3d c6 d0 01 be 54 0f 71 be
       0.09906926 0.10917186 -0.12677297 -0.23541003
0003d0 a0 e1 1a 3d 6f b7 01 bd 35 2b c1 3c 46 28 55 3d
       0.03781283 -0.031669077 0.023580173 0.05204036
0003e0 42 72 52 be 8e 72 62 be 88 6d 2a be 42 14 16 be
       -0.20551398 -0.22114012 -0.16643345 -0.14656165
0003f0 e2 f1 8c 3d 40 31 af 3d 81 26 49 be b8 a4 33 be
       0.06882073 0.085543156 -0.19643594 -0.17543304

fc2.weight f4 [300, 400]
000000 d6 0e 08 be 0f 7e 5e 3d f2 96 dd 3d 8c bd 70 bd
       -0.1328691 0.054319438 0.10819806 -0.058774516
000010 8b 29 09 bd df 50 16 bd 57 96 12 bd 3c e8 b4 3d
       -0.033486884 -0.03669822 -0.035787906 0.08833358
000020 58 a5 87 3d f7 d7 b8 bd c6 79 dd 39 fc b3 94 3d
       0.06623334 -0.09025567 0.00042243133 0.07260892
000030 89 d8 9b bd 54 8b fb bd f3 a7 72 bd 5c 2b 85 bd
       -0.0760966 -0.12282434 -0.0592422 -0.06502411
000040 1c 09 49 bb 3a 78 80 3d ed 08 09 bd 50 91 ac 3d
       -0.0030675596 0.062729314 -0.033455778 0.08426154
000050 ad 9b d7 bb ab 8c 30 3e f0 38 73 3d 4f 52 82 bd
       -0.0065798373 0.1724116 0.05938047 -0.06363355
000060 35 d3 5d bd 4c 3a 29 3c 94 a3 15 3d 7f f2 2e 3e
       -0.0541565 0.01032884 0.036532953 0.17084692
000070 85 f3 f2 bd d4 db 9d 3d fa cb 85 3d 4c d1 36 bc
       -0.11862854 0.077079445 0.06533046 -0.011158299
000080 2a 6c 3c 3d 5a 91 32 3c 31 0d 97 3d 2a 9b d6 3d
       0.04600159 0.010898912 0.07375563 0.10478814
000090 b8 c2 af bc 3e 58 d7 bd 49 c5 ca 3b 12 e1 0e bd
       -0.021455154 -0.10514878 0.006188069 -0.034882613
0000a0 00 98 48 3c de 8e 1d 3e 3c 34 00 be 3e a6 1d be
       0.012243271 0.15386531 -0.12519926 -0.15395448
0000b0 0f 32 f1 bd b8 4a 9b bd a1 a2 1f 3b 81 10 00 3e
       -0.11777126 -0.07582611 0.002435841 0.12506296
0000c0 0e 8e c5 bd b7 aa 92 3d f6 95 d4 bc 6e c5 a8 bd
       -0.096462354 0.071614675 -0.025950413 -0.08240782
0000d0 8a 51 a9 bd 9e 3d 9a 3d f8 09 ee 3d dd b0 09 be
       -0.082675055 0.07531284 0.11622995 -0.13446374
0000e0 35 8d 63 bc 5d 31 6f 3c 3c 7e 3e 3d 55 3a 0d be
       -0.013888647 0.0145991715 0.046507105 -0.13791783
0000f0 81 ca 3d be 38 c7 42 3d 90 17 85 3d 0c 65 12 3d
       -0.1853428 0.04755327 0.06498635 0.035740897
000100 84 84 b1 3d b2 be 03 be 0d 3e 8f 3d 92 40 f9 3d
       0.086678535 -0.12865713 0.06994257 0.12170519
000110 a8 3f b5 bd 1b 38 51 be a5 58 c1 bb 00 8f 69 3d
       -0.08850032 -0.20431559 -0.00590046 0.05702114
000120 98 3a 14 bd e8 18 6c bd 53 de 95 bc db 72 1d bc
       -0.03618869 -0.05764094 -0.018294489 -0.009609903
000130 a2 32 1c 3d 55 2a fa 3c ab 6d 08 be b5 0c 99 3d
       0.038134225 0.030537764 -0.13323085 0.07473127
000140 4c 00 fb bc 7d 3d 32 bc 1d 07 9e 3d 21 59 20 3d
       -0.03063979 -0.010878918 0.077162005 0.0391475
000150 c5 e5 e3 3d fe 4b 12 bd c5 e5 8e bd 69 42 01 be
       0.111278094 -0.035717003 -0.06977419 -0.1262299
000160 38 3d e1 bd 93 5a 8f bd 42 2c de 3c 75 af ef 3d
       -0.10998005 -0.069996975 0.027120713 0.11703388
000170 f6 95 d5 bd c7 39 bb bd cd 6e d2 3d 3d 62 b6 3d
       -0.104289934 -0.091418795 0.1027504 0.08905456
000180 01 1c 6f bc 7e 6d f3 bd b3 84 57 bd 45 b1 3c bd
       -0.014594079 -0.11886118 -0.052616786 -0.046067495
000190 4c da 6a bc 66 b9 9c 3c e9 a7 9e bd 13 61 79 be
       -0.014334273 0.019131374 -0.0774687 -0.24353437
0001a0 82 72 29 3d 30 e2 fd 3d 63 34 ae 3c 19 a3 23 bc
       0.04136897 0.123966575 0.021265214 -0.009987616
0001b0 bb ec ae bd ef 61 47 bd ec c1 c6 bd 5e 37 b9 bc
       -0.085412465 -0.04867738 -0.097049564 -0.022609409
0001c0 b4 7e dc 3c 9c 9c 19 3d 09 7a 91 3c 64 88 90 bc
       0.026915886 0.03750287 0.017758386 -0.017643161
0001d0 a8 2e 28 3c b6 7e 1a ba 17 c2 f4 bd 1a d7 0f 3e
       0.01026503 -0.0005893515 -0.11951082 0.14046898
0001e0 ba 9a d4 3d ed 9a 76 3d bb 4b 72 3d 97 3d 05 3e
       0.10381074 0.060206342 0.059154253 0.13011776
0001f0 c6 88 fa bd a1 22 73 3e 7d 2e 17 3c 6d 05 af 3d
       -0.12233119 0.23743679 0.009227392 0.08545957
000200 5f eb 84 3d 68 f0 bc 3d ac 5f 8e 3d a3 0a 05 bd
       0.06490206 0.09225541 0.06951842 -0.032480847
000210 1d 82 04 bd 69 8a 31 3d 55 33 63 3e e1 40 53 3d
       -0.03235065 0.04334489 0.2218755 0.051575545
000220 a3 01 d6 3c e7 8d 7a 3d 16 1f 01 3e 9d 10 44 be
       0.026123827 0.061170485 0.12609515 -0.19146962
000230 ee 4f ce 3d 9a 3b e0 3d ea b7 32 bd 15 74 41 3e
       0.10073839 0.10948868 -0.043632425 0.18891938
000240 46 28 62 be d0 3b 3f bd 92 ab 5e bd c4 fd 6c bd
       -0.22085676 -0.0466879 -0.05436284 -0.057859197
000250 f8 32 d0 3d 40 4f 81 3d dc 0a 55 be 5a e2 a3 be
       0.101659715 0.06313944 -0.20804924 -0.3200863
000260 74 00 e9 3d 65 ca 04 3c 1d 28 d6 3c 88 18 71 3d
       0.113770396 0.008104895 0.026142174 0.058861285
000270 2d b3 7f 3d 41 e8 ae bd 72 62 7b bd b0 41 ff bc
       0.062426735 -0.08540393 -0.06137318 -0.031159252
000280 d1 5f d7 3c 2f 10 c6 bc 54 5f e9 3c 25 6c 8f bc
       0.026290806 -0.024177639 0.028487839 -0.017507622
000290 16 25 32 3d 98 d3 80 be bd 8d 17 3d ae 75 df 3d
       0.0434924 -0.25161433 0.037000407 0.109111175
0002a0 df f8 83 3c d6 db 37 bd 1d d1 0c 3e e0 10 f4 3c
       0.016109882 -0.044887386 0.13751645 0.029793203
0002b0 c3 fe 06 3e c4 45 24 3d 75 6b a0 bd 15 c7 81 be
       0.13183121 0.040105596 -0.07832996 -0.253472
0002c0 2d cc 4f 3d 9a 0d 33 3d e4 d8 2c 3d 04 10 00 be
       0.050731827 0.043714143 0.04219903 -0.1250611
0002d0 f4 3d 22 3c 03 19 12 be 51 27 87 3d 89 60 8c bd
       0.009902466 -0.14267354 0.06599296 -0.0685435
0002e0 de 13 37 3d fb 5d ca bd ee 7c 14 bd c3 1b 54 bd
       0.04469668 -0.098812066 -0.036251955 -0.05178429
0002f0 27 37 ba bd 49 b3 f8 bd 8b 1d 0c bd cf 11 45 bd
       -0.09092551 -0.12143571 -0.034207862 -0.048112687
000300 c9 a4 33 3c 66 da 42 bd 9d df 98 bd 1e f9 9a bd
       0.010964581 -0.047571562 -0.07464526 -0.075670466
000310 3c 47 4c bd d5 a6 87 bd e1 22 66 bd fc 19 b0 3d
       -0.049872622 -0.066236176 -0.056185607 0.08598706
000320 31 f4 9c bb 67 9c 63 bd ba ee 74 bd ed 44 ef ba
       -0.004789852 -0.05556908 -0.05979798 -0.0018254794
000330 66 04 d0 3d 93 1f f5 bd f2 e4 73 bd d6 2c 96 bc
       0.10157089 -0.11968913 -0.05954451 -0.018331926
000340 83 bc f1 bd 0f ee a5 3d b3 80 a3 3d 7a 2d cb bd
       -0.11803534 0.08102047 0.07983532 -0.09920783
000350 27 14 d7 bd 6b 74 d9 3d ba 2b 89 3d c3 d4 8c 3c
       -0.10501891 0.10617908 0.06697793 0.017191296
000360 69 35 9e 3d f3 c2 74 3d 17 bd b1 3d 39 66 1e bd
       0.07725031 0.05975623 0.08678644 -0.038671706
000370 df ce 0f be 11 52 82 bc 0d 52 ac bd 52 57 0c 3d
       -0.14043759 -0.015908273 -0.084140874 0.034262963
000380 af 29 7d bd a8 cd 2b 3b d9 53 84 3d f8 cf a2 bd
       -0.06180733 0.002621511 0.06461305 -0.07949823
000390 bb 78 01 be 6d e9 3b 3d e1 83 1e bd c5 c4 8f bd
       -0.12643711 0.04587691 -0.03869999 -0.07019953
0003a0 8d 23 b1 3d 0b e9 26 be 44 04 83 bd 84 6f 42 bd
       0.08649359 -0.16299836 -0.06397298 -0.04746963
0003b0 59 2d 83 bc 28 55 39 bd ed 86 04 3e cd a0 81 bc
       -0.016012834 -0.045247227 0.12942095 -0.015823746
0003c0 71 b7 33 bd cb 2a cf bd c2 03 83 3d 01 7a 32 3d
       -0.043876115 -0.10115584 0.06397201 0.043573383
0003d0 96 ee 27 be d0 a5 5f bd 2f f9 50 3d d7 60 55 bb
       -0.16399607 -0.05460149 0.05101889 -0.0032558942
0003e0 3b f4 52 bd 98 ca 2f be 90 95 e2 bc 7d 87 27 be
       -0.051502448 -0.17167127 -0.027659208 -0.16360278
0003f0 50 4a ae 3e f3 b0 a1 bd a4 39 74 bc e1 ce 19 3e
       0.3404107 -0.078950785 -0.014906321 0.15020324

fc2.bias f4 [300]
000000 b5 3c f0 bd a4 b1 90 3d 28 c5 38 3c 85 e6 a0 3c
       -0.11730329 0.07065132 0.011277474 0.01964117
000010 35 bf ae bd e0 f1 1c bd 15 be 04 bd 8b 6b be bc
       -0.085325636 -0.038316607 -0.03240784 -0.02324464
000020 0f 40 08 3d a9 08 91 bd 8f cb 05 bd 2f 2c b7 bc
       0.033264216 -0.0708173 -0.03266483 -0.022359936
000030 b8 34 88 3b 27 4a 98 bc 04 d7 13 b9 ea 52 1a be
       0.004156675 -0.018590046 -0.00014099112 -0.15070692
000040 ee 2a 0b bd a6 34 a2 3c 58 17 ea bc 51 79 77 3d
       -0.033976488 0.019800495 -0.028575584 0.06041843
000050 b4 84 c4 bd 6d 23 30 bd 9b 4e 0c 3d 36 08 24 bc
       -0.095956236 -0.043002535 0.03425465 -0.010011723
000060 47 29 c7 3b 83 bd 94 bc 36 08 f3 3d 6d a6 81 bd
       0.0060779187 -0.018156772 0.118668005 -0.06330571
000070 8e c4 34 bd 6b 22 5b 3d 6e b2 78 3c a8 ca 95 bd
       -0.04413276 0.05349962 0.01517926 -0.07314044
000080 1f 0e 9e bc 4e e0 5e ba 0b a1 c1 bc de 18 a7 bc
       -0.019293843 -0.0008502052 -0.023636362 -0.0203976
000090 4a 1e 37 bd bf ea 28 3c 7c 80 ac bd b7 ce b4 bd
       -0.04470662 0.010309874 -0.08422944 -0.0882849
0000a0 88 67 66 bd 8a 3d 4e bd 10 e8 7e 3d 74 7f 80 3d
       -0.05625108 -0.050351657 0.06223303 0.0627431
0000b0 ef c8 1b bc fb 1f 99 3c 1a ff d1 bd b6 95 6c bc
       -0.0095083555 0.018692007 -0.10253735 -0.014439991
0000c0 a3 0a 09 bd 8d bf d4 3d d9 60 93 ba 09 a1 4a bc
       -0.03345741 0.10388098 -0.0011244073 -0.012367495
0000d0 df fb 08 be 24 eb 04 3d 3b 38 4b bd dd 29 f5 bd
       -0.13377331 0.03245081 -0.049614172 -0.119708754
0000e0 0a a6 65 bc 68 d3 8f 3c de f7 12 bd bb 09 5c bd
       -0.014016638 0.017556861 -0.035880916 -0.053720217
0000f0 57 b4 ab 3d f7 63 89 bd 42 41 06 be 2c ac 09 be
       0.083840065 -0.0670852 -0.13110831 -0.13444585
000100 59 0e 2e be b0 97 17 bd c1 04 7d 3d 64 26 0e be
       -0.1699766 -0.037009895 0.06177211 -0.13881832
000110 0d db 49 bd 4b 61 c5 3b 8e e1 17 3c f6 1e 88 bd
       -0.04928117 0.006023561 0.009270085 -0.0664653
000120 a1 ee cc bd fd 44 c4 bd 69 75 b1 3d c3 e4 88 3d
       -0.10006452 -0.09583471 0.08664972 0.06684258
000130 b6 ab 63 bd 65 22 04 bd 94 1c 9c bc 01 e2 92 bd
       -0.05558368 -0.032259364 -0.019056596 -0.07172013
000140 fa 7e 95 bd e8 65 66 bc 99 e2 0e 3d 02 9e b3 bd
       -0.072996095 -0.014062382 0.03488407 -0.08770372
000150 8e e5 99 bd 96 ff 73 bd f2 b3 7f 3d ff 1a 3e bd
       -0.07514487 -0.059569918 0.06242747 -0.046412464
000160 dd 67 e5 bb 94 b7 4e bd 5d e2 72 bd ca 41 ef bc
       -0.007000907 -0.050468042 -0.059297908 -0.029206175
000170 d7 b9 ec bc 4e 12 9f bd ab 00 dc bb e6 df 5b 3c
       -0.02889721 -0.07767163 -0.006713947 0.013420081
000180 11 c2 50 bd 2d 20 5b 3d 81 82 1c 3b 65 e7 d8 3b
       -0.050966326 0.053497482 0.0023881497 0.0066193813
000190 ac 1f 11 bd fb 48 6d bd 81 a4 86 3d 39 a2 de bc
       -0.035430595 -0.057930928 0.065743454 -0.027176963
0001a0 89 cb ce bc 46 6d 76 3d 6b 0f 90 bd f6 d1 0a bd
       -0.025243538 0.060162805 -0.07034191 -0.03389164
0001b0 c7 bd a6 3c 16 bc 6d bd d3 29 40 bd f9 51 01 bd
       0.020354165 -0.0580407 -0.046914887 -0.031572316
0001c0 aa 4e 51 bd da 8f 33 bd ef 65 e8 bd 0e 1a 91 3d
       -0.05110041 -0.04383836 -0.11347567 0.07085048
0001d0 0e 9d 16 3e 96 24 37 bc 81 92 89 bc 7a 00 5e bd
       0.14708349 -0.011178156 -0.016793491 -0.054199673
0001e0 ef a6 b2 3d 0d 6e 15 3d f4 f1 03 be 5e b0 59 3c
       0.08723246 0.036481906 -0.12885267 0.013286678
0001f0 e0 30 0d bb d9 1a 41 bd c3 44 19 bc 7e 86 d0 3d
       -0.0021544024 -0.047144745 -0.009354773 0.10181902
000200 ce 15 fd bb 43 7f 18 3b 79 fd 4f 3d ff 1b 08 bc
       -0.0077235466 0.0023269213 0.05077884 -0.008307456
000210 f7 9c 2f 3d df 4e aa 3d e3 5d b8 bc 02 1f 2e bc
       0.042874303 0.08315825 -0.022505706 -0.01062751
000220 eb 08 c7 3c 35 78 bf 3c ea 6e c5 bc 36 93 0f be
       0.024296245 0.023372749 -0.02410074 -0.14021
000230 0a cb a3 bc f5 62 03 3e aa ef 37 bd 85 4d bf bc
       -0.019994278 0.12830718 -0.044906296 -0.023352394
000240 0a a8 3f bd 8f 65 1f 3e 2a 7f 8e bd a5 63 92 bd
       -0.046791114 0.15566085 -0.06957848 -0.07147912
000250 72 fa ad bb 33 60 3b bd 17 06 e5 ba f2 48 b7 bc
       -0.0053093964 -0.04574604 -0.0017473128 -0.02237365
000260 c1 ba d5 bb 41 c3 0a 3e 54 87 03 be 10 fa cb bd
       -0.006522507 0.13551046 -0.12844592 -0.09959805
000270 77 28 5f bd 67 64 8f 3d 2d d8 55 bd 41 1d 67 bb
       -0.05448195 0.07001572 -0.052208114 -0.003526524
000280 ad 7f b0 bd 9d c5 27 3c 9f 8b 3c bc 7b 6b b7 bd
       -0.08618102 0.010239986 -0.011507898 -0.08956047
000290 fd b7 12 bc f6 88 05 bd 43 56 62 bc bd 40 78 bd
       -0.008954999 -0.03260132 -0.013814512 -0.060608614
0002a0 57 91 d1 bc 10 39 3d bc d7 7d 3a 3c 0e f0 12 bd
       -0.025581999 -0.011549249 0.011382542 -0.035873465
0002b0 20 f5 45 bd 3a 51 16 bd 52 9b ae bd ca 85 21 bd
       -0.048329473 -0.036698557 -0.08525719 -0.03943423
0002c0 30 43 ed 3c 84 d2 03 3d 34 4c 28 3d b2 76 d3 3c
       0.028962702 0.032183185 0.041088298 0.025813434
0002d0 ec 55 c5 3b 8a a6 5c 3d 0a 36 81 3d 14 21 0b 3e
       0.0060222056 0.05386976 0.06309135 0.13586837
0002e0 40 e2 91 3b b8 48 00 3e 5f 2c a7 bc cc 76 45 bd
       0.00445202 0.1252774 -0.0204069 -0.048208997
0002f0 59 db 23 3d cc 44 7c bc 8a 66 03 be 91 1c 15 bd
       0.040004108 -0.015397262 -0.12832084 -0.036404196
000300 87 9d ab bc 71 62 f3 bc b2 45 34 3d 23 ac 39 bd
       -0.020949138 -0.029710026 0.04401178 -0.045330178
000310 a9 8d a1 bd 08 55 3f 3c 76 5a 50 bd 1c fe a6 3b
       -0.07888348 0.011677988 -0.05086752 0.00509621
000320 bc 5d 7a bc c4 f3 86 3c 22 86 b1 bc 19 a4 86 bd
       -0.015281137 0.016473658 -0.021670405 -0.06574268
000330 e1 3f 1c be fd 51 9b 3d e1 dc 8d bc ad 9c e8 bc
       -0.15258743 0.075839974 -0.017317237 -0.028395021
000340 90 8b b0 3c 82 36 eb 3b 29 70 2e bd c5 0c 05 3d
       0.021550924 0.0071781287 -0.042587433 0.03248288
000350 ad 56 74 3c 1f 7a b5 bd 27 9e 94 bd 67 f7 a2 3c
       0.014913243 -0.088611834 -0.07256728 0.019893361
000360 8b 06 25 bd ff b5 85 bd 88 75 b8 bd be bd c3 bc
       -0.040289443 -0.065288536 -0.09006792 -0.023894187
000370 26 de a0 bd af 30 47 bc a4 3e 9d 3d de 2c 69 3c
       -0.078548715 -0.012157603 0.076779634 0.014231889
000380 91 24 4f bd 8e bd 00 bd ed a0 8e bc af 16 23 bd
       -0.05057198 -0.031430773 -0.01741072 -0.039816555
000390 74 25 d5 3c 3f 53 a1 bc 3f e0 02 3d d9 fb ae bc
       0.026018836 -0.019693015 0.03195214 -0.021360325
0003a0 b9 15 e1 bd 7d ac e2 bc d2 6d 57 3c e7 11 1d bc
       -0.109904714 -0.02767014 0.013148742 -0.009586788
0003b0 68 34 07 bd 9b 17 9b bc ea b5 de 3c 1f ed 32 bc
       -0.033008963 -0.018932154 0.027186353 -0.010920792
0003c0 e6 ce 68 bd 41 7a a4 3d 92 40 03 bb d8 8a 92 bd
       -0.05683794 0.080311306 -0.00200275 -0.071553886
0003d0 e3 72 95 3b 99 54 4b bd 6e 97 e4 3d 9b ef af 3c
       0.0045608147 -0.049641225 0.111616954 0.021476557
0003e0 bc da a0 bb 12 8e 62 bd a4 c6 1d be ae 15 cd bc
       -0.0049088877 -0.05531127 -0.15407807 -0.025034752
0003f0 81 4b bf bc 87 ac d8 ba 3b 2a ef bc 21 e5 ae bd
       -0.023351433 -0.0016530909 -0.029194942 -0.085397966

fc3.weight f4 [2, 300]
000000 3c 7c a5 3d 0e 6b b7 3b ac f2 64 bd c6 3d ff bd
       0.080803365 0.0055974787 -0.055895492 -0.12462954
000010 39 40 37 bc c0 7f 82 3c 56 76 3e bc 99 04 28 3e
       -0.0111847455 0.015930057 -0.011624893 0.16408004
000020 72 c3 b5 3d d0 40 2c bc f5 bb ae bd b8 5a 53 3e
       0.08875169 -0.010513499 -0.08531944 0.20640075
000030 96 d2 af bd 5f 63 93 bd ec 7f 14 bf f5 35 15 be
       -0.08585088 -0.07196688 -0.58007693 -0.14571364
000040 83 b2 fd 3c f0 6b cd 3d 1f 24 0a 3e 7d 0f 1d 3e
       0.03096891 0.10030353 0.13490342 0.1533794
000050 1c 42 1a 3f 6d e6 57 bd e9 82 34 3e 76 fc 1b bd
       0.60257125 -0.052709986 0.17628063 -0.038082562
000060 72 ae 07 3e cc 75 d0 3d ab 3c c1 3d 00 07 84 bd
       0.1325014 0.10178718 0.094353996 -0.06446648
000070 8a 3f 0d be 5b cb 35 bc b5 f5 7a 3d be ff 43 3e
       -0.1379377 -0.011095847 0.06126948 0.19140527
000080 64 5f e8 3d a8 0a 19 3e cc 38 a8 be fb 08 3d 3e
       0.11346319 0.14945471 -0.32855833 0.18460457
000090 34 74 13 be f6 1b 13 3f 0e 9a 5c 3e 20 c4 3e be
       -0.14399797 0.5746454 0.21543142 -0.18629503
0000a0 6a c1 8a be ef e8 7a 3e 29 ed 8c be 2c 04 e7 3d
       -0.27100688 0.2450292 -0.2752469 0.112800926
0000b0 0d de 07 3e 3d 6f 55 3d 96 57 c3 3e c8 68 6b 3c
       0.132683 0.05210804 0.3815276 0.0143682435
0000c0 54 26 04 bf 34 2c 19 be dc 16 4f bd cb 12 8a 3e
       -0.51620984 -0.14958268 -0.05055891 0.26967463
0000d0 cf 90 20 3e 42 42 4d 3d 1d 21 94 be 6f 0f 56 bd
       0.1568024 0.050112016 -0.28931513 -0.052260812
0000e0 aa 79 82 bc 7d d5 e7 bd d9 52 d6 3c 7f 4e 07 be
       -0.015927155 -0.113200165 0.026162552 -0.13213538
0000f0 64 e0 e1 bd e4 44 2f bd 27 8a 8b be 2c 62 0d 3e
       -0.11029127 -0.04279031 -0.2725384 0.13806981
000100 dc d1 64 3d 64 4a ab be c9 88 f8 3c 03 be d8 be
       0.0558642 -0.33455193 0.030338662 -0.42332467
000110 c7 82 77 bd aa d0 28 be 74 10 d9 bd e6 ae 46 be
       -0.060427453 -0.16485849 -0.10598841 -0.19402656
000120 44 c5 00 3e c9 7b ab 3d eb 2e a0 bc 19 45 70 3e
       0.12575251 0.083732195 -0.019553622 0.23463859
000130 52 e6 33 3e 54 51 69 be 02 80 01 bd f6 f0 7a 3e
       0.17568329 -0.2278493 -0.03161622 0.24505982
000140 10 c3 b7 3c a9 29 9c 3b b9 7f 93 3d 0d 6f 17 3e
       0.02243188 0.0047657085 0.072020955 0.14788456
000150 dd 99 07 be 63 f0 d8 3d be af ec 3d 9c ee 64 be
       -0.13242288 0.10592725 0.11556958 -0.22356647
000160 ac fe de 3b 22 7c 54 be 70 07 1f bd de 15 f5 bd
       0.0068052616 -0.20750478 -0.038825452 -0.119670615
000170 36 ec 80 3d 03 7b 77 3c d0 21 dc 3d 37 3d 14 3f
       0.06295054 0.015105012 0.10748637 0.57905906
000180 d9 6e 25 be 1f 13 35 3e b2 51 03 be 97 c6 b6 3d
       -0.16155566 0.17683075 -0.12824133 0.08924597
000190 56 83 7f 3e 06 98 2c bc 9c 22 4d 3c ff 3c a4 3d
       0.24952444 -0.010534292 0.012520459 0.080194466
0001a0 ab 84 64 3d aa 6a be bb 11 3d b8 3d cc cd 1b be
       0.055790585 -0.005811055 0.089960225 -0.15215224
0001b0 31 b7 35 3e 56 bc 3a bf cc a7 ad 3d 0d 12 27 3e
       0.17745663 -0.7294363 0.0847927 0.1631548
0001c0 5b 10 2c 3e 92 9f 23 be 8d 81 04 3e cd 01 2b 3d
       0.16803114 -0.1597884 0.12940045 0.041749764
0001d0 8b f1 af 3d 14 06 04 3e f8 55 03 bd 09 57 54 bc
       0.085909925 0.12892944 -0.032064408 -0.012960204
0001e0 56 40 25 3d 66 bb 16 3d 35 4d 6b be 3d 61 d9 bd
       0.04034456 0.03679981 -0.22978671 -0.1061425
0001f0 bf 3c 39 be e6 8d 12 bb 41 0a 32 be d6 68 24 3d
       -0.18089579 -0.002236241 -0.17386724 0.04013904
000200 b1 d7 a0 3d 16 3b 88 bd 6b e0 10 be 3b 74 6f bd
       0.0785364 -0.06651895 -0.14148109 -0.058460455
000210 47 a2 bf 3e 18 41 df 3e e0 a6 84 be b3 41 a9 3e
       0.37428495 0.4360435 -0.25908566 0.33057937
000220 79 5b 77 be f9 27 b2 3c 3b 7f b3 be f7 2f fe be
       -0.24155988 0.021747576 -0.35058007 -0.4964597
000230 58 fa 79 3e 85 69 6d 3c b1 47 ad bc 79 1d 3d bc
       0.24411905 0.01449049 -0.02115235 -0.011542671
000240 a6 19 90 ba 3f 9c 10 be d8 0a f1 3c 55 fc 5f bd
       -0.0010993972 -0.14122103 0.029424116 -0.054684002
000250 4e b2 5f be c6 ad 48 be a9 02 5f be 48 91 e7 be
       -0.21845362 -0.1959754 -0.21778359 -0.45228028
000260 e8 db 92 bd 7c e7 ef 3c d2 d2 bf 3d a2 fe 3d 3d
       -0.0717085 0.029285185 0.09366383 0.046385415
000270 5a 02 41 be 23 8a 85 bc d1 ff 71 3e 92 46 84 3e
       -0.18848553 -0.01630122 0.23632742 0.2583509
000280 52 dd 61 bd e7 ea 84 3d 12 38 d2 ba cb 0d ba be
       -0.055142708 0.064901166 -0.0016038439 -0.36338648
000290 5d 74 a7 3d 5e 21 00 be 74 aa 88 3e 02 ca 00 be
       0.081764914 -0.12512729 0.26692545 -0.1257706
0002a0 84 5a 89 bd 05 0a 01 bc aa f6 6e bc e7 ed 32 bc
       -0.067067176 -0.007875924 -0.0145851765 -0.010920978
0002b0 b9 af 4b be 67 18 62 3d 50 04 04 3e 1f a8 83 be
       -0.19891252 0.055199053 0.1289227 -0.25714204
0002c0 d9 9d 80 3e be 88 24 3b d4 62 ef be 34 64 b5 3b
       0.25120428 0.0025105919 -0.46755087 0.005535627
0002d0 0a 4b 47 3e cd 3a f6 3c 4e fa 0f 3d a9 49 77 3d
       0.19462219 0.030057335 0.03515082 0.060372982
0002e0 05 bd a4 bd 90 4a e9 3d ed 9f 3d 3c 64 fb e9 3d
       -0.08043865 0.11391175 0.011573774 0.11424902
0002f0 2d 94 84 be ac c9 86 bc ee 0c 39 3e a9 35 cd bd
       -0.258943 -0.016453587 0.18071339 -0.100200005
000300 18 fe 86 bd 89 3b ff bd b3 96 e6 3d c0 bb c6 be
       -0.06591433 -0.12462527 0.11259212 -0.38815117
000310 6f 47 86 be 32 3d ae bb f8 f4 86 3d 8a 2d ff 3e
       -0.26226375 -0.0053173536 0.06589693 0.4983943
000320 b0 ba 6b 3e 2a 6f a3 bd 8f 6d a4 3d 49 9d 60 bd
       0.23020434 -0.07980187 0.08028709 -0.0548375
000330 1f 8f 8c be d1 89 3a 3c e0 b3 78 bd f8 23 16 3c
       -0.27452943 0.011385397 -0.060718417 0.009163849
000340 2f bb f6 be 66 a1 13 3e be 97 0a 3e fb d5 21 be
       -0.48189685 0.14417037 0.13534448 -0.15804283
000350 30 a8 ce 3e 24 cc 2a 3d 62 5f 11 bd c6 0e cb 3d
       0.40362692 0.04169859 -0.035491355 0.09914927
000360 52 c4 bf 3d 68 06 2b 3e 1d 3f 1d 3e 71 12 c9 3d
       0.09363617 0.16701663 0.15356107 0.098179705
000370 fc a9 f3 bd 9f e5 b2 3c 57 01 29 3e 29 f0 ab bc
       -0.11897656 0.021838007 0.16504417 -0.02098854
000380 78 82 40 3e b2 1a f0 bd ce 86 af bc 79 a9 94 bd
       0.1879977 -0.11723842 -0.021426585 -0.07258887
000390 f9 ee 38 3c 91 78 1e bd 0c 7e 66 3c 69 c3 1e 3e
       0.011287444 -0.0386892 0.014068138 0.1550423
0003a0 f1 43 c2 be eb b4 7d bd 0a 8b 91 3d 0e 3e af 3c
       -0.3794246 -0.061940115 0.07106598 0.021391895
0003b0 12 a3 47 3e 31 61 39 3d f8 30 93 3d fd 9e 83 3e
       0.194958 0.045258705 0.071870744 0.25707236
0003c0 53 ba 7e 3e bf 54 93 bd 00 a6 72 be 1a 02 aa bc
       0.24875765 -0.071938984 -0.23696136 -0.020752955
0003d0 fb ae 47 3e 96 70 bb 3b d8 0a 6a bd 36 a4 cf 3d
       0.19500344 0.0057202084 -0.057139248 0.101387426
0003e0 5f 89 d7 bc 70 84 f5 bd fd cb 93 bc 9f 4c 2d bd
       -0.02631062 -0.11988151 -0.018041605 -0.0423094
0003f0 12 d0 82 bd df d3 d9 bd ce ab 8f bd c3 18 b6 3e
       -0.063873425 -0.10636114 -0.07015191 0.35565767

fc3.bias f4 [2]
000000 0e 35 9a 3d 4c 4c 5d 3d
       0.07529651 0.05402784
