saved_agents/actor_local_0.pth (torch_old, 524675 bytes, 6 tensors)

fc1.weight f4 [400, 24]
00000000: 60c3 f1bb 0b4a 46bd 1f7b 943b da30 ddbc
00000010: c182 8abe 2245 0dbd 0389 e4bc 0643 bc3c
00000020: ccb0 f63b 4add 12bc 60c3 b63c c37a e33c
00000030: 3169 7b3c e20d f73c a14a cf3c 2915 3e3d
00000040: 48d5 9bbc d735 25bd 649e 183d f35e 9cbc
00000050: 2cf5 843e 1fc4 983a 79c1 f1bb 2d71 b2bd
00000060: 98a2 a53d 752e d8bd 3fde 3cbc 0d7b 233c
00000070: 7b18 e83d 5ad6 7d3c c7f4 893c 42ec 653d
00000080: a202 8c3c 3cd7 f4bd 342a cebc 62e8 cf3d
00000090: 0ae2 f03d 9aa8 653c 6481 2b3c a4eb bc3d
000000a0: 3681 bc3d 37d3 96bc fb44 cbba 1b62 033e
000000b0: 1173 993d aedf 183d a1e5 483d 6e1c df3d
000000c0: a835 c8bc d77b f43d fea5 10bd c8ac ee3d
000000d0: b1fd 063d ed33 5fbe fb40 b0bc 6ef4 003e
000000e0: daea 3e3c f8ba 4e3e 1d5d 043d 73c3 6ebd
000000f0: b5e2 003d 14df 85be 0195 3cbd 6043 31bd
00000100: ce3e d0bc 4bd6 603e 41db 313d 3e6e 27be
00000110: fd4c 0b3d 5a12 a4be 5e13 9d3d 430c 50be
00000120: cfe8 a7bb e2dc b13d a6af b9bc 064d 933d
00000130: 115c c8bd 79d8 fdbd 5c61 80bc bd16 9c3d
00000140: 52c7 9c3c e054 f93d a892 26bd 2b6f 303d
00000150: 2644 fb3c 2479 423b 0bad 7e3b d8b3 873d
00000160: fe44 0e3d 09e2 c83d f213 0a39 95f9 c63d
00000170: 4056 e63d cd5e 4ebd 208e 343c e03f b03d
00000180: 5ffd 893d 1689 b03d 3255 993d c4d7 76bc
00000190: c0a1 fc3d 0be8 773c 0558 fa3c 77a8 0d3d
000001a0: daaa a93c 3670 f23c 6d06 b1bc 10b8 e63c
000001b0: c3a8 873d c6c6 6bbd 9a99 d4bc 3cc6 6dbc
000001c0: dbc9 b93d 524e 413b 5e32 32bd 91dd ee3d
000001d0: ba1f 0d3d 68e6 a13c af69 93bd 1b14 b33d
000001e0: 6349 183e b511 10bd 9d7a 03bd ed33 333e
000001f0: c927 fe3d 73d2 8cbd 701a 16bd 5e75 e73d
00000200: a43c 8a3d 9110 e6bc b1dc 62bd 8ca8 113e
00000210: a0f9 783d 5946 cdbc b5bd cebd 33ed 0a3e
00000220: 075f d23d 633f 533d 38a9 eabc 8436 d13b
00000230: 6981 b23d 50af 263d a6fe a9bc eeaa 88bd
00000240: 6cae 1f3e ad9b bb3c c35b 07bc 082f 213c
00000250: db08 babd c9a0 c03d b8a4 a73c 7a8a 893d
00000260: fa0e 203e 4eb9 84bd d3df 3abd 7fa6 9a3c
00000270: 4fa0 23be 5da2 9c3d 97bb 0f3c 4806 963b
00000280: 77fb 073e fd58 86bd 38b6 c9bc 5cf0 c83c
00000290: 6128 10be b491 8abd 026f 28ba 555e 193c
000002a0: 9111 273c e4c1 f73d fc31 ccbb fb5c ab3d
000002b0: 380b f13c 47ad 57be e797 88bd 9f6b e73c
000002c0: 313f d73c bd6b fb3d a6d7 99bd 403d 88bd
000002d0: 39b2 febc 6b32 51be 9a3b 15bd 1801 f43c
000002e0: 1f44 883d 528a 733d 77e0 333c a974 d53d
000002f0: be25 843c 2cde e0bd 06ec 66bb b79a f93d
00000300: cdbd b03d eb16 4fbd 0998 b83c 1103 7b3d
00000310: ec40 3e3d 32cd 55be caa5 883c 6412 983c
00000320: 7a40 07bd 2652 aa3b 45c0 b23c d465 e63b
00000330: ab22 f83c 9aed 8fbe 0bf0 393c 2c6b 703c
00000340: a778 303d 8834 10bc 0210 493a 918d 223a
00000350: 092f 813c 94b1 5cbe 1c89 503b 3f93 e83c
00000360: c545 303e a392 49bd e673 7d3c 04d4 cb3d
00000370: 65ab 3cbe 54c7 adbc 8dda 0cbc 3cfd 803d
00000380: 0487 fc3d 5abf 08bd 7d9e 9abc 0393 523d
00000390: 143c c6bd b5ec 8abc 26ba d5bc b3ef 8c3d
000003a0: 1df6 2d3e 527a 2fbc 027c 5c3c 1199 873d
000003b0: 604d 8f3d d303 063d c690 2cbd ce09 b13d
000003c0: 8c55 313d 8f55 69bd f2da 7e3c b76b e8bc
000003d0: f1e8 983e a68a 21be d11b 39bc 2869 adbd
000003e0: c837 c8bd b156 0abe f761 fe3c 2825 f1bc
000003f0: ff2e ac3d adcc 1f3e 03d0 41bc 5d7a a43c
-0.007378027 -0.048410457 0.0045312787 -0.027000833 -0.27052882 -0.03448976 -0.027897364 0.022981178
0.0075284 -0.008963892 0.022309959 0.027768498 0.015344904 0.030157987 0.02530414 0.0464069
-0.019022599 -0.04033455 0.037260428 -0.019088244 0.259683 0.0011655128 -0.0073778 -0.08712993
0.08087653 -0.10555736 -0.011527597 0.009978068 0.11332794 0.015493 0.016840352 0.056133516
0.0170911 -0.11955115 -0.025166608 0.101517454 0.117618635 0.0140172485 0.010467861 0.092246324
0.092043325 -0.018411262 -0.0015508229 0.12830393 0.0749265 0.037322693 0.049047116 0.108940944
-0.024439648 0.11937683 -0.035314552 0.11654049 0.032956783 -0.21797152 -0.02151536 0.12593243
0.011652673 0.2018851 0.032315362 -0.058291864 0.031466205 -0.26146758 -0.04604054 -0.043277144
-0.025420573 0.21956746 0.043421987 -0.16350648 0.03400897 -0.3204525 0.076697096 -0.20317177
-0.0051241885 0.08684708 -0.022666764 0.071924254 -0.09783185 -0.123948045 -0.015671425 0.076215245
0.019138012 0.12174392 -0.040667206 0.043074768 0.030672144 0.0029674256 0.0038860466 0.06626099
0.034733765 0.09808738 0.00013168136 0.09715573 0.1124692 -0.050383378 0.011020213 0.08605933
0.0673778 0.08619897 0.07486953 -0.015066091 0.12335539 0.015131007 0.03055955 0.03458449
0.020711351 0.029594522 -0.02160951 0.02816394 0.066239856 -0.057562612 -0.02595215 -0.014512595
0.09071704 0.0029496145 -0.043505065 0.11663354 0.034454085 0.019763187 -0.07197892 0.08744069
0.14871745 -0.035173137 -0.032099355 0.17500277 0.12409932 -0.068760775 -0.036646307 0.11301683
0.067498475 -0.028084071 -0.05538625 0.14224452 0.060784936 -0.025057958 -0.100947775 0.13567047
0.10272031 0.051574122 -0.028645143 0.0063846726 0.08716089 0.040694535 -0.020751309 -0.06673227
0.1559388 0.02290138 -0.008261624 0.009837873 -0.0908372 0.09405667 0.020464286 0.067158654
0.15630713 -0.064806566 -0.04562361 0.01887822 -0.15979122 0.07648156 0.008772752 0.0045783855
0.1327952 -0.06559942 -0.024623021 0.024528675 -0.14077903 -0.06766072 -0.0006425233 0.009360869
0.010197059 0.120975286 -0.0062315445 0.08367344 0.029424295 -0.21062194 -0.06669598 0.02824956
0.02627525 0.12276409 -0.07511835 -0.066523075 -0.031090843 -0.20429389 -0.036433794 0.029785678
0.06653618 0.059458084 0.01097881 0.10422642 0.016131278 -0.10979876 -0.0035235896 0.12187713
0.086299516 -0.050558966 0.022533434 0.06128222 0.046448633 -0.20879057 0.016680617 0.018563457
-0.033020474 0.005197781 0.021820197 0.007031182 0.030289968 -0.28110963 0.011348735 0.014673989
0.043083813 -0.008801587 0.0007669927 0.00062009046 0.015769498 -0.21552116 0.0031820005 0.028390525
0.17214115 -0.04921211 0.015469527 0.09952548 -0.18424757 -0.021213211 -0.008597028 0.062983006
0.1233044 -0.033385612 -0.018874401 0.051409733 -0.09679428 -0.016958574 -0.026089739 0.068816565
0.16988416 -0.010710316 0.0134573 0.06620992 0.0699718 0.03271849 -0.042130254 0.08644448
0.043294474 -0.05696636 0.01555513 -0.028371675 0.2986522 -0.15775546 -0.011298136 -0.084673226
-0.097762644 -0.13509633 0.031052573 -0.029436663 0.08407401 0.15605421 -0.011829379 0.020077879

fc1.bias f4 [400]
00000000: 2155 483e 1ea4 47bd b9f1 8bbc 249c 193d
00000010: b619 13bc 9eed 1cbd fda4 d9bc 2954 3abe
00000020: 1b47 87bd dace 86be 90a1 4cbd 21ed a4be
00000030: 6ba2 e63b e102 f0bc dee8 d7bd 2ea7 a5bd
00000040: 5f73 913b ffb6 033b ccf4 e3bd 8b1b bc3d
00000050: 7413 46be 7957 183e 55ea d6bd f548 44be
00000060: d564 65be 564c 6bbe d9d4 21bd 4054 a83d
00000070: 485f 0c3d 88bb 23be b056 db3d 4442 be3d
00000080: d903 3d3d 5b40 253e a0af 0a3e 1f8a e33c
00000090: be14 b13d 2d5b 1fbe a32e bcbc 25c3 babd
000000a0: 0227 abbd 77ae 59be a610 9a3d 8439 bcbd
000000b0: eb7b 69bb d201 463e b884 183d 853d 48bc
000000c0: 5ce3 223e 256e b0be c6b2 1c3e 3016 1cbe
000000d0: d00e 403e 7988 0f3d 5b17 3cbe ff8b 35be
000000e0: 2fd0 2bbe 8b65 c23d a545 e43d 60e5 8c3d
000000f0: 1170 6f3d 33b3 c63d f6d8 5abe db8e 31bd
00000100: d18e aabc ddcb 883d 915f c13d f41d 1f3c
00000110: f3fa fe3c d10a 2abe 8516 37be 6344 53be
00000120: 303d f93d 755c 83bd df22 2ebe 862a 83bb
00000130: 0594 cf3b ffbc 4fbe 44b2 e03d 7115 223d
00000140: cb00 1e3e 28b2 cebd 7970 13be 4a39 79be
00000150: 26ff d03c e139 7abe 2a46 c63c 7ca9 12be
00000160: 1f98 5cbe c824 a1bc ce63 dd3c eb01 b6bd
00000170: f1de 05be 642b 6abe e4d6 40be 03e8 2d3d
00000180: 7346 79be 86c0 6abd 5964 adbd 7cd3 adbd
00000190: 001f 263e 1665 4abe ecbd 263d 83ee d93c
000001a0: 3b10 66bd 317f 12be 7309 f73d daa4 42be
000001b0: 8996 71bc d18d 0bbd 0890 93bd 3f8f 08be
000001c0: 9bdb 993d f79d 093e 6a92 82be 6a4e 443d
000001d0: 9138 98be 72d7 a6bd 31b3 54bd 0061 9c3d
000001e0: a0f1 fe3d a7a5 a53c 4b76 50bd 6481 59be
000001f0: a2da acbc 0ef7 113e b997 8bbc 420e b1bd
00000200: 8bca 03be 591e 323d 8ca1 123e 2bf7 f0bb
00000210: 7495 5c3c d7ba 373e 8a85 b93b d7fa 233d
00000220: e0cc 8e3d 097d 90bc fb96 353d 01c3 79be
00000230: 2268 8c3b f852 06be a7dc 8e3d 3043 f9bd
00000240: 3410 6fbe ba6c f73d 537b 1ebe 6a94 36be
00000250: d577 27be c985 87bd 59c8 febd 4729 55be
00000260: 0b3f ac3d 9ea6 6b3d b4d4 373e 4d00 20be
00000270: 4305 5abd 2ab4 19bd 9e11 34be 96f0 c8bd
00000280: 2cbc 033e c5aa babd 14ee 913d ef22 f4bc
00000290: 57dd 5dbe 1e20 fabd fb89 a93b eb99 823d
000002a0: 6127 b7bd b1f9 dcbd 4e0c 86be 8792 6dbe
000002b0: d6e5 0dbe 3570 793d 5f74 da3c 6c58 433d
000002c0: 0753 4cbe 19f8 61bc 1b78 45be bde3 bcbd
000002d0: eedc a23d a7a2 87bc 7347 8abe 11d3 7bbe
000002e0: 919f 10be 091b 15be ba61 52be 9188 583c
000002f0: 349c 70bd e758 02be bbba 783d ef4d 9dbe
00000300: fd0f 9b3d fe9a d03d 1091 7dbd bbe4 b53d
00000310: 14d9 cdbd 9ed9 0fbe 5816 a13d 66fd 66be
00000320: 59bc 4bbe 0419 363e 8a98 57bd 8bda d03c
00000330: 322e 16be 360d c5bc be07 d6bd 4109 083e
00000340: bc94 f73d 7151 8fbe ad68 203e 8507 91bc
00000350: 8a89 8ebe 990d 453c e06a 30be faaf bf3d
00000360: 784f cfbd 79eb 39be 7f43 9dbe 08a3 1c3d
00000370: e6ef 6bbe 712e d53c 887c 203d a76e 2fbe
00000380: 56f0 223d 3f4b 50be f88f abbd 048f 91bd
00000390: 3222 f13d a338 a4be 98f3 80bd 79d9 ffbd
000003a0: a5c3 1ebd 2749 5ebd 75eb 63be a903 3ebd
000003b0: a842 41bd 53c2 5fbe c577 a33d 32c7 e03d
000003c0: 3892 c93d d37a de3d c2a0 00be d7d8 71be
000003d0: da34 193d e2d2 febc d22e c73c 6109 533d
000003e0: 374d 51be 5a18 62be e406 2abe 18d1 15be
000003f0: adbe 8d3d 0f96 ae3d f456 49be f7a6 34be
0.19563724 -0.0487405 -0.017083036 0.037502423 -0.008978298 -0.038312547 -0.02656793 -0.18196167
-0.06605359 -0.2632969 -0.049958766 -0.32212165 0.0070384047 -0.029298248 -0.10542463 -0.080885276
0.004438802 0.0020098088 -0.11130676 0.09184941 -0.19343358 0.14877118 -0.10493914 -0.19168456
-0.22401746 -0.22978339 -0.039509628 0.082191944 0.034270555 -0.15989506 0.10709894 0.09289983
0.046146248 0.16137831 0.13543558 0.027775822 0.086465344 -0.15562125 -0.022971457 -0.09119252
-0.083570495 -0.2125796 0.07522707 -0.09190658 -0.003562684 0.19336632 0.037235945 -0.012221699
0.15907043 -0.34459034 0.15302572 -0.15242839 0.1875565 0.03504226 -0.18368284 -0.17729186
-0.16778634 0.09492024 0.11146096 0.06879687 0.058456484 0.09702148 -0.21371827 -0.04334913
-0.020820053 0.06679509 0.09442056 0.009711731 0.031125521 -0.16605689 -0.17879684 -0.20631556
0.12169874 -0.06414119 -0.1700549 -0.004002872 0.006334784 -0.2028694 0.109715015 0.03957123
0.1542999 -0.10092574 -0.14398374 -0.2433826 0.02551229 -0.24436142 0.024203379 -0.14322466
-0.21542405 -0.019670859 0.02702513 -0.088870846 -0.13073327 -0.22868115 -0.18831974 0.04245759
-0.2434328 -0.05731251 -0.084664054 -0.08487603 0.16222763 -0.19765124 0.040708467 0.026602989
-0.056167822 -0.14306332 0.12062349 -0.19008198 -0.014745363 -0.034070794 -0.07205206 -0.13335894
0.075125895 0.13439165 -0.2550233 0.047926344 -0.29730657 -0.08146562 -0.051928703 0.07635689
0.1244843 0.02022059 -0.050894063 -0.21240765 -0.021100346 0.142544 -0.01704012 -0.086452976
-0.12870233 0.043485973 0.14319438 -0.0073536835 0.013463367 0.17942367 0.005661671 0.04003414
0.069726706 -0.017637746 0.04433344 -0.24390794 0.0042848745 -0.13117588 0.0697568 -0.12171018
-0.23346025 0.12081285 -0.15476732 -0.17830053 -0.16354306 -0.06617314 -0.12440557 -0.20816527
0.08410462 0.057531945 0.17952234 -0.15625115 -0.053227674 -0.037525333 -0.17584845 -0.09811513
0.1286475 -0.09114603 0.07125488 -0.029801814 -0.21666466 -0.12213157 0.0051739193 0.06377014
-0.08943058 -0.10789812 -0.26181263 -0.23200427 -0.13857207 0.060898025 0.026666818 0.047691748
-0.19953547 -0.013792061 -0.19284098 -0.09223125 0.07952295 -0.01655705 -0.27007636 -0.24592234
-0.1412337 -0.14561094 -0.20545092 0.013216154 -0.058742717 -0.12729226 0.060724955 -0.3072352
0.07571409 0.101858124 -0.06190592 0.088815175 -0.1005117 -0.14047858 0.0786559 -0.22557601
-0.19896068 0.1778298 -0.052635707 0.025494834 -0.1466606 -0.024054151 -0.104506955 0.1328478
0.12088916 -0.27991822 0.1566493 -0.01770378 -0.2783931 0.012027168 -0.1722827 0.09359737
-0.10122579 -0.18156232 -0.30715558 0.038241416 -0.23040733 0.026023122 0.039181262 -0.17132054
0.039779983 -0.20341204 -0.08377069 -0.07107356 0.117741 -0.3207446 -0.06296462 -0.124926515
-0.0387608 -0.054268982 -0.22257788 -0.04639021 -0.04718271 -0.21851473 0.079818286 0.109754935
0.09842342 0.108632706 -0.12561324 -0.23617874 0.03740392 -0.031106416 0.024314318 0.051522616
-0.20439611 -0.22079602 -0.16604191 -0.14630544 0.06921134 0.08524715 -0.19662076 -0.17641817

fc2.weight f4 [300, 400]
00000000: 0cb7 08be 3f32 603d 78ce dc3d 6e7c 70bd
00000010: 400e 07bd 803b 16bd 1731 14bd 92f9 b43d
00000020: 6a24 883d 56d7 b8bd bab1 22b9 9c5a 933d
00000030: e955 9ebd 0cae fbbd 74b1 6ebd c45c 86bd
00000040: 2a53 6ebb 0559 7f3d 355a 0abd 0a03 ac3d
00000050: 0cc5 d3bb 219c 313e 87db 713d 5f6d 83bd
00000060: ad12 61bd f07c 2a3c 825f 143d b52b 2f3e
00000070: 9c8c f2bd a469 a03d 95ac 843d 6bbc 2dbc
00000080: f53e 3b3d 3b80 2c3c d277 963d 3d9c d53d
00000090: dd61 b1bc f83f d8bd 4fb3 b23b c4cc 0fbd
000000a0: 5797 483c 6a7e 1e3e 80ce 00be 79a6 1dbe
000000b0: 62d3 f1bd c97c 9cbd f304 1f3b 5db2 ff3d
000000c0: 9ed6 c6bd 7785 923d 8216 cdbc 8b48 a8bd
000000d0: c48f a9bd 9756 993d 3569 ee3d 58b1 09be
000000e0: df6a 83bc 2ee1 663c 702e 3c3d fa3a 0dbe
000000f0: d90c 3dbe cebb 403d 9b62 883d 0163 123d
00000100: 1c6b b13d 57a5 03be c322 8e3d 726d f83d
00000110: 6d02 b5bd 0540 50be a94d d6bb ba33 663d
00000120: f157 15bd 742c 6dbd 39b6 97bc 7f1c 26bc
00000130: 1ad7 1d3d 1bbf 013d 08a2 08be f459 993d
00000140: 8456 fbbc d518 2abc ea0f 9d3d bd85 213d
00000150: c94a e53d 354c 12bd 8b7a 8fbd 7a85 01be
00000160: 1d90 e0bd 7ea5 90bd 6f8a db3c 57d4 ef3d
00000170: 2f8a d6bd b27a babd 597b d23d ec4e b53d
00000180: a9df 76bc fdde f3bd b48f 53bd 5c49 3bbd
00000190: aa8b 73bc 2233 a43c a34b 9fbd 3f60 79be
000001a0: 6f47 273d 2800 fd3d 2ca1 ab3c 2bf3 24bc
000001b0: 64b7 afbd a4bc 46bd 169b c6bd 1cf3 b0bc
000001c0: d8d1 de3c 5057 173d a1d2 8f3c 6150 93bc
000001d0: 97f8 233c 1e2f 01ba 7016 f7bd 85bf 0f3e
000001e0: bb07 d43d 8116 763d 0dcc 703d a7af 043e
000001f0: 5038 fcbd b88d 723e 4555 153c ec16 b03d
00000200: 1166 863d 7679 bc3d 82d7 8c3d 2318 09bd
00000210: d67e 04bd 277b 303d 2a95 633e 2c2c 533d
00000220: 07a8 d43c bb3f 783d 0dfa 003e 6b28 44be
00000230: 8773 ce3d 66a5 df3d c071 34bd 05d5 413e
00000240: ea69 61be ff05 40bd 03ac 5ebd c036 6abd
00000250: 3d16 cf3d 5055 813d 9508 55be 5d1d a4be
00000260: d10b e83d 2461 003c 7f6b da3c bced 743d
00000270: 3536 7e3d e16d afbd 9671 7cbd 4d31 ffbc
00000280: 3885 d53c f5f4 bfbc 2561 e93c 18a5 8fbc
00000290: c376 303d 9bff 80be 53a1 1b3d be3b de3d
000002a0: a012 813c 63a3 39bd 3f56 0c3e 621a f53c
000002b0: 2df3 063e cdd5 233d 748a a1bd 4fc7 81be
000002c0: cada 503d 2762 313d 332a 2b3d 727f 00be
000002d0: 30d1 263c d028 12be 803f 873d ac7b 8ebd
000002e0: 31b2 333d 3e7e cabd 5b7d 14bd ff6c 57bd
000002f0: 30f2 b7bd c76b f7bd ff98 07bd 5269 42bd
00000300: 996c 293c ac87 3ebd b4a8 98bd 81d9 9bbd
00000310: 0698 4cbd df33 88bd 5835 6bbd 0f4d b23d
00000320: 6f08 a3bb eee3 62bd 2c78 74bd e19e 1bbb
00000330: 6650 cf3d 9223 f5bd bf2d 75bd 2d8f 99bc
00000340: cb39 f3bd 8163 a53d 39a7 a43d 7c9d cbbd
00000350: b4ba d7bd b7ba d83d 1a73 893d 73bf 893c
00000360: b278 9e3d 37db 743d 86b4 b23d 225e 20bd
00000370: fbf0 10be 8f21 86bc dfab adbd 4f10 0d3d
00000380: f825 7bbd bd5d 393b 18d7 843d f42b a4bd
00000390: fe15 02be 079c 3e3d 2a62 1abd b48f 92bd
000003a0: 5297 b13d 0480 26be a37d 81bd 18ff 42bd
000003b0: 9d8e 80bc df5a 38bd a556 043e eaa0 81bc
000003c0: ed5d 35bd b71e d0bd 1649 823d 0490 333d
000003d0: 6ce2 27be 8aac 62bd 4f87 503d ba0d 88bb
000003e0: db51 56bd e93d 30be 3542 eabc ed38 28be
000003f0: 8f76 ae3e 45e2 a0bd b445 5dbc 5265 1b3e
-0.13351077 0.05473542 0.10781568 -0.058712415 -0.032972574 -0.036677837 -0.03617963 0.08836664
0.066475704 -0.09025447 -0.00015515732 0.07195017 -0.0773123 -0.12289056 -0.0582747 -0.065606624
-0.0036365488 0.062340755 -0.033777434 0.08399017 -0.006462699 0.17344715 0.05904725 -0.06417345
-0.05494945 0.010405764 0.036223896 0.17106517 -0.11843225 0.07832649 0.0647823 -0.010604004
0.045714337 0.010528619 0.07347073 0.10430191 -0.02165311 -0.10559076 0.005453504 -0.03510739
0.0122431135 0.1547791 -0.12578773 -0.15395536 -0.11807896 -0.076409884 0.0024264425 0.12485192
-0.09708904 0.07154363 -0.025035147 -0.082169615 -0.08279374 0.07487219 0.116411604 -0.13446558
-0.016042171 0.014091773 0.045942724 -0.13792029 -0.18461932 0.047054105 0.066594325 0.03573895
0.086630076 -0.12856041 0.06940224 0.1213025 -0.08838353 -0.20336922 -0.0065400195 0.056201674
-0.03646082 -0.057903722 -0.018519508 -0.01013863 0.038535215 0.031676393 -0.1334306 0.0748786
-0.030680902 -0.010381897 0.07669051 0.039434183 0.11195905 -0.035717208 -0.07005795 -0.12648574
-0.109649874 -0.07062815 0.026799409 0.117104225 -0.10475575 -0.091054335 0.10277433 0.08852944
-0.015067973 -0.11907766 -0.051650718 -0.045724258 -0.0148648415 0.020043913 -0.077780984 -0.24353121
0.04083961 0.123535454 0.020950876 -0.010067741 -0.08579901 -0.048519745 -0.09697549 -0.021600299
0.02719967 0.036948502 0.01755649 -0.017982664 0.010007999 -0.00049279805 -0.120648265 0.14037903
0.10353037 0.060080055 0.058788348 0.12957631 -0.12315428 0.23686874 0.009114568 0.08598122
0.06562436 0.09202854 0.06877042 -0.033470284 -0.032347523 0.043086197 0.2222487 0.051555797
0.025959028 0.060607653 0.12595387 -0.19156043 0.10080629 0.10920219 -0.044053793 0.18928917
-0.2201306 -0.04688072 -0.054363262 -0.05718112 0.101116635 0.063151 -0.20804055 -0.32053652
0.11330379 0.00783566 0.026662586 0.059797034 0.062063415 -0.085658796 -0.06163176 -0.031151438
0.0260645 -0.023432234 0.028488705 -0.017534778 0.04308201 -0.25195011 0.037995648 0.10851239
0.015755951 -0.045321833 0.13704775 0.029919807 0.13178702 0.03999882 -0.07887736 -0.25347373
0.050989904 0.043306496 0.04178829 -0.12548617 0.01018171 -0.14273381 0.066039085 -0.06957182
0.04387111 -0.0988736 -0.03625236 -0.05259418 -0.089817405 -0.12081104 -0.033104893 -0.047463723
0.010340833 -0.046516106 -0.074540526 -0.07609845 -0.04994967 -0.066505186 -0.05742392 0.08706104
-0.0049753706 -0.055393152 -0.059684917 -0.0023745822 0.10122757 -0.11969675 -0.05985808 -0.01874503
-0.118762575 0.080756195 0.08039708 -0.09942147 -0.10533658 0.10582488 0.06711407 0.016814923
0.077378646 0.059779372 0.08725838 -0.039152272 -0.14154427 -0.016373424 -0.084800474 0.03443938
-0.061315507 0.0028284632 0.064863384 -0.08016196 -0.12703702 0.046535518 -0.037691273 -0.071563154
0.0867144 -0.16259772 -0.063227914 -0.047606558 -0.015693003 -0.045008536 0.12923677 -0.0158238
-0.044279028 -0.101621084 0.06361596 0.043838516 -0.16394967 -0.055340327 0.05091029 -0.004152027
-0.052324157 -0.17211117 -0.028596023 -0.16427965 0.34074828 -0.078556575 -0.013505388 0.1517537

fc2.bias f4 [300]
00000000: dff9 f0bd 05a4 903d 20a0 313c 1001 a93c
00000010: bd59 afbd e54b 1cbd b19f 05bd afe8 bbbc
00000020: 11c4 083d 50cc 90bd d10b 06bd 4eb7 babc
00000030: 6939 8b3b 7ab9 94bc bb6d 1d3a 6c40 1abe
00000040: b349 0bbd ee33 a23c 7344 e7bc 563e 773d
00000050: 98a6 c4bd cf5c 2fbd 055e 073d 251a 21bc
00000060: 2617 a63b 922c 8dbc 2dbd f33d e0d4 81bd
00000070: 7f09 34bd 08a4 593d 76b7 6d3c b61e 95bd
00000080: 2688 a2bc 6849 56bb b19f c6bc 2024 a7bc
00000090: d52d 36bd 0c4f 2f3c fc77 adbd 64be b5bd
000000a0: cca6 64bd 3ae5 47bd a207 803d fe44 7f3d
000000b0: 691e 1ebc 8b20 973c 52d7 d2bd f640 6bbc
000000c0: c642 09bd d160 d43d 77be e8ba 5c19 3bbc
000000d0: d23e 09be cbca 033d 9a5c 4abd 738b f4bd
000000e0: ccec 62bc f3d0 853c ddf7 12bd b52c 56bd
000000f0: 8dd7 ab3d 1d35 88bd 3c93 06be f3ab 09be
00000100: b72c 2ebe 357b 16bd 50e0 7b3d ae02 0ebe
00000110: 2eaf 51bd cee2 ed3b c14c 1c3c 20f8 88bd
00000120: 9904 cdbd 3ecb c3bd 16a3 b33d 0087 873d
00000130: cccb 61bd 9e21 04bd 0804 a8bc c778 91bd
00000140: 1e7f 96bd b5fc 65bc aa9c 0a3d 6f5b b2bd
00000150: 5bc4 9abd ac04 70bd 3ea2 803d 4ab3 3bbd
00000160: 437a e6bb 2117 4dbd cc28 72bd 5b82 ecbc
00000170: 844a edbc 5db5 a1bd b4d2 ddbb af24 523c
00000180: 2704 50bd 968a 5c3d e78b 063b f2c1 e43b
00000190: 69d5 10bd 6749 6dbd f30d 873d 1048 e9bc
000001a0: 8aa2 d3bc d880 773d 7668 92bd 0bd3 0dbd
000001b0: 8207 a73c 3a4a 6cbd 5a93 40bd 04e2 febc
000001c0: a23f 50bd a582 33bd f4ec e7bd ec28 903d
000001d0: 4cff 153e 2a26 37bc 8595 88bc d500 5ebd
000001e0: 49bd b23d b234 1a3d e6d9 02be 6244 593c
000001f0: 1c5f dbba 9981 40bd 36b0 04bc b026 d13d
00000200: c4a3 e7bb 74b9 cb3a d7da 4e3d b062 11bc
00000210: daf3 333d c929 ab3d 3ef4 b7bc e1c1 31bc
00000220: f070 ba3c 0e41 bd3c 6053 c8bc 644b 0fbe
00000230: 96de 9dbc 013b 033e e924 36bd 91cd b8bc
00000240: 8fce 3ebd b835 1f3e 24f3 8ebd 72a3 90bd
00000250: 4084 acbb 82a1 38bd 729f f8ba dc15 b6bc
00000260: 7955 d8bb 36d6 0a3e d42c 02be cdbe cebd
00000270: ee29 5ebd b2eb 8e3d 86f2 55bd 3559 2fbb
00000280: 6f98 b0bd 6aaf 1a3c 478b 3cbc bbe4 b6bd
00000290: 28c2 0bbc 4ec9 03bd 4d15 74bc 910a 75bd
000002a0: 21a1 d2bc 0739 3dbc 4b7d 3a3c a2f0 12bd
000002b0: 6851 44bd e71a 18bd d616 afbd 8f4c 23bd
000002c0: 0710 f23c 5fd2 033d a0b9 293d 4f77 da3c
000002d0: 95bb dd3b ec42 5e3d ea6a 7e3d be7a 0b3e
000002e0: 2b48 993b 5699 013e f4cd a4bc 74e4 44bd
000002f0: f395 263d 002b 7fbc 336f 02be f611 14bd
00000300: dff3 aebc 5904 ecbc 7a11 333d 7715 3cbd
00000310: da58 a2bd 6e6c 3d3c 24bf 52bd bdb3 a03b
00000320: 8072 7dbc 70b5 863c 6092 abbc 8e19 86bd
00000330: 197f 1dbe ed69 9a3d a386 87bc 4787 ebbc
00000340: 82d0 b33c 3036 eb3b c34f 30bd 04f3 043d
00000350: 32ef 7f3c d50c b6bd 85aa 93bd cc5f a43c
00000360: 8a83 22bd 5b9f 86bd 0c76 b8bd 958b c3bc
00000370: ba7f a0bd a47e 45bc 2277 9e3d b029 723c
00000380: f624 4fbd 2943 03bd 48a1 8ebc a4a9 21bd
00000390: 5af8 d23c 18ce a2bc 723a fc3c 77f9 a7bc
000003a0: d379 dfbd 2522 e1bc c117 4a3c b423 1dbc
000003b0: 9023 0abd 7aa4 9bbc e87b d73c 31b2 48bc
000003c0: 8c35 6bbd 8fa0 9f3d dcb0 edba 677d 94bd
000003d0: 59da 873b dc84 4abd 8bf1 e23d 28b3 d83c
000003e0: 649b 43bb b776 60bd 3cc8 1dbe 9c32 ccbc
000003f0: b060 bbbc c29d d3ba 67cd efbc 3705 afbd
-0.11766409 0.07062534 0.010841399 0.02063039 -0.08562038 -0.038158316 -0.032622997 -0.0229381
0.03339011 -0.070702195 -0.032726113 -0.022792485 0.004248787 -0.018154848 0.0006005426 -0.15063637
-0.034005832 0.019800153 -0.028230881 0.060362183 -0.09602088 -0.04281312 0.03304865 -0.0098328935
0.0050686775 -0.017233167 0.11901317 -0.06339431 -0.04395437 0.053134948 0.0145090725 -0.07281248
-0.019840311 -0.0032697562 -0.024246069 -0.020402968 -0.044477303 0.010699999 -0.08470151 -0.08874205
-0.055823132 -0.04880259 0.06251456 0.062321655 -0.009650805 0.018448135 -0.10294975 -0.01435875
-0.033510946 0.10370029 -0.0017756958 -0.01141962 -0.1340287 0.03217582 -0.049404718 -0.1194066
-0.013850402 0.016334986 -0.035880912 -0.05228873 0.083907224 -0.066507556 -0.13142103 -0.134445
-0.17009245 -0.036738593 0.061493218 -0.1386821 -0.051192455 0.0072597032 0.009539784 -0.06687951
-0.100106426 -0.0956025 0.087713405 0.06617546 -0.055125996 -0.032258622 -0.020509735 -0.071031146
-0.073484644 -0.014037301 0.033840813 -0.08708846 -0.07556983 -0.058598205 0.06280945 -0.04582528
-0.0070336177 -0.050070886 -0.05912094 -0.028870752 -0.028966196 -0.078959204 -0.0067695025 0.012826129
-0.05078521 0.053843103 0.0020530166 0.006981128 -0.035359774 -0.05793133 0.065944575 -0.028476745
-0.02583434 0.06042561 -0.071488306 -0.034625094 0.020389322 -0.057687975 -0.047015525 -0.031113632
-0.050841935 -0.043825764 -0.11324492 0.07039055 0.1464817 -0.011178533 -0.016672859 -0.054200012
0.087275095 0.03764791 -0.12778434 0.013260933 -0.0016736719 -0.046998594 -0.008098653 0.10212457
-0.007069083 0.001554294 0.05050167 -0.008873627 0.043933727 0.08357579 -0.022455331 -0.010849447
0.02275893 0.02310231 -0.024453819 -0.13993603 -0.019271176 0.12815477 -0.044468794 -0.02255896
-0.04658371 0.15547836 -0.06979969 -0.07062425 -0.005264789 -0.0450759 -0.0018968417 -0.02222722
-0.006601986 0.13558277 -0.12712413 -0.10094986 -0.054239206 0.06978549 -0.05223324 -0.0026756052
-0.086228244 0.009441236 -0.011507816 -0.089303456 -0.008530177 -0.0321744 -0.014897657 -0.05982453
-0.025711598 -0.011549241 0.011382411 -0.035874017 -0.047929198 -0.03713503 -0.085492775 -0.039867934
0.029548658 0.032183047 0.04143679 0.026668219 0.0067667463 0.05426304 0.06211368 0.13621041
0.0046777925 0.1265615 -0.020117737 -0.048069432 0.040670346 -0.015574217 -0.12737732 -0.03614994
-0.021356521 -0.028810667 0.04371784 -0.045918908 -0.07927103 0.011561496 -0.051451817 0.004904239
-0.015469193 0.016443938 -0.02094382 -0.06547843 -0.15380515 0.07539735 -0.016543692 -0.028751029
0.02195001 0.0071780905 -0.043044817 0.03245832 0.015620993 -0.08889166 -0.072102584 0.02006521
-0.039676227 -0.065733634 -0.09006891 -0.023870269 -0.07836862 -0.012054119 0.077375665 0.014780447
-0.050572358 -0.03204647 -0.01741089 -0.039468423 0.025753189 -0.019873664 0.030789588 -0.020504696
-0.10911908 -0.027482102 0.012334765 -0.009591032 -0.03372532 -0.018999327 0.0263042 -0.012249515
-0.057424113 0.07794296 -0.0018134373 -0.07250481 0.004145902 -0.04944311 0.11081227 0.026452616
-0.0029847259 -0.054800715 -0.15408415 -0.024926476 -0.022873253 -0.0016145038 -0.029272748 -0.085459165

fc3.weight f4 [2, 300]
00000000: 9241 a43d e000 9e3b 197d 69bd d215 01be
00000010: 8bf4 23bc 0a95 683c 3af0 3fbc 417f 283e
00000020: 685b b73d 9cb4 3dbc be94 aebd 2e6c 523e
00000030: 83d2 afbd 0cb4 92bd 5a9f 14bf 2ce1 14be
00000040: 62c9 f93c 9d6b cd3d 0dc4 093e 67d2 1d3e
00000050: 009b 1a3f 314f 56bd 0704 343e b7fc 1bbd
00000060: 9420 083e 8151 d03d ada2 bf3d dd96 82bd
00000070: 1c4e 0cbe 69ef 51bc ea14 7e3d 34de 403e
00000080: 1193 e73d af1b 183e f38f a7be 4a45 3c3e
00000090: 5993 14be f5dd 123f 6e01 5c3e cf42 3ebe
000000a0: 78e6 8abe b517 7b3e dd00 8dbe f92a e73d
000000b0: 50cd 073e 570a 623d 3117 c33e 93d5 7c3c
000000c0: 928b 04bf 099e 18be 9aef 54bd e41e 8a3e
000000d0: aa63 203e 6267 4e3d 76cb 96be 6085 56bd
000000e0: d81e 83bc 5b72 e6bd 2452 d63c 0660 07be
000000f0: d5a7 e2bd c8ce 31bd 7ed2 8bbe 2262 0d3e
00000100: 2353 643d 28e6 acbe 8c72 ed3c 7d89 d9be
00000110: b949 77bd bf88 29be 28fa d7bd e2ce 46be
00000120: 7bc4 003e e46c ab3d 6999 9ebc ef1b 713e
00000130: 9f24 343e 6fa9 69be 0a6b fdbc 8626 7b3e
00000140: 7688 b43c 721a 7f3b 72ff 913d 614d 173e
00000150: 539b 07be 5727 d93d 647c ed3d 1e0e 66be
00000160: 1b5f cc3b 1198 55be ef16 1fbd 07a9 f8bd
00000170: d55c 813d b4bb 6d3c 7b57 de3d a60e 143f
00000180: ee96 25be 98b5 353e bead 03be 2245 b53d
00000190: 483b 7f3e dd97 2cbc 0d08 503c aed6 a23d
000001a0: a4cd 623d 1c1b ddbb dd92 b73d b6cc 1bbe
000001b0: 6c1b 353e 03c3 3bbf 2bfb ab3d a622 273e
000001c0: e568 2c3e 8449 24be 8788 043e 376a 2e3d
000001d0: 09b8 b13d 5f05 043e 5053 04bd 3e56 54bc
000001e0: af68 243d f9d0 193d 7597 6bbe 31b2 dabd
000001f0: f63b 39be a7e9 f8ba a72d 32be e53c 253d
00000200: 5207 a03d d4fb 88bd 27a6 11be c69e 6dbd
00000210: 12a1 bf3e 2845 df3e 6f9f 85be 8d38 a93e
00000220: 4249 79be 3fc9 b03c 0928 b4be 8e01 ffbe
00000230: fd43 7a3e 47fd 633c 9bc8 adbc dc56 40bc
00000240: d757 ecba eb0d 10be f310 ed3c 4b8b 5ebd
00000250: 3608 61be 1c5b 49be 7d27 5dbe 1b0a e9be
00000260: ac94 94bd df54 033d 60db c23d c983 3b3d
00000270: 45e8 40be a5f0 7abc e264 723e cabb 843e
00000280: 0b21 62bd c27c 843d 4038 d2ba bf1f babe
00000290: 7d1a a73d 1551 00be 1e99 883e 9d04 02be
000002a0: e1db 88bd 850a 01bc 78f6 6ebc 3eed 32bc
000002b0: 4975 4cbe 53f0 663d dbd2 033e eb7d 84be
000002c0: cad3 803e 9888 243b 0a44 f0be 5e81 cd3b
000002d0: 3727 483e 6a13 f53c 7d1a 0c3d b882 7d3d
000002e0: 5665 a6bd 93e5 e83d 73da 333c b0e6 e83d
000002f0: bff0 84be f04f 87bc 23fa 383e 1c81 cebd
00000300: c20a 85bd 0202 00be a9a0 e73d f5a8 c8be
00000310: 2808 86be 3371 b4bb 4fdf 853d 9c1f ff3e
00000320: 3b29 6c3e 3442 a3bd 6906 a53d 6a10 60bd
00000330: 084e 8dbe 65bd 253c b2d9 74bd e37c 353c
00000340: f0f3 f6be 6ba1 133e 39e1 0b3e 6787 23be
00000350: f47b cf3e c715 2d3d 2459 11bd 077b cb3d
00000360: 9574 c13d e190 2b3e 103f 1d3e 35b8 c93d
00000370: dc2a f3bd 9c92 b83c 53a5 2b3e 7b75 a7bc
00000380: e281 403e 9d8f f1bd a286 afbc 0e8e 96bd
00000390: a387 273c a55b 1dbd d528 6f3c 271e 1f3e
000003a0: 958c c2be f5f9 7cbd 4fd7 913d f75e a83c
000003b0: 48b6 463e aac6 373d ad98 933d 74dd 823e
000003c0: 2700 7e3e 05dd 90bd 3489 73be 5df5 acbc
000003d0: 4105 473e 80ea b73b 390d 69bd fe66 d93d
000003e0: 8307 d6bc 8951 f7bd 2171 92bc 6be4 2ebd
000003f0: bf19 84bd b5db dabd 236e 92bd 9423 b63e
0.08020319 0.0048218817 -0.057004068 -0.1260598 -0.010007034 0.01419569 -0.011714989 0.16454794
0.08952981 -0.011578705 -0.08524464 0.2054908 -0.08585074 -0.071632475 -0.5805565 -0.14539021
0.030491535 0.10030291 0.13453694 0.15412293 0.6039276 -0.052321617 0.17579661 -0.038082805
0.13293678 0.10171796 0.093572 -0.06376431 -0.13701671 -0.0128134275 0.062031664 0.18834764
0.113073476 0.1485431 -0.32727012 0.18385807 -0.14509334 0.5736993 0.2148492 -0.18580173
-0.2712896 0.24520762 -0.2753972 0.11287493 0.13261914 0.055185642 0.3810363 0.015431779
-0.5177547 -0.14904036 -0.051986314 0.26976693 0.15663019 0.050391562 -0.29452103 -0.05237329
-0.016005918 -0.1125228 0.026162215 -0.13220224 -0.11067168 -0.043410093 -0.2730903 0.13806966
0.055743348 -0.33769345 0.028985284 -0.42487708 -0.06037304 -0.1655607 -0.105457604 -0.19414857
0.12574951 0.083703786 -0.019360261 0.23545812 0.17592095 -0.2281854 -0.03093483 0.24526414
0.022037726 0.0038925675 0.071288005 0.14775611 -0.13242845 0.106032066 0.11595991 -0.22466323
0.0062369234 -0.2085879 -0.03884023 -0.121416144 0.063165344 0.014510084 0.10856529 0.5783485
-0.16170856 0.17745054 -0.12859246 0.08851077 0.24924958 -0.010534254 0.012697232 0.07951103
0.055371895 -0.0067476165 0.08963559 -0.1521481 0.17686242 -0.7334444 0.08397516 0.16321811
0.16836889 -0.16043669 0.12942706 0.042581763 0.0867768 0.12892674 -0.032306015 -0.012960015
0.040138897 0.037552807 -0.23006995 -0.106785186 -0.1808928 -0.0018990532 -0.17400227 0.040341277
0.07813896 -0.066886574 -0.14223538 -0.058012746 0.37427574 0.4360745 -0.260982 0.33050957
-0.24344352 0.021580337 -0.35186794 -0.49805874 0.24439998 0.0139153665 -0.02121382 -0.011739459
-0.0018031549 -0.1406781 0.028938746 -0.05433206 -0.21975788 -0.19663662 -0.21597095 -0.45515522
-0.072549194 0.03206336 0.09514499 0.045779977 -0.18838604 -0.015316163 0.23671296 0.25924522
-0.055207293 0.06469108 -0.0016038492 -0.36352345 0.08159349 -0.1253093 0.2667932 -0.12697072
-0.066825636 -0.007876043 -0.01458513 -0.010920821 -0.19966616 0.056381535 0.12873404 -0.25877318
0.25161582 0.002510583 -0.4692691 0.0062715253 0.1954621 0.029916484 0.03420495 0.06189224
-0.08124797 0.11371913 0.010977375 0.11372125 -0.25964925 -0.01651761 0.1806417 -0.100832194
-0.064961925 -0.12500766 0.1130994 -0.39191404 -0.26178098 -0.0055066585 0.06536733 0.49828804
0.23062603 -0.079716116 0.08057863 -0.054703154 -0.27598596 0.010115956 -0.059777923 0.011077139
-0.48232985 0.14417045 0.13660134 -0.1596962 0.40524256 0.042257097 -0.0354854 0.09935575
0.094460644 0.16754486 0.15356088 0.09849588 -0.11873409 0.022530846 0.16762285 -0.020441761
0.18799546 -0.1179497 -0.021426503 -0.073513135 0.010225209 -0.038417477 0.014597137 0.15538846
-0.3799788 -0.061761815 0.07121145 0.020553095 0.19405472 0.044867195 0.07206855 0.2555958
0.24804746 -0.07073406 -0.23782808 -0.021113092 0.19435598 0.0056126714 -0.056897376 0.10615347
-0.026126629 -0.120760985 -0.01787621 -0.042698305 -0.06450223 -0.10686437 -0.07149913 0.3557402

fc3.bias f4 [2]
00000000: 9356 983d f8ea 5b3d
0.07438388 0.05369088
