saved_agents/actor_target_1.pth (torch_old, 524675 bytes, 6 tensors)

fc1.weight f4 [400, 24]
00000000: bd76 46bd c678 713c bad4 603b 9918 58bd
00000010: 59ac 8cbd 1c86 153c cd8d edbc 6200 36bb
00000020: 611b 54bd 8257 583b e1aa 5dbc 9bb4 94bc
00000030: a68f 6d3d f258 cbbc b49c 2cbc d9e1 fe39
00000040: 9030 c4bd 2512 30bd 71ab 9e3c e3e1 0a3d
00000050: 760d ed3d b2a1 75be 6601 cfbc 50d0 0bbd
00000060: 0eaa ec3d f60c 383d f0d0 5fbd 3b60 813d
00000070: 2da2 713d 265b a53d ae3d d7bc 88e6 df3d
00000080: 928d b83d e0b2 e73d b67b 83bd 9953 753d
00000090: fde5 903c e232 1bbd 5c02 eabc fe59 4f3d
000000a0: fbf3 a93d e08f 133e 26cc 05bc 1afc 6f3a
000000b0: 6bf0 25bc 0ed7 c6bc 40cd 2d3d f91f 97bc
000000c0: 496e c13c 602c 4a3d 49ef 4ebd 584a 413c
000000d0: 4d3e 943c d26c 05be 6b6a 16bd 8694 ad3c
000000e0: 5d72 f83c 3bc1 a53d a65b 2b3d 0527 38bd
000000f0: 68f5 a93d 47a3 2cbe 2d96 15bd 474e f5bc
00000100: cc1e e03b ba2b e43d 1d62 9e3b 2752 91bd
00000110: c345 f23d c683 6fbe fc18 1c3d ee8e e2bd
00000120: 2ba2 ca3d 76c8 96bd afec 4fbc 74ea 823c
00000130: e4fe d3bd 6e92 12be 7da0 babb 1011 a63c
00000140: 6636 bc3d 5498 94bd af97 d6bc 8595 93bd
00000150: 743e fd3c 225c f3bc b463 963c 1132 48bd
00000160: 0117 9c3d 52d0 12be 5fb7 a23d 5555 ff3d
00000170: 4a7b ea3d 19b7 8cbd 1c04 b93d 949c e83d
00000180: b846 e4bc cf88 cf3d 0a20 7d3d 8ffa 08be
00000190: f2a9 e03e f30d 3a3e b643 8f3c 0a47 acbd
000001a0: e920 a6bd 0f75 b639 2870 013c 1000 47bd
000001b0: 38c2 b83e a58a dc3d 0b2c 693b 6fe6 babd
000001c0: a8ac 803d ce7f 0c3a 874b 9cbc e38a 8fbb
000001d0: 4df1 5e3e 514e 263d 13c8 42bd 1f84 09bd
000001e0: 22df 8f3d f5bd 4d3e dd49 2ebd 9151 ce3d
000001f0: 7ae4 463e 72bf 9b3b a5e9 40bd f2bc 1e3d
00000200: 3cba 1b3d f5bc 4b3e 1c19 e1bc c31a 4d3d
00000210: 76bb 233e 0072 15bd a895 95bd d92d 323d
00000220: e80f a03d 7a19 933e 2505 6ebd c21f 663d
00000230: 7457 e53d ec74 92bd daaf 4dbd 16b9 8abc
00000240: 3f9a 383d 5601 07bc 8183 45bd fbfa 85bd
00000250: 41ca babd d747 303d a5b5 9fbc 6faf 04bc
00000260: c8af dd3d 3688 1bbd 589c 92bd 9a83 913d
00000270: e863 77bd 8539 e83c 36d5 8cbc 3c74 683d
00000280: d965 d83d d3f2 0abc fa4a 52bc e6ba 173d
00000290: 5559 3cbd dfb3 40bd f59a 363c 1b34 b33c
000002a0: 4251 04bd 7838 923d d866 9d3d 96a6 b3ba
000002b0: 8edd 353d 6fb6 9ebd e246 863c 7c9f 68bd
000002c0: 2884 1dbd 1016 3a3d edea e1bb 6112 6fbc
000002d0: 8d52 3bbd 0970 9cbc 5036 023d 725a a73d
000002e0: ef3b cb3c ea79 ea3c bafd cf3a 8357 a63d
000002f0: 1f43 9ebd 492a ce3d 729b 53bc 507d ca3d
00000300: 4ffb 4c3e 22c7 333d 7056 fa3c 8a49 5b3c
00000310: e97c 87bc ac25 08be 5264 ca3c 474f f0bc
00000320: 34c2 c73d 6292 583d 5ee6 eebb 7a77 c73b
00000330: fe68 87bc a5de 5abe 8c81 91bc 73f1 603c
00000340: 31d2 b23d 0e47 413d 6cc5 8bbd 1866 cebd
00000350: ab7f 4ebd cc74 7ebe 17d3 86bd 0186 95bd
00000360: d16d d9bc 20d0 00bd 69e7 a03d a718 eb3c
00000370: 440f a1bd f389 38be c839 5f3d da86 00bc
00000380: d169 f0bc a3e7 bdbc 5f3d 483b d2fc 02bd
00000390: c2ee cabd 0f94 75be 4f4f 88bb 6bbf 6ebc
000003a0: 6ed5 b83c afb0 443d 287a e83c 5f19 983d
000003b0: 887c 77bd 076f 9fbe 5fe6 debc 8c8a c13d
000003c0: 77d2 d43c 3029 3cbd a515 bcbc 4482 fb3c
000003d0: 10f9 773d f4d7 84bd 6008 4cbd bfb6 d1bc
000003e0: c60a 38bd 5d11 42bb 4ffc 603b 6541 8bbd
000003f0: ac4b 0f3d 11cf ee3d a595 21bd 5d66 97bc
-0.04845308 0.014738267 0.0034306482 -0.052757833 -0.0686881 0.009126212 -0.02899828 -0.0027771224
-0.051783923 0.0033011143 -0.01352951 -0.018152526 0.057998322 -0.024822686 -0.010535408 0.00048614925
-0.09579575 -0.042986054 0.019368859 0.03390683 0.11574833 -0.23987463 -0.025269222 -0.03413421
0.11555873 0.044934236 -0.054642618 0.06317183 0.058992554 0.08074026 -0.026274528 0.10932642
0.090113774 0.113134146 -0.0642008 0.059894178 0.017687792 -0.037890323 -0.028565578 0.050622933
0.08298489 0.14410353 -0.008166349 0.00091546925 -0.010128121 -0.024272468 0.04243207 -0.018447863
0.023612158 0.049358726 -0.05052117 0.01179751 0.018096114 -0.13029793 -0.03672258 0.021188986
0.03032797 0.080934964 0.04183545 -0.044959087 0.08298761 -0.1685916 -0.036520172 -0.029944552
0.006839609 0.11141153 0.0048334734 -0.070957474 0.11829712 -0.23390111 0.038109764 -0.11062418
0.09894212 -0.07362454 -0.012690707 0.015980937 -0.10351351 -0.14313671 -0.005695401 0.020271808
0.09190063 -0.07255617 -0.026195375 -0.07206253 0.030913569 -0.029707018 0.018358089 -0.048875872
0.07621575 -0.1433728 0.079451315 0.12467448 0.11449297 -0.068708606 0.09033987 0.1135799
-0.027865753 0.10133516 0.061798133 -0.1337683 0.43879658 0.18169384 0.017488342 -0.08411987
-0.08111746 0.0003480096 0.007900275 -0.048584044 0.36085677 0.10768632 0.003557923 -0.09125983
0.062829316 0.00053596206 -0.019078983 -0.0043805703 0.21771736 0.040602032 -0.047554087 -0.033573266
0.07024981 0.20091994 -0.04255091 0.10074151 0.19423094 0.0047530467 -0.04709782 0.03875441
0.038019404 0.198963 -0.027477793 0.05007435 0.1598948 -0.036485672 -0.07303935 0.043500755
0.07815534 0.28730375 -0.058110375 0.05618263 0.11198321 -0.07151207 -0.050216533 -0.016933959
0.045068976 -0.008240065 -0.048221115 -0.06542011 -0.09120608 0.04303726 -0.019495795 -0.008098467
0.10824543 -0.037971698 -0.071587265 0.07105179 -0.060398012 0.02834774 -0.01719151 0.056751475
0.10566301 -0.008480745 -0.012835259 0.037043475 -0.04598363 -0.04704654 0.011145343 0.021875432
-0.032304056 0.07139677 0.076856315 -0.0013706263 0.044400744 -0.0774964 0.016391221 -0.05679272
-0.038456112 0.045431197 -0.0068944604 -0.014591784 -0.045733023 -0.019096391 0.031790078 0.08171548
0.024808852 0.028622586 0.0015868463 0.0812216 -0.07727646 0.10066659 -0.012915479 0.09887183
0.20017742 0.04389108 0.030558795 0.013384232 -0.016539054 -0.1329562 0.02470604 -0.029334677
0.09753838 0.052873977 -0.0072906455 0.0060872408 -0.016529556 -0.21373995 -0.017761968 0.013729441
0.08731497 0.047186904 -0.068247646 -0.100780666 -0.050414722 -0.24849242 -0.06583231 -0.0730095
-0.026541622 -0.031448483 0.07856638 0.028698279 -0.0786424 -0.18021373 0.054498464 -0.007844651
-0.029347332 -0.023181742 0.0030554158 -0.03197939 -0.09908821 -0.23982261 -0.004159845 -0.014572005
0.022562709 0.04802006 0.028378561 0.07426714 -0.060421497 -0.31139395 -0.027209459 0.09450254
0.025979264 -0.045937717 -0.02295954 0.030701764 0.06054026 -0.06486502 -0.049812675 -0.025599835
-0.04493215 -0.00296124 0.0034330075 -0.067995824 0.034984276 0.116605885 -0.039449353 -0.018481428

fc1.bias f4 [400]
00000000: 4c4e 5b3e ca8f 2a3d ae51 05be 6092 0a3e
00000010: e6e0 483d c2a1 a4bc 5577 97bd fb78 17be
00000020: 69d7 cbbd d710 46be 4496 fb3c caed 4dbe
00000030: a095 ef3a ef5b ee3c d939 073d 21dd 0cbe
00000040: 5923 56bc c5a7 e4bc 04b2 e9bd e17d 2c3e
00000050: 8d83 67be 21c1 1f3e 3588 d7bd ff10 02be
00000060: 4314 5abe b465 96be 3ffb 53bd 4431 223e
00000070: 074a ac3a 13ec 4ebe 5458 a63d 270d 323e
00000080: 60ac 883c cdac 333e d20a 853d 2483 183b
00000090: ddaf 303e 0aba 33be f9a9 cfbc 6765 c5bd
000000a0: 9aad 8dbd 1cea 35be 6e86 a13d 36c7 c5bd
000000b0: 0df5 b03d ee45 393e 6081 00bb 0dd7 60bc
000000c0: 5483 e33d a64a 6abe 0f13 673e 548b 44be
000000d0: f643 6a3e 0733 1ebc 9dc2 2ebe 4147 7abd
000000e0: 2f14 06be 5fba 373e b1ed d93d 86f2 033e
000000f0: e0ca 073e 12d8 363e 1847 7bbe 6a23 4fbd
00000100: 8072 17bd fa29 423d bbd1 493d 0d7e a2bd
00000110: 3c49 6c3d 7391 c8bd 064e 1abe 0fde 4abe
00000120: 74d3 023e 8159 8ebd 1b46 71be bd23 9c3c
00000130: 0d63 37bd 9c49 0bbe d752 143e bc53 193d
00000140: 989d 113e 5997 01be 548c bdbd 1096 38be
00000150: 7051 13bd b930 47be b7fa ab3d b823 5dbe
00000160: 1fe0 3dbe ca79 4f3d 4cab 0b3d 06e9 8dbd
00000170: 18da 9dbd 9338 4ebe a184 acbc ec40 c83c
00000180: c88a 73be ba2b 68bd a4d9 88bc 1c75 3bbd
00000190: 2b6a da3d dd8a 62be 11f3 9d3d f27d 8c3d
000001a0: 03c0 223c 9ae9 4fbd 719c c73d e31a 0fbe
000001b0: 9861 e3bd e2ef e9bc 7a2e 13bd 4495 66be
000001c0: 4a76 da3d 3dff e83d 50f1 43be 1379 61bd
000001d0: 451e 46be 5294 52bd 4a6e 293d 5328 533e
000001e0: 3f29 093e fd31 833d e66c 593c aebe 45be
000001f0: fb9a 8fbd ed7a 3a3e c14e 863d c490 d6bd
00000200: b6dd cbbd 1418 b03d cd66 d93d 81f4 54bd
00000210: 80ee 963c 7c7f 583d 10ed 303c d805 293d
00000220: 056e d83d 2833 cd3d b9b7 853c 2d2f 79be
00000230: e301 aebd 471d b5bd c6c1 1abd 56ae 9ebd
00000240: 43d0 1cbe dce2 1f3e 3a3d 09be 02f1 70be
00000250: 8cce 9fbd f9c7 3ebc ca05 c5bd bf5f 45be
00000260: 4d75 b63d 1bfa b73d 692f 333e c6b7 5fbe
00000270: a38e 3bbd 5adf 84bd 9759 d6bd 76ed 093b
00000280: 8ad7 e93d 2ff2 2dbd f556 423e 2b81 21ba
00000290: 4902 28be 2186 ebbc b102 4d3d 6a43 013e
000002a0: c4c4 15be edce c7bd 9b65 39be a73f efbd
000002b0: 4473 9bbd 532d 1b3d 5f61 4cba dba9 803d
000002c0: 6945 25be 314c 153d 6da3 2fbe 9257 e5bd
000002d0: b108 be3d e9a0 b5bc d07b 38be 5ae1 73be
000002e0: 7b0d 13be f85a 02be 370f 37be 8e29 ae3d
000002f0: 15cc 37bc 5501 25bd b8fc 263e 8892 60be
00000300: f59c ed3d 067f 033e 7a39 e03c bce7 da3d
00000310: 02d5 33be e917 40be 083d 273e cdad 7dbe
00000320: 89fe 9cbd 7e45 613e e247 00be 459a 06bd
00000330: e350 14be f996 073d dd49 09be 702e 7c3d
00000340: 0e61 323e 6990 18be 2866 073e d205 e8bd
00000350: cc45 76be 3135 9e3d 73bc 16be 8970 b93d
00000360: a588 a1bd 9eb6 02be b0f9 11be 1ffb e0bb
00000370: 1953 5ebe 8e9b b13d 3115 6c3d a440 20be
00000380: 48fb 863d 062b 60be fd48 9bbc 9372 0fbe
00000390: eeab e83d a822 7cbe 3470 b4bd 8416 debd
000003a0: c3de 97bd de00 e0bc 8727 37be 983b 24bd
000003b0: 99ee e5bc 77e1 15be c278 913d 5f43 e43d
000003c0: 2466 e33c 6ccb 2e3d a345 1fbe c1e9 02be
000003d0: 0276 fd3d 203c c73c b9df 93bd 2e63 df3d
000003e0: 8321 31be f0fb 3bbe 5b7c 1bbe 91a5 74be
000003f0: 87ab 333e 22fe f03d d4e0 1dbe 2d26 a1bd
0.21416587 0.041641034 -0.1301944 0.135324 0.049042605 -0.020096663 -0.07395808 -0.14792244
-0.099531956 -0.19342361 0.0307113 -0.2011024 0.0018278845 0.029096572 0.033014152 -0.13756229
-0.013069951 -0.02791203 -0.11410907 0.16844894 -0.22608776 0.15601017 -0.10524026 -0.12701796
-0.21296792 -0.29374468 -0.05175328 0.15839106 0.001314462 -0.20207243 0.08122316 0.1738783
0.016683757 0.17546387 0.064962044 0.0023271525 0.17254587 -0.17551437 -0.025349604 -0.096384816
-0.069178775 -0.17765087 0.078869686 -0.09657137 0.0864049 0.18093082 -0.0019608364 -0.013723147
0.11109033 -0.22880039 0.22565864 -0.19193774 0.22877488 -0.009655721 -0.17066427 -0.06110311
-0.13093637 0.17942189 0.10641039 0.12885484 0.13260984 0.17855862 -0.24538839 -0.050570883
-0.03697443 0.047403313 0.04927228 -0.079341985 0.05768703 -0.09793367 -0.15068826 -0.19811271
0.12775975 -0.06950665 -0.235619 0.01906001 -0.044772197 -0.13602298 0.14484726 0.03743337
0.14220273 -0.12655391 -0.09255281 -0.18025994 -0.035966337 -0.1945218 0.083974294 -0.21595657
-0.18542527 0.050653256 0.03409891 -0.06929211 -0.07707614 -0.20138769 -0.021059336 0.02444502
-0.2378341 -0.056682326 -0.016705342 -0.04576598 0.10664781 -0.22123285 0.07712377 0.0685996
0.0099334745 -0.05075989 0.09746636 -0.139751 -0.11102599 -0.028556768 -0.035932995 -0.22517878
0.10667093 0.11376808 -0.19135022 -0.055047106 -0.19347484 -0.05141098 0.041364945 0.20620851
0.1339464 0.06406019 0.013270592 -0.1931102 -0.07011982 0.18210955 0.0655799 -0.104768306
-0.099543974 0.085983425 0.10615311 -0.05199099 0.018424273 0.052855954 0.010798708 0.04126534
0.105678596 0.10019523 0.016322957 -0.24334402 -0.084964536 -0.08843475 -0.037782453 -0.07748096
-0.1531382 0.15613884 -0.13402262 -0.23529437 -0.078030676 -0.011644357 -0.09620245 -0.19274805
0.08909092 0.08983251 0.17498554 -0.21847448 -0.045790326 -0.064879134 -0.10466307 0.0021046079
0.11418064 -0.042467292 0.18978484 -0.000616091 -0.16407122 -0.028750481 0.050051395 0.12623373
-0.14625841 -0.09756265 -0.18105166 -0.116820626 -0.075903445 0.03788502 -0.0007796492 0.06282397
-0.16139759 0.036449615 -0.17152186 -0.11198343 0.092790015 -0.022171455 -0.1801598 -0.23816434
-0.14360611 -0.12730014 -0.17876898 0.0850402 -0.011218091 -0.040284473 0.16307342 -0.21930897
0.11602203 0.12841424 0.027371157 0.10688731 -0.17561725 -0.18759121 0.16331875 -0.24773331
-0.07665736 0.21999165 -0.12527421 -0.032861967 -0.14483981 0.033102963 -0.13407083 0.061567724
0.17419836 -0.14898838 0.13222563 -0.11329235 -0.24050063 0.07724989 -0.14720325 0.090546675
-0.07887391 -0.12764975 -0.14255404 -0.0068658735 -0.21711387 0.08672248 0.057637397 -0.15649658
0.06590897 -0.21891412 -0.018955702 -0.1400855 0.11360918 -0.24622595 -0.088104635 -0.10844138
-0.07415535 -0.027344164 -0.17886172 -0.040095896 -0.028067874 -0.1463679 0.07103111 0.111456625
0.027758665 0.042674467 -0.15553908 -0.12784483 0.12376024 0.024320662 -0.07220406 0.10907589
-0.1729794 -0.18357825 -0.15184157 -0.23891284 0.17545901 0.11767222 -0.15417796 -0.078686096

fc2.weight f4 [300, 400]
00000000: de57 b0bc be35 503d cf8b 7fbb 8a91 133e
00000010: a6a3 633c 4ca9 6f3d 3a3c bdbc 9db7 09be
00000020: 9eff e83d 3390 4f3c 3590 9f3c 86e8 5b3d
00000030: c047 d13b 4337 6b3c 555e 6bbd 5bef 4c3c
00000040: 06e1 9e3b 03a8 58bc 2fa6 34be 33d1 fa3c
00000050: 9502 c8bc 5815 78bd 0074 dd3d 2dbf 3d3d
00000060: bb85 073e b2ae c6bc a48a 8d3d ac9d 963d
00000070: 4403 0d3e d8b4 173d 4775 4e3e 72e7 fd3d
00000080: c51e ddbd 48f8 dabc badf 8c3d 76ca 9c3d
00000090: 3de0 773c 6902 c0bd c05e 953c 7adb 1f3d
000000a0: 6f4c 313d b6ea ae3d 835e 153e 16bb 6b3d
000000b0: fcac 2e3b d0ab adbd c43b 0d3d 3530 abbd
000000c0: 976a 9f3d d9d9 c33b adc3 f13c 05d6 1fbd
000000d0: 38e8 d23c 117f 9fbd 3841 52bd ee05 d73b
000000e0: fa35 7f3d ba14 1d3c ecf6 ed3c d5c8 b5bd
000000f0: 6199 b2bd b429 cc3b 1ce9 89bc 6519 4dbd
00000100: 2efc 433c 46a1 9c3d 19ef 1abb 0dff 0dbc
00000110: 020a c8bd ff22 9e3c 8ce9 9d3c 3452 723d
00000120: e664 9e3c 9d11 ee3d 9a02 593d f5a0 b63d
00000130: 4f48 bf3c efeb 363d c0f0 64bd 048e a63d
00000140: bc9f 5d3d 9fe9 173d 5239 2c3d 4b89 06bd
00000150: 792a acbc b48b 053e 64dc 013e 36b7 18bd
00000160: d1ad 063d 5640 09bd b703 603d a665 c0bd
00000170: 2af3 bd3c 839a 92bd 96e7 043c 01d3 763c
00000180: affa 8bbd 9145 323d f37b a4bc acaa 04bd
00000190: 7655 5b3d 1317 78bd 68a9 8abd 02d8 a8bc
000001a0: 0461 adbb 1493 8f3d e4e2 b53d dcfe 3cbc
000001b0: ea24 493e e3b7 693d a07a 2fbe 8659 94bd
000001c0: 1eb8 46bd e41b 55bd f6fb 25be 3ce7 e83d
000001d0: 7634 6fbe 25eb 68b9 0c69 c33d 79cf fa3d
000001e0: abf0 943d b9d3 843c ff81 3e3c 50b3 eebb
000001f0: 77b0 c53d 42ec 0d3e 9d16 36bc b1a2 213e
00000200: 57cf ccbd 5191 8d3d 59e5 bcbc d930 593d
00000210: 4c27 83bc 51d7 a63d ad91 613c bc36 943d
00000220: a6e1 ef3c 032a 683d d538 fcbc b0e7 19be
00000230: db61 513d 5cd2 38bd 5813 8fbd f138 c03d
00000240: d5e4 4cbd 27e4 fdbd 6498 663d a81c 8e3d
00000250: 7040 3d3d 254c c93c b152 a0bd 72c4 71bc
00000260: 8dda 2dbe 32d8 27bd 5ee1 9cbd 5d2b d33d
00000270: 0534 aa3d 67a8 80bc 5911 b8bd b2d4 52bb
00000280: 3ecb 283e ed73 46bc a213 8b3c 8929 a13d
00000290: 874b cc3c f67e 99bb 08a8 b13b 9d03 b8b9
000002a0: 1831 863b 55c3 88bd ecb7 df3d 9f5b 32be
000002b0: d82b c5bc 1ee0 9f3c 5231 3d3b e18f 75be
000002c0: 1619 2cbc 354f 543c 4ea3 acbd b7d6 d3bc
000002d0: 366b 983d 260f 25bc 725f b0bd e470 63bc
000002e0: 5b66 223d 79f9 a33d 27ec a8bd 31c7 41bd
000002f0: 3abf 07be 6878 153d 84a7 443d 5478 5f3c
00000300: a1fc 6a3d 6371 92bd 9666 b1bd 7b7b 97bd
00000310: 7f0f a53c faac 3bbd 7e5e 473c eead 003d
00000320: 200b fe3c 4b5b 393e 1fb0 ffbd 9058 a8bb
00000330: 6815 4dbd cf7b 99bb ecac b9bc 35eb 0fbd
00000340: 490f b23d 6bc1 463b 4ca8 933d d520 9f39
00000350: a3ef 05bd 7ae2 2b3d b42f 343e 705d 753c
00000360: 1f66 cfbc 6dcb ac3d 68e3 84bb 20ba 80bd
00000370: 7eda 033e 4515 cabd 7e69 31bd eb93 26be
00000380: 8d68 ff3c a0a2 103d c167 9dbc 2415 163e
00000390: 6083 85bd b3b8 8dbd ef70 6d3d 649f 35bd
000003a0: 1ea5 953d b69e b6bd e581 0cbe f754 7fbc
000003b0: d40e 04bd 7d52 5f3d 11f2 3ebe 2733 04be
000003c0: 78b1 7bbd d32e e2bd 24ca 81bd bf36 fe3c
000003d0: 68ef e63c ae81 34bc 248c 033e 75bf 853c
000003e0: 81fd 2abc 56d3 72bd 2ea9 2c3d 865d adbd
000003f0: 5cf9 28be d8ab 21bd dd40 8abc 1d4a 083d
-0.021526273 0.050832503 -0.0038993245 0.14410987 0.013893997 0.058511063 -0.023100007 -0.13448949
0.1137688 0.012668657 0.019477943 0.05368855 0.006386727 0.014356437 -0.05746301 0.012508239
0.004848602 -0.013223651 -0.17641519 0.030617332 -0.024415294 -0.06056723 0.10813141 0.046324898
0.13234608 -0.024253223 0.06911209 0.07354292 0.13770777 0.0370377 0.20161925 0.1239766
-0.107968844 -0.026729718 0.0687861 0.07655804 0.015129146 -0.0937546 0.018233657 0.03902767
0.043285783 0.08540861 0.14586835 0.057551466 0.00266534 -0.08480036 0.034480825 -0.08358804
0.07784002 0.005976897 0.02951225 -0.039022464 0.025745496 -0.07787908 -0.05133173 0.006561986
0.062307335 0.009587461 0.029048406 -0.08876196 -0.08720661 0.0062305573 -0.016834788 -0.050073046
0.01196198 0.07647948 -0.0023641048 -0.008666766 -0.09767534 0.019303797 0.019276403 0.059160426
0.019335221 0.11624453 0.052980997 0.08917419 0.02334991 0.044658598 -0.05589366 0.08132556
0.054107413 0.037088033 0.042046852 -0.032845777 -0.021016346 0.13041574 0.12681729 -0.0372841
0.032880608 -0.03350862 0.054691043 -0.09394388 0.023187239 -0.07158377 0.008111855 0.015064956
-0.068349235 0.043523375 -0.020078635 -0.032389328 0.0535483 -0.06056888 -0.06770593 -0.020610813
-0.005291106 0.07010475 0.088811666 -0.011535373 0.19642988 0.057060134 -0.17136621 -0.07243638
-0.04851543 -0.05202855 -0.16209397 0.113722295 -0.23359856 -0.00022212842 0.095415205 0.122466035
0.07272466 0.016214238 0.011627673 -0.0072845593 0.096527986 0.13859656 -0.01111379 0.15784718
-0.100004844 0.069124825 -0.02305858 0.0530251 -0.01600995 0.08146537 0.013767642 0.07237002
0.029282402 0.05668069 -0.030788818 -0.15029788 0.051118713 -0.04512249 -0.069861114 0.09385861
-0.05002292 -0.12397032 0.056297675 0.069390595 0.04620403 0.024572441 -0.07828272 -0.014756309
-0.16977902 -0.040977664 -0.07660173 0.10311005 0.08310703 -0.0157053 -0.08987684 -0.0032170233
0.1648378 -0.0121126 0.016977135 0.0786925 0.024938358 -0.0046843244 0.005421642 -0.00035097907
0.004095208 -0.06677882 0.10923752 -0.17417763 -0.024068758 0.019516047 0.0028868509 -0.23980667
-0.010504028 0.012958338 -0.084295854 -0.02585922 0.07442324 -0.010074412 -0.08611955 -0.013881896
0.039648395 0.080065675 -0.082481675 -0.047309104 -0.13256541 0.03649178 0.048011318 0.013639528
0.057369832 -0.07150533 -0.08662145 -0.07396599 0.02014899 -0.04581926 0.012168525 0.031415872
0.031011164 0.18101232 -0.12484764 -0.0051375106 -0.050069243 -0.0046839486 -0.022665463 -0.03513642
0.08694322 0.0030327688 0.072098345 0.00030351305 -0.03269924 0.04196403 0.17596322 0.0149758905
-0.02531725 0.08437238 -0.0040554293 -0.062855005 0.12876317 -0.09867338 -0.043313496 -0.16267364
0.031177783 0.03531134 -0.019214513 0.14656502 -0.065191984 -0.06919994 0.05796903 -0.04434146
0.07306884 -0.089169905 -0.13721426 -0.015584222 -0.032240704 0.054522026 -0.18647029 -0.12910138
-0.061448544 -0.11044087 -0.063373834 0.031031964 0.02819033 -0.011017246 0.12846428 0.016326645
-0.010436417 -0.059283577 0.04215353 -0.08465104 -0.16501373 -0.039470524 -0.016876632 0.033273805

fc2.bias f4 [300]
00000000: 29b7 44bc c0ae 23bd a0ff ab3c ce33 4fbc
00000010: a739 e63c d1f2 733d 016a 65bd ec69 1b3d
00000020: 1031 adbb e3d7 143d 363c d1bd c783 a33d
00000030: b7a1 b13c 9f37 983c d1fa 563c aab2 f9bc
00000040: fe9a 21bd a83f 5f3d e08b 7f3c 7aa9 be3c
00000050: ea06 03be 227c 11be 3f9b 04bd 7ebe 10bc
00000060: a04d 643d 4d65 963d 9fc6 0a3d 5d6a 1cbd
00000070: fcba 8f3d ef3a e73c 997c 033d 1eb9 0ebd
00000080: e5b5 9c3d a1a9 c7bd 9d1a 873c 5891 013c
00000090: 2769 fdbc ae49 7c3d 7c15 36be 404f c3bd
000000a0: e408 dabc 15c6 29bd 5db3 75bd 98af d43c
000000b0: 0c17 ffbb 2957 b03c 8c4c f8bc fa7d f1bb
000000c0: eb0d 483d e36c 323b 2bb5 b2bc 1cf4 873d
000000d0: aab6 2ebe 37dc 083c 3660 29bc aeb5 843c
000000e0: 3bfd 993b ab97 373d eb3d f53b 74eb 0ebd
000000f0: 3450 2f3b 1082 75bd 154a 2dbe 7324 9fbd
00000100: b9bf 7fbd 4d4e a83c 39b3 253c 6bc5 2fbd
00000110: 16b0 19be 3073 983d f528 f13c 2ad7 a5bd
00000120: 316c f73a 5fe8 e7bc 4f9d bb3b 5d6b 313c
00000130: 0efc a0bd 07b9 9cbd 2ac4 d53c 681b cabd
00000140: d417 e7bd 1156 82bc ed4f 0fbe a557 a8bd
00000150: bd37 84bd e4fe d2bd 8ab9 b73a a327 f2bc
00000160: 6465 38bd 281f 9bbc 503c 35bd 006c 9bbc
00000170: 9219 58bd 8e06 11be 99ea bd3d 80cb 623b
00000180: 8a10 a53b e65b 64bd 377d 5e3d afa0 833d
00000190: 9555 7dbc 2099 153c a91c 0cbd 6e3d 42bd
000001a0: 10d8 afbd 2c2a d5bc 0ef6 cebb b474 91bd
000001b0: 60aa 45bc cf39 11be 4077 083d d73a 16bd
000001c0: 656a a5bc 8ed1 17be 9001 6dbc e6d2 b53c
000001d0: cbfa 5c3d c526 a8bc d5d4 7f3d 3ac6 ebbd
000001e0: 7bd1 763b ca87 debc 6805 1ebd 3787 55bd
000001f0: 908b 03bc b256 273d 45dc 853c 9525 dabd
00000200: de1e 283d 9d85 aa3d 7103 303d 9779 a8bc
00000210: 91dd 45bd 90f7 13bc c7bc 4cbc 2848 28bd
00000220: 82b7 263d f4f4 d3bd edd8 a4bd dc5b 33bc
00000230: f3eb e53c 00b8 c4bc 9d00 a9bc 28d8 213c
00000240: 52ab d0bd 70d9 e3bc 690a 0d3d 41ea 2dbd
00000250: cc59 1fbd f70c 77bc f6da cf3c 9094 f8bd
00000260: 6cfe 2dbd 4c51 9dbc 18d8 573c 76ba c6bc
00000270: 3afe 0ebe 397f 903c 0781 9b3c 8fb3 babc
00000280: 5a7d debd 6931 9f3d 5538 fbbd 6f40 b33c
00000290: 406b fd3b 3b2e 9739 62f0 d8bd 6cc5 86bd
000002a0: eb8b 2b3d f653 6cbd 95bb 753d 70b6 76bd
000002b0: a746 65bd 2dc9 1b3c 8dd6 623d abb0 3a3c
000002c0: dc0c 2b3d d21b e9bb f66d 27bc 481f 72bc
000002d0: e0bf aa3d 458f a73d 4500 103d ce2c 9ebd
000002e0: b441 c63c 7968 053b 27f0 d4bc ec9b 7abd
000002f0: c56e f33c 46cf 83bd c010 ddbc ee96 72bc
00000300: 56ba f33c 920b a1bd 6bf7 38bc b5a8 91bd
00000310: 8068 36bd 9b02 213d f5bb 8cbc 9ddf 813b
00000320: d04f 063c 0644 323d 616e 5cbd 483d 8ebd
00000330: f14f 1cbd ab18 203d 8685 81bd 5a28 ae3c
00000340: 3dd8 2abc 16b1 4cbc 3d3f 86bd 918b 8c3d
00000350: 1252 a0bc 2c72 1dbe 8cc0 383c dffb d83c
00000360: b674 23bd da8a 953c bdc8 79bd 4127 88bd
00000370: 6162 50bd 29f8 833d 2f44 bfbc 1621 ba3c
00000380: de41 d9bc 2aba 733b 9f1a 97bd 3fbb 8dbc
00000390: d406 ab3c 0f13 36bb 7ad1 9c3c 1bfc 5cbb
000003a0: 0273 17ba 8fe2 513d f3c7 513d 1f8c ca3c
000003b0: 8433 c7bd 7d44 9ebd 9174 c73d 9625 23bb
000003c0: 0cda 86bd 5fcb 333d 213b d8bc b2e2 5ebd
000003d0: 0f91 dcbc 2537 c73c 7293 e43c e3bb d03c
000003e0: 70ce a1bc 744d e339 0129 cebd 469c 8b3d
000003f0: 978c 8f39 e477 483d ef63 32bc fb0e 173d
-0.012006559 -0.039961576 0.020995915 -0.012646629 0.028103663 0.05955774 -0.056009296 0.03794281
-0.0052853897 0.036338698 -0.102165624 0.07984119 0.021683557 0.01858121 0.013121323 -0.030480701
-0.039454453 0.054504067 0.015597314 0.023274172 -0.12795606 -0.14207509 -0.032374617 -0.008834479
0.05573809 0.0734354 0.033880826 -0.038187373 0.07018086 0.028226344 0.032101247 -0.03484451
0.07651881 -0.09749151 0.016492182 0.007908188 -0.03093393 0.061593704 -0.17781633 -0.095366
-0.026615568 -0.04144867 -0.059985507 0.025962636 -0.00778473 0.021525936 -0.030309938 -0.007369754
0.0488414 0.0027225546 -0.021814903 0.06638357 -0.17061868 0.008353285 -0.01033788 0.016199913
0.004699377 0.044822376 0.007484188 -0.034892514 0.0026750686 -0.05993849 -0.16922791 -0.07770624
-0.0624387 0.02054515 0.010113531 -0.04291288 -0.15008578 0.07443845 0.029438475 -0.0809768
0.0018876848 -0.028309045 0.0057255398 0.01082882 -0.078605756 -0.07652479 0.026094515 -0.098685086
-0.11283842 -0.01591018 -0.13995333 -0.08219842 -0.06455944 -0.10302523 0.0014017087 -0.029559916
-0.04501857 -0.018935755 -0.04424697 -0.018972397 -0.05275876 -0.14162657 0.092732616 0.0034606159
0.005037372 -0.055751704 0.054318633 0.06427132 -0.015462299 0.009130746 -0.03420702 -0.047421865
-0.085861325 -0.026021086 -0.006315953 -0.071023375 -0.012064546 -0.14182208 0.03331685 -0.036677208
-0.020192334 -0.14826033 -0.014465705 0.02219529 0.053950112 -0.0205263 0.06245883 -0.11512418
0.0037661481 -0.027164359 -0.038579375 -0.052130904 -0.00802888 0.040854163 0.016340384 -0.106516995
0.041045062 0.08326266 0.042972032 -0.020565791 -0.048307005 -0.0090311915 -0.01249618 -0.04108444
0.04070235 -0.103494555 -0.08049188 -0.010947194 0.02806661 -0.02401352 -0.020630175 0.009878196
-0.10188927 -0.027813643 0.034433756 -0.04245973 -0.038903996 -0.015078775 0.025372963 -0.12137711
-0.042478964 -0.019203804 0.013174079 -0.024258833 -0.13964167 0.01763879 0.018982423 -0.022790698
-0.10863753 0.07773096 -0.12266604 0.02188131 0.0077337325 0.0002883541 -0.105927244 -0.06580624
0.041881483 -0.05769726 0.059993345 -0.06023258 -0.055975582 0.009508413 0.055380393 0.01139466
0.04176031 -0.007113912 -0.010219088 -0.014777966 0.083373785 0.08181623 0.035156507 -0.077233896
0.024201252 0.002035646 -0.02599342 -0.061183855 0.029715905 -0.06436019 -0.026985526 -0.014806492
0.029751938 -0.07863535 -0.011289458 -0.071122564 -0.044533253 0.039309125 -0.017179469 0.0039634244
0.00819774 0.043521903 -0.053816203 -0.06945282 -0.038162176 0.039086025 -0.06324296 0.021259475
-0.010427532 -0.012493392 -0.065550305 0.06862558 -0.019570384 -0.15375584 0.0112763755 0.026487289
-0.039906226 0.018254686 -0.060982455 -0.06648112 -0.05087507 0.06443817 -0.023347942 0.022720855
-0.026520666 0.003718982 -0.073781244 -0.0173012 0.02087728 -0.0027782356 0.019142855 -0.0033719603
-0.00057773304 0.051241454 0.051216077 0.024725018 -0.09726623 -0.07727907 0.0973903 -0.002489423
-0.06584558 0.04389512 -0.026395382 -0.054415412 -0.026924638 0.024318287 0.027902339 0.025480216
-0.019751757 0.0004335452 -0.100664146 0.06816916 0.00027379833 0.04894246 -0.010888084 0.03687952

fc3.weight f4 [2, 300]
00000000: 68ac ef3d bd66 8abe 66e4 473d d0b4 023e
00000010: 4b64 e0bd a3e5 083e aaaf 89bc 33c8 67bd
00000020: 09e3 d3bd 509f de3c eb29 79be 717d d43d
00000030: 2db3 833c 1d57 cabd f25d 00bd 19ae 543c
00000040: a672 54bc 9547 d93c a832 7dbd accb 82be
00000050: edf0 18be 3598 d93c 88df b0bd d1f9 d73d
00000060: 4b9a 0d3e 1a28 443c 7ac5 63bd 7d2a 9cbc
00000070: 2a8b 87bd 5782 7a3d b4c4 30bd 2a92 703d
00000080: 7617 07bd 1e1f 1abe 5b99 acbd 1045 cebe
00000090: 15cb d6bd bdf4 12be 2887 6fbe 01e1 60be
000000a0: da35 433c 204d 863d a471 7abe 1991 f4bc
000000b0: 37e3 2dbe 863b 653b 1bff ae3c 76a3 143d
000000c0: 715f 123d 35d2 d83d 9017 773a aa32 0ebd
000000d0: a673 d0be af84 b83c 0220 1bbe 6881 da3b
000000e0: b5ee 933d 66b4 6f3e 7b09 a53c 0866 b53d
000000f0: 2558 26be b823 aabd 2ff0 80be 23f0 1fbe
00000100: d15c 3bbd 1b8f c03d 82bf dc3c b51f 343d
00000110: c2c8 71be 26c2 303d 04f6 10bb cc03 7abc
00000120: 8afc 7d3d 6107 f13c 5775 503c b379 ccbd
00000130: 9bb7 a0be 5f46 a6bd c099 a43b e678 003c
00000140: 800c a0be d78e 81bd 8af5 cdbe 870b d7be
00000150: f200 323c 19fa 26be 2746 b63d 3d0d 6abe
00000160: 8d60 e0be 3c93 4fbc 5f7f 01bf 3e5c b4bb
00000170: 6542 1e3e 0c4b 4abe 0d85 573d 8efd 233d
00000180: 4430 f83d 5fdb 983b fdaa 8d3d 6a3f c03d
00000190: 881c f8bd c277 023e ae15 443e 28dc 84be
000001a0: b0eb 6dbe e911 c93d a81e 453c 7afd 673c
000001b0: 6203 04be 5c8f babe a4fb 033e 7d8e 91ba
000001c0: 72c5 51be a8d7 71be 2c18 033e f54a fbbb
000001d0: 9939 173d d47f ef3a 0173 2a3b 5421 a7be
000001e0: 0fdf adbd fceb 033d 0f1d b73b 4bd1 48be
000001f0: 36bc 5bbc 69f3 25bb 0991 ddbd 6c21 90be
00000200: c1f2 963d 2343 043e 1132 fb3a 23a3 be3d
00000210: 33c2 fa3d 0161 d9bd 27eb a8bd b6cf 72be
00000220: 295a 80ba bb6e ec3c a75a b4be c07e 18bd
00000230: bb09 3cbc 681f 2b3e 08d1 d73d a666 9cbb
00000240: 2980 05bf 7739 2ebd b90b 9f3d 7e9e 56be
00000250: 5246 2a3e 120a 683d ed1b ac3d 2c5b c0be
00000260: 3003 3a3e 18f1 af3c dfb3 f83c 6292 aa3d
00000270: e943 1cbe aad3 0b3d 5e75 ea3d a622 21be
00000280: c316 19bd 6c97 3d3d 9f4d 0cbe 60de 03bc
00000290: e9bf 053e 2b14 eb3c 2d10 0abe 6c2e 92bc
000002a0: 85c2 a4bc 9b9c 4eba f313 ef3c 3192 73be
000002b0: 1328 b7bc 9d28 b73b 9bbe 2dbc 8311 1ebe
000002c0: 9907 5d3e 4e49 8e3d d513 0c3e 753a dbbe
000002d0: 4d10 833e 08b4 cd3b 4d9b 0cbe c5d0 32be
000002e0: f2d7 693d e21e 173e 5b53 c5bd c548 02be
000002f0: ca23 0e3d d527 843d 81e9 873d ef65 35bc
00000300: 5749 423d 0433 813b c584 50be 76ed 2abd
00000310: 5b88 183d 950a 0dbd b049 6b3d 16e7 c53d
00000320: 2492 063e b746 063e 6b92 56be 2553 c2bd
00000330: 95d0 de3d 8993 98bc 581f 933c d0ae 543e
00000340: 718c 523d c337 493e 6b95 873d 37bc 6f3b
00000350: 9d33 88bc c5ac b4be 8247 883e d05e 1ebe
00000360: 0dfe a33c 874c 41be b47f a4bd bce9 443c
00000370: ba59 49be bb90 6c3c 34a1 463b 0b54 4e39
00000380: c740 b13c 8faa 02bd ef3c 93bc f42e 083c
00000390: 31a2 db3c 936f 893d b8c3 c9bd c5c8 453d
000003a0: aef4 bd3c a226 9bbc a64e f63d 4fbb 0ebe
000003b0: c394 94bd fef0 19be 7f14 83bd f791 bbbe
000003c0: bba4 fd3c e64b 103d 0fd2 27bd 9fdc a5bb
000003d0: dff9 c6be e4f5 7c3c 5719 e0bd 0112 1c3e
000003e0: 638d 013e b0b0 3a3d c265 003d 8b14 bf3d
000003f0: a908 7b3d 98a3 87bc f0c3 1dbd 93e5 ed3a
0.11702806 -0.27031508 0.048801802 0.12764287 -0.10956629 0.1336885 -0.016807396 -0.05658741
-0.10346038 0.027175575 -0.24332397 0.103754885 0.016076649 -0.09879897 -0.031339593 0.012980961
-0.012966787 0.02652339 -0.061815888 -0.25546014 -0.14935656 0.026561836 -0.08636385 0.105456956
0.1382839 0.011972452 -0.05560825 -0.019063229 -0.0661834 0.061159458 -0.04315634 0.058733143
-0.03298136 -0.15050933 -0.08427688 -0.40287066 -0.104879536 -0.14351173 -0.23391402 -0.21960832
0.011914695 0.06557679 -0.24457413 -0.029854344 -0.16981207 0.0034978106 0.021361878 0.0362887
0.03573555 0.10586969 0.00094258133 -0.034716286 -0.40713233 0.022524206 -0.15148929 0.0066682585
0.07223264 0.2340866 0.020146122 0.088573515 -0.16244562 -0.08307594 -0.25183246 -0.15618949
-0.045742813 0.09402295 0.026946787 0.04397555 -0.2361174 0.043153904 -0.0022119293 -0.015259694
0.06200842 0.029422464 0.0127232885 -0.0998415 -0.3139008 -0.08118891 0.0050232112 0.007841324
-0.31259537 -0.06326073 -0.40226394 -0.42000982 0.010864483 -0.16306342 0.08900099 -0.22856613
-0.43823662 -0.012669381 -0.5058498 -0.00550416 0.15455015 -0.1975519 0.05261712 0.04003673
0.12118581 0.004664823 0.06917379 0.09387095 -0.12114817 0.12740996 0.19148895 -0.25949216
-0.23234439 0.09817869 0.012031235 0.014159555 -0.12891915 -0.364375 0.12888962 -0.0011105087
-0.20485476 -0.23617423 0.1280219 -0.0076688477 0.036920164 0.0018272349 0.002600849 -0.32642615
-0.08489811 0.032207474 0.005588181 -0.19611089 -0.013411572 -0.0025322086 -0.10818679 -0.281505
0.073705204 0.12916236 0.0019164701 0.093084596 0.12244072 -0.10614205 -0.08247977 -0.23712048
-0.0009792495 0.028861394 -0.35225412 -0.037230253 -0.011476929 0.167112 0.105379164 -0.004772979
-0.5214868 -0.04253527 0.07765908 -0.20958897 0.16628388 0.05665023 0.08403764 -0.3756956
0.18165278 0.021477267 0.030359207 0.083287016 -0.1526028 0.034137405 0.11448167 -0.15735874
-0.037375223 0.046286985 -0.13701485 -0.008048624 0.13061489 0.02869614 -0.13482733 -0.017844401
-0.020112285 -0.00078816124 0.029184317 -0.23786236 -0.022357976 0.0055895583 -0.010604526 -0.15436368
0.2158493 0.069475755 0.1367944 -0.42818037 0.25598374 0.006277565 -0.13731118 -0.17462452
0.057090707 0.14757875 -0.096350394 -0.12723072 0.0347021 0.0645291 0.06636334 -0.011071666
0.047433224 0.003942849 -0.20363148 -0.041730367 0.037239414 -0.03443392 0.05744332 0.09663217
0.13141686 0.13112913 -0.20954292 -0.09488515 0.108796276 -0.018625038 0.017959282 0.2076981
0.051403467 0.19650178 0.06620296 0.003658069 -0.016626174 -0.35288063 0.26617056 -0.15465856
0.020018602 -0.18876849 -0.0803217 0.012018617 -0.19663134 0.014438803 0.0030308487 0.00019677
0.021637334 -0.03190094 -0.017973391 0.008311976 0.026810737 0.06710734 -0.098517835 0.048287172
0.023187961 -0.01893932 0.1202672 -0.1393864 -0.072549365 -0.15033337 -0.06400394 -0.366348
0.030962339 0.035228632 -0.04097181 -0.0050617005 -0.38862512 0.015439484 -0.10942333 0.15241243
0.12651591 0.04557866 0.031347044 0.0933009 0.061287556 -0.0165575 -0.03851694 0.0018150083

fc3.bias f4 [2]
00000000: 5738 823d 0d2e 0e3d
0.06358402 0.034711886
