saved_agents/actor_local_1.pth (torch_old, 524675 bytes, 6 tensors)

fc1.weight f4 [400, 24]
-0.048936997 0.015047301 0.0032847081 -0.051961534 -0.06995858 0.00999664 -0.029144196 -0.0019808726
-0.052286234 0.0037676394 -0.01372503 -0.017308244 0.0568343 -0.024184294 -0.01073092 0.0013304153
-0.09627817 -0.042432338 0.02015528 0.035043087 0.11471358 -0.23954615 -0.024482755 -0.03299788
0.11525579 0.044121336 -0.05504968 0.063341126 0.058978803 0.08114316 -0.026681656 0.109495685
0.08985947 0.11260478 -0.06434747 0.060637496 0.017708521 -0.03748453 -0.028712315 0.05136628
0.08265277 0.14395761 -0.008918228 0.0017408095 -0.010077634 -0.023860585 0.041680127 -0.017622486
0.023445236 0.05000254 -0.04873872 0.011056662 0.018538188 -0.12996459 -0.034940146 0.020448113
0.030079221 0.08104663 0.04047998 -0.045585062 0.08359926 -0.16865464 -0.037875563 -0.03057054
0.0064328746 0.11129078 0.003074274 -0.071534224 0.11908709 -0.23416731 0.036350533 -0.111200936
0.09929439 -0.07358144 -0.011260187 0.015637275 -0.102908835 -0.14428051 -0.004264888 0.019928146
0.09223223 -0.07260438 -0.026717698 -0.07143598 0.03155096 -0.030900799 0.017835723 -0.04824936
0.07647173 -0.143311 0.07887868 0.12576367 0.1151518 -0.06992038 0.08976732 0.114669256
-0.027735086 0.10134194 0.06215887 -0.13442604 0.43853015 0.18158282 0.017849108 -0.08477761
-0.080983885 0.0002628821 0.008436448 -0.049668718 0.3605421 0.10768782 0.0040941006 -0.09234447
0.06295803 0.0003418536 -0.019568965 -0.004324502 0.2173715 0.040680654 -0.048044056 -0.033517156
0.07070665 0.20113151 -0.042280335 0.10040937 0.1938901 0.0041376958 -0.046827253 0.038422316
0.03848903 0.19917014 -0.026950557 0.050033372 0.1594657 -0.036803164 -0.0725121 0.04345978
0.07863128 0.28751156 -0.058024112 0.05631874 0.11148965 -0.07173725 -0.050130274 -0.016797781
0.04660869 -0.009906924 -0.047431115 -0.0668425 -0.09025321 0.042446095 -0.018705826 -0.009520919
0.10966149 -0.040174123 -0.07066506 0.07037572 -0.05926017 0.02791148 -0.016269365 0.056075383
0.10692828 -0.010845927 -0.013745021 0.03755516 -0.04468449 -0.04728012 0.010235555 0.022387119
-0.03262229 0.07125061 0.07606006 -0.0006483808 0.04393323 -0.07766103 0.015595006 -0.05607043
-0.03876405 0.045359503 -0.0064204335 -0.013642721 -0.046444733 -0.0190272 0.032264072 0.08266447
0.02450292 0.028558496 0.001493297 0.08055211 -0.07826735 0.10092899 -0.013009015 0.09820233
0.2005156 0.04656364 0.030143617 0.012851911 -0.015769005 -0.13368338 0.024290863 -0.029866962
0.09778016 0.053642362 -0.0073698186 0.005652847 -0.015747106 -0.21463515 -0.017841125 0.013295043
0.08753355 0.04745519 -0.068091124 -0.10109277 -0.0495894 -0.24989714 -0.06567582 -0.07332165
-0.026459677 -0.03153579 0.07844378 0.028373228 -0.07841964 -0.18042353 0.05437594 -0.008169668
-0.029252548 -0.023400085 0.0028961496 -0.032204892 -0.098895445 -0.24020143 -0.0043191034 -0.014797525
0.022744216 0.04784027 0.028904716 0.0744283 -0.060254224 -0.31201756 -0.026683258 0.09466373
0.026061904 -0.045699377 -0.023107205 0.030781543 0.060963605 -0.0653443 -0.049960297 -0.025519997
-0.04485054 -0.0026975835 0.00286072 -0.067372106 0.03546789 0.116425656 -0.040021602 -0.01785777
00000000: 2972 48bd f488 763c 4244 573b 9ed5 54bd
00000010: 7246 8fbd f2c8 233c cfbf eebc 87d1 01bb
00000020: 172a 56bd 80ea 763b f3de 60bc 05ca 8dbc
00000030: 15cb 683d 241e c6bc bed0 2fbc 5461 ae3a
00000040: 7d2d c5bd 88cd 2dbd b01c a53c 5789 0f3d
00000050: f4ee ea3d 964b 75be 0f90 c8bc c928 07bd
00000060: 3a0b ec3d 93b8 343d c67b 61bd feb8 813d
00000070: c293 713d 632e a63d 7d93 dabc 463f e03d
00000080: 3e08 b83d 569d e63d 9bc8 83bd 065f 783d
00000090: 7611 913c 6189 19bd 1736 ebbc 7365 523d
000000a0: db45 a93d a069 133e c21d 12bc e02b e43a
000000b0: a91c 25bc 4677 c3bc c8b8 2a3d 085d 90bc
000000c0: 3910 c03c 77cf 4c3d 41a2 47bd 0027 353c
000000d0: 66dd 973c 7015 05be 661d 0fbd cd82 a73c
000000e0: b368 f63c c7fb a53d 56ce 253d 67b7 3abd
000000f0: 1736 ab3d cdb3 2cbe 6823 1bbd 126f fabc
00000100: ddca d23b 6cec e33d c279 493b 8980 92bd
00000110: efe3 f33d 8ec9 6fbe 4ce4 143d 51bd e3bd
00000120: db5a cb3d deb1 96bd a67c 38bc be19 803c
00000130: dec1 d2bd 45be 13be 79c0 8bbb 5a40 a33c
00000140: 40e4 bc3d 9bb1 94bd 13df dabc 074d 92bd
00000150: 943b 013d ac23 fdbc 391c 923c 1fa1 45bd
00000160: 369d 9c3d 1ec0 12be 258b a13d 31c8 003e
00000170: b5d4 eb3d 6b32 8fbd eed7 b73d b7d7 ea3d
00000180: b134 e3bc 5d8c cf3d 4d9a 7e3d fba6 09be
00000190: 0687 e03e d9f0 393e 4b38 923c e29f adbd
000001a0: e1da a5bd 70d3 8939 0739 0a3c 6d71 4bbd
000001b0: f998 b83e 6f8b dc3d ce27 863b 191f bdbd
000001c0: 24f0 803d d03a b339 184f a0bc 8db4 8dbb
000001d0: a296 5e3e c2a0 263d d8c9 44bd 4949 09bd
000001e0: a6ce 903d 6bf5 4d3e 252e 2dbd 6ea3 cd3d
000001f0: 208b 463e 8295 873b efcd 3fbd b860 1d3d
00000200: aca6 1d3d 42f3 4b3e 6ac7 dcbc cbef 4c3d
00000210: fa4a 233e eabe 16bd 3981 94bd e202 323d
00000220: 7009 a13d b734 933e b1aa 6dbd 7bae 663d
00000230: b054 e43d fbea 92bd 6755 4dbd 809b 89bc
00000240: c1e8 3e3d a750 22bc 2147 42bd b8e4 88bd
00000250: add6 b8bd f5db 2d3d f63c 99bc a1fd 1bbc
00000260: 3496 e03d 9f8d 24bd d8b8 90bd 2521 903d
00000270: cbba 72bd 9ea6 e43c 5547 85bc 4daf 653d
00000280: 37fd da3d 1db3 31bc cc32 61bc 70d3 193d
00000290: 1507 37bd cda8 41bd 07b3 273c 3165 b73c
000002a0: f39e 05bd d7eb 913d 60c5 9b3d 19f8 29ba
000002b0: 55f3 333d bf0c 9fbd 3282 7f3c 1baa 65bd
000002c0: 0dc7 1ebd e3ca 393d 8062 d2bb b885 5fbc
000002d0: d53c 3ebd eede 9bbc 5527 043d fd4b a93d
000002e0: 59ba c83c 82f3 e93c bcba c33a 81f8 a43d
000002f0: a24a a0bd dcb3 ce3d c323 55bc 4e1e c93d
00000300: f653 4d3e 84b9 3e3d bfef f63c d290 523c
00000310: 002e 81bc 4ce4 08be a2fd c63c 8fab f4bc
00000320: f740 c83d 18b8 5b3d 857e f1bb 843b b93b
00000330: 1300 81bc 51c9 5bbe 8d27 92bc 74d3 593c
00000340: ca44 b33d 6060 423d 5c73 8bbd ba09 cfbd
00000350: 411e 4bbd 09e5 7fbe 0b81 86bd a929 96bd
00000360: f7c1 d8bc ac2b 01bd 22a7 a03d f96e e83c
00000370: 7a9a a0bd f2c0 38be 4eb9 5e3d 12da 05bc
00000380: 0aa3 efbc 89b1 bfbc 54cd 3d3b 47e9 03bd
00000390: b289 cabd 5df7 75be 4487 8dbb 5171 72bc
000003a0: 1452 ba3c 29f4 433d 95c9 ec3c dd6d 983d
000003b0: 22cd 76bd c4c0 9fbe d996 dabc 0fdf c13d
000003c0: c67f d53c 452f 3bbd 524b bdbc 9329 fc3c
000003d0: f9b4 793d 3bd3 85bd 2ba3 4cbd 500f d1bc
000003e0: 33b5 37bd f1c9 30bb eb7a 3b3b 63fa 89bd
000003f0: c746 113d 9370 ee3d b1ed 23bd 754a 92bc

fc1.bias f4 [400]
0.2146627 0.041884214 -0.13016118 0.1347817 0.04891392 -0.020580925 -0.075237654 -0.14761792
-0.09967625 -0.19350266 0.03063829 -0.2019557 0.0021474694 0.029237404 0.03337742 -0.13777909
-0.011824052 -0.028341163 -0.1138423 0.16816129 -0.22509766 0.15507746 -0.10510431 -0.12687124
-0.21331249 -0.2936652 -0.051924244 0.15852131 0.0022594274 -0.20234218 0.08213184 0.1734511
0.016364574 0.17541641 0.06632564 0.0020777818 0.17221761 -0.17530471 -0.026502898 -0.09663717
-0.06931116 -0.17767921 0.0796529 -0.09844343 0.086771324 0.17930488 -0.002517941 -0.013810266
0.11086501 -0.22892582 0.22699328 -0.19169721 0.227914 -0.00992577 -0.16994104 -0.06067032
-0.13058257 0.17932191 0.105733685 0.128922 0.13085741 0.17805392 -0.24558231 -0.050331604
-0.03670911 0.04790133 0.048960567 -0.0804007 0.057523694 -0.096938275 -0.15069844 -0.19798641
0.12765971 -0.07048547 -0.23331463 0.018528884 -0.045294378 -0.13595109 0.1446319 0.03744461
0.1421141 -0.12651987 -0.092342675 -0.18019812 -0.03622877 -0.19501406 0.08406304 -0.21583231
-0.18604378 0.05098132 0.034308467 -0.070470355 -0.076690115 -0.20296384 -0.022255998 0.024041586
-0.23802479 -0.05690481 -0.01717128 -0.045878384 0.106603995 -0.22100465 0.076715164 0.06837964
0.010770752 -0.050289597 0.09731306 -0.13982628 -0.110093825 -0.028660329 -0.035995245 -0.22574309
0.10600798 0.11304476 -0.19231106 -0.05507358 -0.19472402 -0.051704295 0.04103831 0.20633373
0.13372785 0.06353454 0.013433597 -0.19309096 -0.069905646 0.1819663 0.06535003 -0.1058689
-0.09960752 0.085881844 0.104469724 -0.052099284 0.017913165 0.052715383 0.010677246 0.042180274
0.1055642 0.10031579 0.01648719 -0.24334812 -0.08567414 -0.08846255 -0.03831285 -0.07769331
-0.15297534 0.15616778 -0.13473447 -0.23669693 -0.07837773 -0.012138031 -0.09621201 -0.1934602
0.08822079 0.08984718 0.17454778 -0.22001883 -0.046021186 -0.06494087 -0.10381304 0.0026716487
0.11534764 -0.04247169 0.18974619 -0.0006544057 -0.16449307 -0.028718147 0.050219633 0.12606059
-0.14646685 -0.0973472 -0.18148609 -0.116826735 -0.076667964 0.036612764 -0.0009217982 0.06253838
-0.16190007 0.036922548 -0.17180036 -0.11292899 0.09349882 -0.0225881 -0.17920119 -0.23840106
-0.14349733 -0.12700659 -0.17818782 0.08426153 -0.009719662 -0.039172344 0.16271396 -0.21932283
0.11587465 0.12865064 0.026574701 0.10691092 -0.17600638 -0.18745348 0.16284662 -0.2482687
-0.07676541 0.2200995 -0.12626565 -0.03244458 -0.14565723 0.033242226 -0.13468271 0.061702214
0.17414851 -0.14981857 0.13203615 -0.11282041 -0.24140516 0.07709505 -0.14679341 0.090679124
-0.078892164 -0.12734994 -0.14198339 -0.0069973776 -0.21750632 0.0852044 0.057553295 -0.15626858
0.0658343 -0.21823017 -0.019619845 -0.13977091 0.113064624 -0.24602747 -0.08719882 -0.1081123
-0.07349593 -0.027504727 -0.17942159 -0.039773613 -0.028092125 -0.14671725 0.07105062 0.10956225
0.027479308 0.043799985 -0.15599428 -0.12792292 0.12379321 0.02427204 -0.07198818 0.109325446
-0.17499986 -0.18312372 -0.1516584 -0.23864982 0.1753757 0.117893346 -0.15537868 -0.07914992
00000000: 8ad0 5b3e c88e 2b3d f948 05be 3704 0a3e
00000010: f659 483d 5499 a8bc 3316 9abd 2729 17be
00000020: 1023 ccbd 9025 46be 27fd fa3c 7acd 4ebe
00000030: 8fbc 0c3b 4883 ef3c c3b6 083d f615 0dbe
00000040: abb9 41bc ba2b e8bc 2726 e9bd 7932 2c3e
00000050: 0080 66be a0cc 1e3e ee40 d7bd 89ea 01be
00000060: 976e 5abe 495b 96be 84ae 54bd 6953 223e
00000070: e712 143b ca32 4fbe bd34 a83d 2a9d 313e
00000080: 000f 863c 5ca0 333e bdd5 873d 652b 083b
00000090: d059 303e 1483 33be 9b1c d9bc b5e9 c5bd
000000a0: 02f3 8dbd 8af1 35be 0f21 a33d b69c c9bd
000000b0: 2ab5 b13d b39b 373e 0a04 25bb 7444 62bc
000000c0: 320d e33d 886b 6abe ed70 683e 464c 44be
000000d0: 4a62 693e b29f 22bc 0605 2ebe 7181 78bd
000000e0: 70b7 05be 2aa0 373e e78a d83d 2104 043e
000000f0: 7cff 053e c453 363e ee79 7bbe 8328 4ebd
00000100: 4b5c 16bd 2f34 443d e08a 483d 1fa9 a4bd
00000110: f79d 6b3d 9387 c6bd b150 1abe f3bc 4abe
00000120: 3ab9 023e b05a 90bd 08ea 6ebe e3c9 973c
00000130: 9986 39bd c336 0bbe 631a 143e 855f 193d
00000140: 5c86 113e 6d8e 01be 281e bdbd db85 38be
00000150: 9e64 14bd c4b1 47be 3e29 ac3d 2503 5dbe
00000160: 4382 3ebe cad1 503d 0987 0c3d c352 90bd
00000170: b50f 9dbd c1d5 4fbe 3652 b6bc dcf2 c43c
00000180: c5bc 73be 0515 69bd c9aa 8cbc f9ea 3bbd
00000190: 3253 da3d 0b4f 62be d71c 9d3d a00a 8c3d
000001a0: cf77 303c 77fc 4dbd 124c c73d 9f2e 0fbe
000001b0: df78 e1bd 11c9 eabc c06f 13bd 3229 67be
000001c0: b61a d93d 0384 e73d 31ed 44be d694 61bd
000001d0: bc65 47be e2c7 53bd c917 283d 2649 533e
000001e0: f4ef 083e 661e 823d 9718 5c3c a3b9 45be
000001f0: b12a 8fbd 6055 3a3e 3dd6 853d cbd1 d8bd
00000200: 07ff cbbd d2e2 af3d 39f4 d53d 0f66 55bd
00000210: a1be 923c 16ec 573d 9eef 2e3c 39c5 2c3d
00000220: 0b32 d83d 5d72 cd3d 2510 873c 4030 79be
00000230: ec75 afbd da2b b5bd efed 1cbd ac1d 9fbd
00000240: 91a5 1cbe 72ea 1f3e d5f7 09be ae60 72be
00000250: 8184 a0bd 98de 46bc cd0a c5bd 6e1a 46be
00000260: 1aad b43d cc01 b83d a7bc 323e 9e4c 61be
00000270: b680 3cbd b8ff 84bd ee9b d4bd d416 2f3b
00000280: 623b ec3d cbf6 2dbd d34c 423e 6c8c 2bba
00000290: df70 28be 5242 ebbc 1ab3 4d3d 0716 013e
000002a0: 68fb 15be f85d c7bd 7dd7 39be db42 efbd
000002b0: 1804 9dbd 44f7 153d d4a4 71ba 1f14 803d
000002c0: 22c9 25be 193c 173d 6fec 2fbe 5047 e7bd
000002d0: 4f7c bf3d ae0a b9bc 8480 37be 681f 74be
000002e0: f7f0 12be 040e 02be de76 36be 4f91 ac3d
000002f0: 383f 1fbc 2e73 20bd 7d9e 263e 2a96 60be
00000300: b04f ed3d febc 033e 30b3 d93c 1df4 da3d
00000310: 043b 34be cef3 3fbe 44c1 263e 263a 7ebe
00000320: 2f37 9dbd c361 613e c84b 01be 9ce4 04bd
00000330: 2b27 15be 0029 083d 44ea 09be 76bb 7c3d
00000340: fd53 323e 0a6a 19be 7c34 073e 630e e7bd
00000350: ea32 77be 02e4 9d3d 0351 16be fab5 b93d
00000360: 3792 a1bd 0668 02be 1864 11be 424a e5bb
00000370: fab9 5ebe a57f ae3d 01bd 6b3d df04 20be
00000380: 22d4 863d bb77 5fbe ccb9 a0bc 1b20 0fbe
00000390: 6d8e e73d a0ee 7bbe 4c95 b2bd fb69 ddbd
000003a0: 0985 96bd 9851 e1bc 4bba 37be a8e9 22bd
000003b0: 7521 e6bc 0c3d 16be fd82 913d 2c62 e03d
000003c0: 491c e13c 9d67 333d f7bc 1fbe 3afe 02be
000003d0: 4b87 fd3d 28d6 c63c 8a6e 93bd 05e6 df3d
000003e0: 2a33 33be c984 3bbe 574c 1bbe 9e60 74be
000003f0: b095 333e 1172 f13d 971b 1fbe 5a19 a2bd

fc2.weight f4 [300, 400]
-0.021341767 0.05195505 -0.0034087412 0.14454818 0.014143235 0.05974092 -0.023092542 -0.13468565
0.113989554 0.013644698 0.019546933 0.05338276 0.006635121 0.014903588 -0.057025127 0.012793366
0.005419035 -0.013107802 -0.1766376 0.030705905 -0.02152022 -0.06022436 0.1090391 0.04652182
0.13250634 -0.024320476 0.06903695 0.07443872 0.13965394 0.036942795 0.202112 0.124568425
-0.10753827 -0.026593579 0.069842935 0.07740832 0.015377254 -0.09294242 0.01822351 0.039031267
0.044032954 0.08606779 0.14671104 0.05672825 0.002587365 -0.08439854 0.035261035 -0.082325
0.07862199 0.006388745 0.030469265 -0.038446434 0.02695587 -0.07791462 -0.052644853 0.007480705
0.0625552 0.010284643 0.029449254 -0.08884682 -0.08727701 0.0063965134 -0.016534114 -0.047985174
0.0121959 0.07662241 -0.00216054 -0.00830892 -0.097607285 0.020520205 0.019533582 0.06001336
0.019821154 0.115386225 0.05463039 0.08939869 0.023263 0.04498151 -0.054722283 0.082664914
0.05401853 0.0367298 0.041817266 -0.032834124 -0.019898666 0.13174489 0.12814747 -0.03723971
0.03357445 -0.03346791 0.0550198 -0.09313188 0.02350539 -0.06899177 0.010270681 0.015416398
-0.067811996 0.043786366 -0.019936481 -0.0319697 0.053897493 -0.060060274 -0.06765867 -0.020085508
-0.0048951046 0.070343055 0.08898809 -0.011836049 0.19697085 0.057611115 -0.17151268 -0.07216324
-0.047351606 -0.049467303 -0.161888 0.113715455 -0.23332535 0.00049712835 0.09568189 0.12258864
0.07292564 0.016453877 0.01177211 -0.007122864 0.096968904 0.13900729 -0.011099628 0.1589881
-0.09955889 0.0696076 -0.021997344 0.053162735 -0.014754151 0.08160335 0.014147124 0.07367883
0.029897004 0.056707155 -0.030568568 -0.15003854 0.052238315 -0.0448669 -0.069360495 0.09427654
-0.04983469 -0.12359465 0.056411505 0.06959 0.046460867 0.02485907 -0.07815623 -0.0136931995
-0.1687859 -0.040713478 -0.07628642 0.103193924 0.083552316 -0.015224954 -0.089442655 -0.0029516623
0.1661683 -0.0120248925 0.017489463 0.08175322 0.02520897 -0.0043312106 0.0061061718 0.00013155749
0.0042458507 -0.066287674 0.109543644 -0.17377092 -0.023135662 0.019715823 0.0029806942 -0.23923223
-0.010448661 0.0130670555 -0.08388056 -0.025451766 0.07554901 -0.009404635 -0.084176995 -0.01313046
0.040365566 0.0800721 -0.08218459 -0.04622155 -0.13441478 0.038266722 0.048088357 0.013897873
0.057465967 -0.071287185 -0.08668418 -0.07377887 0.02002187 -0.045812637 0.012273506 0.031538833
0.031096669 0.18191801 -0.123750076 -0.0044673816 -0.049432646 -0.0040789773 -0.021720953 -0.03471794
0.087209485 0.0023483676 0.07201155 0.0010486777 -0.03268422 0.042111564 0.17680423 0.015364118
-0.025205648 0.08521436 -0.0032677618 -0.062774844 0.12890096 -0.09723244 -0.042938497 -0.16135015
0.031958587 0.036310248 -0.01920602 0.14694014 -0.06506952 -0.06887072 0.05856359 -0.044047892
0.07330272 -0.08921176 -0.13659987 -0.015306234 -0.03219807 0.054550182 -0.18650644 -0.1290507
-0.060245555 -0.11025831 -0.06315357 0.03143119 0.029811556 -0.010810863 0.12899317 0.01635432
-0.009879469 -0.06025946 0.042053774 -0.078695044 -0.16485888 -0.03936273 -0.016251618 0.033755597
00000000: eed4 aebc d2ce 543d 3065 5fbb 7004 143e
00000010: 07b9 673c e5b2 743d 922c bdbc 09eb 09be
00000020: 5b73 e93d 038e 5f3c e420 a03c e2a7 5a3d
00000030: 6e6b d93b 2e2e 743c 2e93 69bd 449b 513c
00000040: 2992 b13b 1bc2 56bc 7de0 34be f38a fb3c
00000050: 2c4b b0bc d2ad 76bd e44f df3d aa8d 3e3d
00000060: beaf 073e bc3b c7bc 3f63 8d3d 5473 983d
00000070: 7101 0f3e 5451 173d 73f6 4e3e bb1d ff3d
00000080: 063d dcbd c7da d9bc d009 8f3d 4188 9e3d
00000090: e1f0 7b3c 9858 bebd 7849 953c 40df 1f3d
000000a0: e65b 343d 4f44 b03d 6b3b 163e e25b 683d
000000b0: c890 293b 24d9 acbd e06d 103d 029a a8bd
000000c0: 9104 a13d ad58 d13b ae9a f93c 027a 1dbd
000000d0: 8fd2 dc3c b391 9fbd 21a2 57bd b420 f53b
000000e0: f11c 803d eb80 283c 903f f13c 52f5 b5bd
000000f0: 4abe b2bd d899 d13b 8d72 87bc 1a8c 44bd
00000100: 50d1 473c 36ec 9c3d d997 0dbb 2322 08bc
00000110: 54e6 c7bd fd19 a83c e404 a03c 92d0 753d
00000120: f95f a23c 9d4f ec3d 1ec4 5f3d a916 b73d
00000130: 0c92 be3c 883e 383d 7924 60bd 394c a93d
00000140: 8942 5d3d fd71 163d 9548 2b3d 137d 06bd
00000150: 8702 a3bc 22e8 063e 1739 033e ab88 18bd
00000160: 5d85 093d a615 09bd 715c 613d edbb bebd
00000170: 608e c03c 8f4b 8dbd 5c46 283c 0f95 7c3c
00000180: 04e1 8abd 5559 333d d551 a3bc a9f2 02bd
00000190: 9ec3 5c3d c301 76bd a190 8abd 5d8a a4bc
000001a0: 1d67 a0bb 0510 903d 633f b63d fdeb 41bc
000001b0: bab2 493e a2f9 6b3d 05a1 2fbe 52ca 93bd
000001c0: c2f3 41bd 3a9e 4abd f8c5 25be a6e3 e83d
000001d0: d7ec 6ebe b851 023a def4 c33d c10f fb3d
000001e0: 0a5a 953d 48ca 863c cfdf 403c ea66 e9bb
000001f0: a297 c63d ed57 0e3e 37db 35bc c7cd 223e
00000200: 88e5 cbbd 6e8e 8e3d c633 b4bc 2bc1 593d
00000210: 65bb 71bc a81f a73d 57c9 673c ede4 963d
00000220: 90ea f43c c345 683d ef6a fabc b4a3 19be
00000230: d8f7 553d 5bc6 37bd e00c 8ebd 0f14 c13d
00000240: 761f 4cbd 311f fdbd c00f 673d 3485 8e3d
00000250: c04d 3e3d 40a5 cb3c 6010 a0bd 7159 60bc
00000260: 36d6 2cbe 2dc3 26bd 0e3c 9cbd 5657 d33d
00000270: 7a1d ab3d 1672 79bc b62d b7bd ad70 41bb
00000280: 0628 2a3e 0e04 45bc 1046 8f3c 3b6e a73d
00000290: 0b83 ce3c d4ec 8dbb 4816 c83b b2f2 0939
000002a0: c720 8b3b d5c1 87bd 6b58 e03d 01f1 31be
000002b0: 0087 bdbc 1483 a13c c057 433b 4bf9 74be
000002c0: dc30 2bbc 3417 563c 92c9 abbd 3980 d0bc
000002d0: 70b9 9a3d e615 1abc fd64 acbd 2421 57bc
000002e0: 5d56 253d d7fc a33d 6550 a8bd cf52 3dbd
000002f0: 07a4 09be 91bd 1c3d 4cf8 443d e8b3 633c
00000300: 6f61 6b3d 04ff 91bd 7a87 b1bd 6019 97bd
00000310: e804 a43c 08a6 3bbd d116 493c dd2e 013d
00000320: 71be fe3c b748 3a3e ae70 fdbd 1d63 92bb
00000330: e379 4abd f1a8 85bb 24f0 b1bc 6634 0ebd
00000340: e39a b23d 12e7 193b cb7a 933d c973 893a
00000350: e3df 05bd 2d7d 2c3d 2b0c 353e c8b9 7b3c
00000360: 137c cebc de84 ae3d f227 56bb 1990 80bd
00000370: 9dfe 033e cd21 c7bd 47e0 2fbd f938 25be
00000380: 02e7 023d 0eba 143d f155 9dbc 7a77 163e
00000390: 2b43 85bd 180c 8dbd 60e0 6f3d 906b 34bd
000003a0: bd1f 963d a8b4 b6bd d6e0 0bbe 00c7 7abc
000003b0: 20e2 03bd 0370 5f3d 8bfb 3ebe de25 04be
000003c0: 0bc4 76bd 1ccf e1bd a956 81bd febd 003d
000003d0: 5d37 f43c 0c20 31bc c916 043e 7ff9 853c
000003e0: 7fdd 21bc a0d2 76bd 9440 2c3d de2a a1bd
000003f0: c4d0 28be d03a 21bd 1d22 85bc 4f43 0a3d

fc2.bias f4 [300]
-0.012012772 -0.040362686 0.021496262 -0.014181848 0.02756633 0.059477802 -0.05699412 0.03917026
-0.005221989 0.03629686 -0.10219995 0.079973 0.021592706 0.018000452 0.0131212175 -0.03041932
-0.03934966 0.054566815 0.015277467 0.022137322 -0.12802131 -0.14168221 -0.03236578 -0.009823498
0.055601645 0.07381152 0.033955246 -0.038254973 0.06924742 0.028827356 0.03357959 -0.035691727
0.07652216 -0.09907118 0.016340483 0.007639489 -0.030757379 0.061593343 -0.1788022 -0.0954327
-0.025275514 -0.04190565 -0.060664102 0.025112277 -0.0075224983 0.022345902 -0.028881773 -0.0072915736
0.048827875 0.0030372322 -0.021637144 0.06601965 -0.17065305 0.008985993 -0.0097481115 0.015926234
0.0041386527 0.04490848 0.0074197925 -0.03595854 0.0026613742 -0.05974141 -0.1704064 -0.07730822
-0.062354732 0.020756777 0.011282861 -0.0446962 -0.15081376 0.07504424 0.031487063 -0.08107466
0.0021361085 -0.028615614 0.0055937213 0.009724893 -0.07920033 -0.07681441 0.025913004 -0.098083176
-0.113434084 -0.016422838 -0.1419438 -0.08275809 -0.06431109 -0.10359171 0.0013775335 -0.030196467
-0.044786714 -0.019130286 -0.044356074 -0.019169603 -0.05340525 -0.14219695 0.09260875 0.0035324018
0.0060236263 -0.05607961 0.05469767 0.06405979 -0.015683658 0.008936686 -0.033965852 -0.047493774
-0.08612776 -0.025885701 -0.003965255 -0.06941639 -0.012052533 -0.14193252 0.03325121 -0.036587045
-0.019752936 -0.14882213 -0.014132959 0.02193226 0.053693626 -0.02056056 0.062099148 -0.11651534
0.004072742 -0.025997898 -0.039030503 -0.052339762 -0.007985963 0.040475678 0.01623445 -0.10755941
0.04099103 0.08344218 0.04399086 -0.020994985 -0.04830752 -0.008984759 -0.012696464 -0.041032534
0.038996726 -0.10379074 -0.0809172 -0.010902074 0.028203787 -0.025309648 -0.021712283 0.009270385
-0.10180839 -0.027843604 0.034766894 -0.043155402 -0.03898377 -0.014971639 0.025114724 -0.11925323
-0.0400164 -0.019209575 0.011833517 -0.02485116 -0.14004418 0.017662192 0.017793607 -0.021795997
-0.10867969 0.07783396 -0.12293639 0.021356728 0.007768015 2.4481162e-06 -0.10592838 -0.06628668
0.041910782 -0.0581923 0.05957489 -0.06049283 -0.054685786 0.009659207 0.05522536 0.0107884165
0.041864026 -0.00709998 -0.009166721 -0.01446721 0.08324604 0.08196887 0.035437927 -0.076489806
0.022928787 0.0012037812 -0.026033947 -0.061183862 0.030200275 -0.06527796 -0.025499564 -0.014877099
0.030121386 -0.07938939 -0.0115480255 -0.07112248 -0.04382779 0.03946296 -0.016373405 0.0038779455
0.008199792 0.043223955 -0.05354452 -0.070108294 -0.038845036 0.03901462 -0.063696414 0.021026295
-0.010427625 -0.012089366 -0.06519385 0.069082916 -0.019504085 -0.15448917 0.011537226 0.026263809
-0.040267676 0.017775882 -0.061082058 -0.06644414 -0.05151532 0.06457514 -0.023321444 0.022899803
-0.026604488 0.0038034322 -0.07380003 -0.016868824 0.020993816 -0.002763464 0.018528515 -0.002626894
-0.0006145419 0.050341997 0.04995765 0.024729876 -0.09726723 -0.07767146 0.09692878 -0.002475713
-0.06550371 0.04568278 -0.026741548 -0.055234473 -0.027067747 0.024151267 0.027350092 0.025298847
-0.01976413 -3.0989852e-06 -0.1006643 0.0683867 0.00020283968 0.048866946 -0.0105385855 0.036820237
00000000: 38d1 44bc 5853 25bd ee18 b03c fb5a 68bc
00000010: c9d2 e13c ff9e 733d ab72 69bd ff70 203d
00000020: 381d abbb 04ac 143d 354e d1bd e2c8 a33d
00000030: 30e3 b03c af75 933c 60fa 563c f031 f9bc
00000040: 1c2d 21bd 7481 5f3d 574e 7a3c 5459 b53c
00000050: 0518 03be 2415 11be fb91 04bd bdf2 20bc
00000060: 8dbe 633d 7f2a 973d a814 0b3d 3fb1 1cbd
00000070: 97d1 8d3d 5927 ec3c c18a 093d 7d31 12bd
00000080: a6b7 9c3d d5e5 cabd 7adc 853c ae54 fa3b
00000090: e6f6 fbbc 4d49 7c3d ed17 37be 3872 c3bd
000000a0: 980e cfbc 42a5 2bbd ec7a 78bd 43b8 cd3c
000000b0: 4a7f f6bb c10e b73c 7899 ecbc 27ee eebb
000000c0: bdff 473d 4d0c 473b 6140 b1bc 4f35 873d
000000d0: acbf 2ebe fd39 133c 8bb6 1fbc bc77 823c
000000e0: 899d 873b f4f1 373d bb21 f33b 4349 13bd
000000f0: 736a 2e3b 69b3 74bd 047f 2ebe c653 9ebd
00000100: ad67 7fbd 1e0a aa3c c0db 383c 5d13 37bd
00000110: ec6e 1abe cbb0 993d 94f8 003d 790a a6bd
00000120: f4fd 0b3b 4b6b eabc 894b b73b 2855 1f3c
00000130: c833 a2bd e050 9dbd 8247 d43c d5df c8bd
00000140: 2150 e8bd 3089 86bc b759 11be 137d a9bd
00000150: 88b5 83bd e427 d4bd 5b8e b43a 955e f7bc
00000160: 4672 37bd 1eb7 9cbc b7ae 35bd 9209 9dbc
00000170: 77bf 5abd 149c 11be a8a9 bd3d de7f 673b
00000180: d761 c53b bcb3 65bd aa0a 603d c731 833d
00000190: 047b 80bc 2e6b 123c c71f 0bbd d588 42bd
000001a0: c063 b0bd 400e d4bc f8ee 81bb 2e2a 8ebd
000001b0: fd77 45bc c256 11be 6c32 083d 4cdc 15bd
000001c0: e9d0 a1bc d464 18be ed8d 67bc 48ab b33c
000001d0: d9ed 5b3d 9f6e a8bc ad5b 7e3d 989f eebd
000001e0: a374 853b 8bf9 d4bc 73de 1fbd 3862 56bd
000001f0: 8ed7 02bc d3c9 253d 1cfe 843c 1c48 dcbd
00000200: 36e6 273d bce3 aa3d c32f 343d adfd abbc
00000210: 1bde 45bd d034 13bc d404 50bc bb11 28bd
00000220: 08bb 1f3d 3d90 d4bd ebb7 a5bd 9d9e 32bc
00000230: a10b e73c 2e56 cfbc f5dd b1bc d0e2 173c
00000240: eb80 d0bd 4518 e4bc bb67 0e3d b8c3 30bd
00000250: 72ad 1fbd 9b4b 75bc 65bd cd3c 0a3b f4bd
00000260: 3de8 23bd 665d 9dbc 5ee1 413c a994 cbbc
00000270: be67 0fbe 4db0 903c e6c3 913c 858d b2bc
00000280: 7593 debd 6967 9f3d 13c6 fbbd 4ef4 ae3c
00000290: d58a fe3b 514a 2436 faf0 d8bd 50c1 87bd
000002a0: a4aa 2b3d 0d5b 6ebd cd04 743d 54c7 77bd
000002b0: 34fe 5fbd a741 1e3c fd33 623d e6c1 303c
000002c0: 9d79 2b3d f3a6 e8bb 0430 16bc e007 6dbc
000002d0: e67c aa3d 4bdf a73d 5c27 113d b0a6 9cbd
000002e0: 27d5 bb3c 32c8 9d3a 2545 d5bc ee9b 7abd
000002f0: 9166 f73c 73b0 85bd 76e4 d0bc 13bf 73bc
00000300: 20c1 f63c e896 a2bd ee33 3dbc aaa8 91bd
00000310: c584 33bd eaa3 213d 8521 86bc 2125 7e3b
00000320: 6c58 063c 9a0b 313d 8051 5bbd f094 8fbd
00000330: f91b 1fbd cbcd 1f3d 4473 82bd 563f ac3c
00000340: a1d8 2abc 7a12 46bc 5a84 85bd 587b 8d3d
00000350: 08c7 9fbc 6932 1ebe a206 3d3c 3327 d73c
00000360: b8ef 24bd ba9e 913c 2e31 7abd de13 88bd
00000370: ba01 53bd f93f 843d 9d0c bfbc 5e98 bb3c
00000380: a8f1 d9bc 0143 793b 7824 97bd 7d30 8abc
00000390: 39fb ab3c 3c1b 35bb 1dc9 973c f827 2cbb
000003a0: 3519 21ba 6933 4e3d 65a0 4c3d 4f96 ca3c
000003b0: 0b34 c7bd 3712 9fbd 9982 c63d 923f 22bb
000003c0: cf26 86bd de1d 3b3d 1711 dbbc 8b3d 62bd
000003d0: 2ebd ddbc e1d8 c53c 4d0d e03c 873f cf3c
000003e0: 62e8 a1bc 29f8 4fb6 1629 cebd 530e 8c3d
000003f0: 5db1 5439 b528 483d 08aa 2cbc d1d0 163d

fc3.weight f4 [2, 300]
0.117345996 -0.26948628 0.05046699 0.12772737 -0.1090824 0.13308752 -0.016622396 -0.056697614
-0.10281892 0.026912522 -0.2432204 0.10338282 0.015745621 -0.09836556 -0.03133926 0.013206282
-0.011940136 0.02591327 -0.06016443 -0.254012 -0.14947586 0.026175868 -0.08651689 0.10434942
0.13779539 0.011482252 -0.055269726 -0.019958278 -0.06708521 0.06279847 -0.04356787 0.05827135
-0.032885116 -0.15051125 -0.08751718 -0.4031143 -0.10508237 -0.1435093 -0.23410492 -0.2177727
0.012433969 0.065871485 -0.24434352 -0.029865537 -0.1695487 0.0037838044 0.022188826 0.03671074
0.034928784 0.10678984 -0.00057164714 -0.034733806 -0.40887806 0.023234643 -0.15234962 0.0072065936
0.07115933 0.23588735 0.020023301 0.08848169 -0.16221026 -0.08363464 -0.25295803 -0.15605196
-0.046115685 0.09383376 0.02643142 0.044239912 -0.2362536 0.04353308 -0.001164955 -0.013777708
0.06112361 0.02854473 0.013619944 -0.098759405 -0.31462643 -0.07945267 0.006523935 0.008679691
-0.3114659 -0.06392905 -0.4046284 -0.42023528 0.0107029565 -0.16244385 0.08900056 -0.22780287
-0.43839738 -0.01228619 -0.5055486 -0.005841809 0.15356493 -0.196658 0.051903844 0.040607188
0.12208576 0.0043714964 0.06944584 0.0937662 -0.12118248 0.12667523 0.191901 -0.25978348
-0.23275597 0.09901484 0.012334735 0.015579266 -0.12948105 -0.3659876 0.12828203 -0.0006921669
-0.20507409 -0.23601007 0.12786764 -0.008379443 0.036998 0.0013928388 0.0029137402 -0.32845366
-0.0850112 0.03248132 0.005295674 -0.19663034 -0.014055291 -0.0021929697 -0.10708345 -0.28050777
0.07342229 0.12841739 0.002075213 0.09378017 0.12244055 -0.106590554 -0.082089856 -0.23981927
-0.0022348051 0.028860811 -0.3531823 -0.037289698 -0.011710817 0.16834812 0.10684679 -0.004528145
-0.52117527 -0.043223336 0.077539206 -0.20935795 0.16592324 0.05650712 0.08560259 -0.3784993
0.18165301 0.021952167 0.030204216 0.083145 -0.15195516 0.03488314 0.11525604 -0.15639605
-0.038586564 0.045590486 -0.13741763 -0.008833491 0.13141909 0.028416678 -0.13482727 -0.016707402
-0.020247847 -0.0012147325 0.029288586 -0.23763402 -0.022884658 0.0054876474 -0.009121391 -0.15445244
0.21569496 0.06892852 0.13684298 -0.42726055 0.25567162 0.0055234185 -0.13724446 -0.17520921
0.056128085 0.14732386 -0.09596543 -0.12723295 0.03510885 0.064895794 0.067246184 -0.010836175
0.047375385 0.0042253872 -0.20328876 -0.041729946 0.0373477 -0.03469999 0.0582634 0.096680626
0.13201046 0.13170591 -0.20951663 -0.09488844 0.10893166 -0.01868581 0.017707163 0.20736507
0.051403277 0.19697629 0.066777326 0.003873587 -0.016688867 -0.3518309 0.26621616 -0.15477043
0.02038794 -0.18843073 -0.08034992 0.011331726 -0.19549797 0.014390846 0.0020628395 2.854455e-05
0.021788366 -0.031706706 -0.018035395 0.008849701 0.026687669 0.06643763 -0.09777329 0.048152898
0.023548858 -0.018314969 0.12165386 -0.139548 -0.07039758 -0.15083323 -0.06442268 -0.36796328
0.030612957 0.03574177 -0.040137216 -0.00481372 -0.38939118 0.016149879 -0.109177515 0.15198861
0.12555434 0.04818242 0.031346638 0.092989966 0.061379742 -0.016178517 -0.0385603 0.0019926222
00000000: 1953 f03d 1bfa 89be 79b6 4e3d f7ca 023e
00000010: 9866 dfbd 1848 083e b12b 88bc c23b 68bd
00000020: ba92 d2bd a677 dc3c c50e 79be 5fba d33d
00000030: f6fc 803c e273 c9bd 995d 00bd 295f 583c
00000040: 8fa0 43bc 1148 d43c fa6e 76bd dc0d 82be
00000050: 3310 19be c66e d63c c42f b1bd 26b5 d53d
00000060: 3c1a 0d3e 0e20 3c3c 8262 62bd 8b7f a3bc
00000070: f863 89bd 7c9c 803d 3974 32bd f0ad 6e3d
00000080: 8bb2 06bd 9f1f 1abe 353c b3bd ff64 cebe
00000090: 6d35 d7bd 1af4 12be 33b9 6fbe cfff 5ebe
000000a0: d9b7 4b3c a1e7 863d 3035 7abe 92a8 f4bc
000000b0: 2d9e 2dbe b4f9 773b 57c5 b53c 005e 163d
000000c0: 7c11 0f3d a2b4 da3d 97da 15ba 0945 0ebd
000000d0: 7758 d1be 9456 be3c 8a01 1cbe 4a25 ec3b
000000e0: fcbb 913d 748c 713e e807 a43c e335 b53d
000000f0: 721a 26be a348 abbd b783 81be 16cc 1fbe
00000100: cde3 3cbd ea2b c03d b586 d83c e934 353d
00000110: 77ec 71be be4f 323d 67b1 98ba e5bb 61bc
00000120: c05c 7a3d a3d6 e93c 3026 5f3c 5f42 cabd
00000130: b716 a1be 15b8 a2bd bcc6 d53b 4335 0e3c
00000140: 7578 9fbe 3ced 82bd 742b cfbe 1429 d7be
00000150: 745b 2f3c ae57 26be ed45 b63d 2845 69be
00000160: 9f75 e0be 044c 49bc a26b 01bf a56c bfbb
00000170: 2040 1d3e b760 49be 2099 543d b953 263d
00000180: 1908 fa3d c53e 8f3b 9f39 8e3d 7e08 c03d
00000190: 852e f8bd 27b7 013e b281 443e 5702 85be
000001a0: 9557 6ebe 4bc8 ca3d a117 4a3c 2d40 7f3c
000001b0: ae96 04be ba62 bbbe 5d5c 033e 8972 35ba
000001c0: f1fe 51be a0ac 71be bcef 023e ee49 09bc
000001d0: 378b 173d ea8f b63a 73f4 3e3b 142b a8be
000001e0: 5a1a aebd 220b 053d 5587 ad3b 7759 49be
000001f0: 2a48 66bc edb7 0fbb 914e dbbd b79e 8fbe
00000200: 6d5e 963d d97f 033e 4c00 083b d10f c03d
00000210: 1cc2 fa3d 264c dabd ba1e a8bd 2f93 75be
00000220: cf75 12bb 826d ec3c 4fd4 b4be 15bd 18bd
00000230: bade 3fbc 7363 2c3e 7dd2 da3d d560 94bb
00000240: be6b 05bf f40a 31bd e0cc 9e3d ee61 56be
00000250: c8e7 293e 0374 673d 6950 af3d a9ca c1be
00000260: 3f03 3a3e 08d5 b33c d56e f73c ed47 aa3d
00000270: 229a 1bbe a0e1 0e3d 5c0b ec3d 4926 20be
00000280: f20c 1ebd 17bd 3a3d 35b7 0cbe 59ba 10bc
00000290: ba92 063e 18ca e83c 2910 0abe f6dd 88bc
000002a0: d0de a5bc a937 9fba 9eee ef3c 5556 73be
000002b0: 9b78 bbbc b9d1 b33b e371 15bc c828 1ebe
000002c0: 24df 5c3e 652a 8d3d 9120 0c3e e5c1 dabe
000002d0: 64e7 823e cbfd b43b d089 0cbe 0b6a 33be
000002e0: 90e6 653d 11dc 163e 8689 c4bd 5b49 02be
000002f0: 4cce 0f3d 16e8 843d 5eb8 893d 368a 31bc
00000300: b10c 423d 1e75 8a3b ee2a 50be 05ed 2abd
00000310: e7f9 183d 9421 0ebd 9aa5 6e3d 7e00 c63d
00000320: c02d 073e eadd 063e 878b 56be df54 c2bd
00000330: 9017 df3d fc12 99bc 9d0e 913c 8257 543e
00000340: 3e8c 523d 27b4 493e 8dc2 883d 01dc 7d3b
00000350: 17b7 88bc 2e23 b4be 7c4d 883e 247c 1ebe
00000360: 9c04 a73c fcf3 40be 808e a4bd b4a8 393c
00000370: 9f30 48be 95c7 6b3c b430 073b f472 ef37
00000380: 847d b23c e4de 01bd f7be 93bc 56fe 103c
00000390: 19a0 da3c 7410 883d 5d3d c8bd f93b 453d
000003a0: 89e9 c03c 4609 96bc a925 f93d ace5 0ebe
000003b0: 9b2c 90bd 0774 1abe 0af0 83bd af65 bcbe
000003c0: 06c8 fa3c f665 123d ec66 24bd 69bc 9dbb
000003d0: 485e c7be c04c 843c 7698 dfbd e7a2 1b3e
000003e0: 5191 003e ee5a 453d 5565 003d 8671 be3d
000003f0: 5369 7b3d cf88 84bc 68f1 1dbd a796 023b

fc3.bias f4 [2]
0.06371782 0.034760762
00000000: 7d7e 823d 4d61 0e3d
