saved_agents/critic_local_1.pth (torch_old, 566674 bytes, 5 tensors)

fcs1.weight f4 [400, 48]
000000 3e 65 45 3e 83 91 d8 3d 2c 8e 50 bd ff 7d db 3c
       0.19276902 0.10574629 -0.050916836 0.026793478
000010 03 16 bc bb 6b f3 da bd a7 ab d5 3b 81 30 c5 3b
       -0.0057399287 -0.106909595 0.0065207067 0.006017745
000020 1a 6d e4 3d 0b f6 0e 3d 59 92 22 bd 19 c6 b4 3c
       0.11153622 0.034902614 -0.03969035 0.022067117
000030 3e 26 6b 3d c8 a8 2a be 6a 8c 92 3c 9e 7e 82 bc
       0.057409517 -0.16665947 0.01788922 -0.015929516
000040 71 93 19 3e d5 7f d8 3d 01 99 ef 3c 5e b6 16 3c
       0.1499765 0.10571257 0.029247763 0.009198753
000050 24 7f 14 3d 9a aa d1 bd 58 02 a9 bc f6 9f 96 bd
       0.036254063 -0.10237618 -0.020631 -0.07354729
000060 7c 2d fa 3d 2b db a8 3d 50 20 09 3c 1b fb 18 3d
       0.12215707 0.08244928 0.00836952 0.037348848
000070 01 05 05 bc 97 9e 3b be b7 54 fc bc 43 06 2d 3d
       -0.008118869 -0.18322216 -0.030802114 0.0422423
000080 e8 31 19 3e bd dd cf 3d 47 c5 80 bc a0 03 0c 3b
       0.14960444 0.10149715 -0.01571907 0.0021364465
000090 66 eb e0 bc ac 21 10 be 2b 05 83 bc 70 b4 a9 bc
       -0.027455997 -0.14075345 -0.015993675 -0.020715922
0000a0 87 6a 19 3e 66 85 0f 3d b8 42 fe bb e4 6a e0 bc
       0.14982043 0.035039328 -0.0077594183 -0.02739472
0000b0 37 18 0f bc a1 1c ba bd 25 31 84 3a e7 b2 eb 3c
       -0.008733801 -0.09087492 0.0010085447 0.02877183
0000c0 1d ee fa 3e 8e 99 19 3f 36 d7 39 bd c9 09 c0 be
       0.4900979 0.5999993 -0.045371257 -0.37507465
0000d0 8d 19 97 3d 15 6f 17 bf a5 9e d1 bd 52 d2 9a be
       0.0737792 -0.5915387 -0.10235337 -0.30238587
0000e0 f2 3a 20 3f de 24 35 3f 9a 5c 50 bc 75 a1 03 3f
       0.62589943 0.7075938 -0.01271739 0.5141824
0000f0 51 35 02 3e ec 23 12 bf 2a be 21 bc 83 be 02 3f
       0.12715651 -0.5708606 -0.009871999 0.5107195
000100 43 68 3e 3f 93 d7 3c 3f c4 76 d7 3a 65 50 18 3e
       0.7437784 0.7376644 0.0016438593 0.14874418
000110 f6 6a 08 3e 8b 71 c0 be 7f df 0e bb e5 91 0e 3e
       0.13322052 -0.37586626 -0.0021800695 0.13922842
000120 5a 9c 0c 3f 11 0c 03 3f ea 4f 38 bd 3b 3d 58 be
       0.54926074 0.51190287 -0.044998087 -0.21117108
000130 89 24 60 bd d6 f1 1c bf 32 71 05 bd 75 8d 46 be
       -0.054722343 -0.6130651 -0.032578655 -0.19389899
000140 98 f2 35 3f 7a c0 18 3f 8f ba 18 bd 46 32 24 3e
       0.71073294 0.59668696 -0.03728729 0.16034803
000150 ec 32 ea bd 50 8b 06 bf 24 0c b4 bd 14 a6 ae 3d
       -0.11435494 -0.52556324 -0.08791378 0.08527771
000160 18 59 44 3f cb 0c f5 3e 4b 53 bc bd 39 56 30 3e
       0.76698446 0.47861323 -0.091955744 0.17220391
000170 b6 1b 34 be b6 7e b3 be 78 d2 d4 bd db 77 da 3d
       -0.17588696 -0.3505761 -0.10391706 0.10667392
000180 57 35 4d 3e da d1 78 be f5 15 15 3d 38 4a b6 bd
       0.20039879 -0.24298802 0.036397893 -0.08900875
000190 8f 38 13 3f 70 ba c1 3c e9 6f b8 3c 26 cb 48 bd
       0.57508177 0.02364847 0.0225143 -0.049021862
0001a0 2f ed a6 3e 2f 14 da be 5c 7c 2f bd 90 8e 2b 3d
       0.32602832 -0.42593524 -0.042843208 0.041884005
0001b0 59 7c d7 3e c0 c2 23 be ae 0d d8 bc 58 d8 a9 3c
       0.42087057 -0.1599226 -0.02637371 0.020733044
0001c0 a4 c4 90 3e 1d 07 ca be 19 02 45 3d 82 57 a3 bd
       0.28275025 -0.39458552 0.048097704 -0.07975675
0001d0 a6 2f 97 bd 6b ed aa be 7c 3a 9d bb 56 18 bc bd
       -0.07382135 -0.3338426 -0.0047982316 -0.09184329
0001e0 62 61 43 3e 3a 4e 18 be a1 1b 32 bd 83 ad 1e 3e
       0.19080117 -0.14873591 -0.04348338 0.15495877
0001f0 88 3e 16 bf f1 0e f9 3d b9 b6 71 bb bd 21 58 3e
       -0.58689165 0.12161053 -0.0036882593 0.2110662
000200 d8 c0 63 3e 87 4d 42 be e1 47 96 bd e9 3a 00 bc
       0.22241533 -0.18974887 -0.073379286 -0.007826545
000210 44 9f b8 be dc fd 62 be 1f 64 9c bd 8f 3d ab bb
       -0.3605901 -0.22167152 -0.07636284 -0.005225844
000220 28 14 c9 3e 3d 87 28 be c6 da 92 bd 53 37 f5 3e
       0.3927319 -0.1645784 -0.07170634 0.47893772
000230 74 99 08 3c 88 2d 98 be 1b 4e ac bd 3c 6a fd 3e
       0.008337367 -0.29722238 -0.08413335 0.49495113
000240 c0 8d 47 3e 9a 53 81 bd 10 c8 27 bc bb 72 94 3d
       0.19487667 -0.06314774 -0.01024057 0.072484456
000250 dd 4b 81 bc 19 02 1b be bf 49 e8 bc 41 ec 04 3e
       -0.015783245 -0.15137519 -0.028355477 0.12980749
000260 4b 1e 76 3e 1f bc 28 bd 74 b9 ea 3c 84 f5 09 3d
       0.24034993 -0.04119503 0.028652884 0.033681408
000270 d5 86 02 bd ac c1 31 be a7 7a b5 bc dc cc ec 3c
       -0.031866867 -0.17359036 -0.022153212 0.028906278
000280 a4 bb 8d 3e 06 a5 ca 3c 03 b0 95 bc 60 da 7c 3d
       0.2768222 0.024736892 -0.018272405 0.061731696
000290 c9 82 6b bc 0a 60 e0 bd 7d 33 a2 3b 2e 88 93 3d
       -0.014374443 -0.10955818 0.0049499855 0.072037086
0002a0 d0 6d 16 3e 0a ee 15 3d 9e bb 0d bd c4 2c 11 bd
       0.14690328 0.036603965 -0.034602754 -0.035443082
0002b0 bd 3c c8 3b eb 3a 40 be 72 8e d0 3b 87 f3 33 bd
       0.006110756 -0.18772475 0.006364637 -0.043933418
0002c0 6a ea 75 3e 76 25 8d 3d 10 06 aa bb e7 72 60 ba
       0.24015203 0.06891911 -0.005188711 -0.00085620437
0002d0 e0 ca 59 bd 60 ec 17 be cb 8e 3b bd 10 5f 93 bc
       -0.053171992 -0.14836264 -0.045790475 -0.017989665
0002e0 a7 d6 81 3e a7 37 6f 3b 21 27 f3 bb 58 b4 c5 bb
       0.2535908 0.0036501677 -0.007420436 -0.0060334615
0002f0 3f 40 00 bd 42 76 0b be c6 7f d7 bc 34 74 f7 bb
       -0.03131127 -0.1361933 -0.026306044 -0.0075516943
000300 08 92 06 3f a5 13 5b 3e 06 2d 9c 3d e8 5d 6d be
       0.52566576 0.21394213 0.07625775 -0.23180354
000310 9e 3d 26 bf 76 a9 b9 be 6a 21 d6 3a a9 9a 3c be
       -0.6493777 -0.362621 0.0016336862 -0.18418373
000320 17 56 46 3f dc 11 75 3e 54 d3 42 3d f4 a6 0a bf
       0.7747511 0.23932594 0.04756482 -0.54161
000330 99 0d c0 be 46 4b 56 bd 68 b5 6b 3d 82 d7 ee be
       -0.37510374 -0.05231788 0.05754605 -0.46648794
000340 77 4e 58 3f bc b2 3b be a4 dc 70 3d 03 20 78 be
       0.8449473 -0.183299 0.05880417 -0.24230962
000350 05 f7 93 3e 8d 2b f6 3e be e0 ea 3c 17 d2 70 be
       0.28899398 0.48080102 0.028671619 -0.23517643
000360 3f 29 0a be 5f 7b 3f bf 95 07 0e 3d 1e 7e 08 be
       -0.13492297 -0.74797624 0.0346752 -0.1332936
000370 80 3e 24 3f 95 b6 c6 be 3b 5e cb bc 75 be bd bd
       0.6415787 -0.38811174 -0.024825206 -0.092648424
000380 0f 79 d5 3d a4 d5 18 bf 44 53 f0 bc 7b cd f1 bc
       0.10423481 -0.5970099 -0.02933658 -0.029516926
000390 fc 6c ae 3e 4e 19 77 bd 77 a4 8e bd d0 e3 c2 bd
       0.34067523 -0.060326867 -0.06964963 -0.09516108
0003a0 ae 3a 80 3e cc 83 11 bf f2 5c 0c bc c6 f1 bc 3d
       0.2504477 -0.5684173 -0.008567082 0.09225802
0003b0 73 18 91 be 05 e4 cc 3e 89 dd 1e 3d 39 58 d6 3d
       -0.28338966 0.40017715 0.03878549 0.10466046
0003c0 cd 1b a3 3b ad 4c 3f 3f 8f 71 78 bd 31 16 2e 3e
       0.0049776793 0.7472637 -0.060655173 0.17000653
0003d0 4c 24 97 3d b6 d6 2c bf 88 a9 98 bd 50 c3 af 3d
       0.0737997 -0.6751512 -0.074542105 0.08582175
0003e0 42 25 b5 3d 5f f4 84 3f f7 37 57 3c bf c8 5c 3e
       0.08844997 1.0387076 0.013135902 0.21560954
0003f0 a2 09 8f 3c a7 a3 72 bf 2c 90 8a 3c b2 88 2a 3e
       0.017460648 -0.94780964 0.01691445 0.16653708

fcs1.bias f4 [400]
000000 a4 83 72 3c 08 d5 1b bf 3e 7d 44 bf bc 37 b7 be
       0.014801893 -0.60871935 -0.76753604 -0.3578471
000010 e9 98 28 bf f6 e9 4d bf 8b cf 0a 3e 5f a1 07 bf
       -0.6585832 -0.8043512 0.13555734 -0.5298061
000020 b1 d8 af bf 39 60 3e bf ff 00 2b bf eb 7c b2 be
       -1.3738004 -0.74365574 -0.66798395 -0.3486093
000030 e3 49 04 3e 24 43 d7 be 6b 71 bd 3e c5 d4 f5 bd
       0.1291881 -0.42043412 0.37000594 -0.12003473
000040 c4 ba ab bd 14 f3 b3 3e 74 90 04 be fb 3c 92 be
       -0.08385232 0.3514639 -0.1294573 -0.2856215
000050 82 6a 0b be 8d ce 07 bf 40 b5 9e bf f3 0c 3c bf
       -0.13614848 -0.53049546 -1.2399063 -0.7345726
000060 b9 c6 a4 be e6 89 14 bf 15 ea 80 be 31 fe 0d 3f
       -0.32182863 -0.58022916 -0.2517859 0.5546599
000070 8a d0 9e be c9 0a 90 bf 6b a9 0a be 0e a3 8a be
       -0.31018478 -1.1253291 -0.1354119 -0.27077526
000080 7a fd 29 3d ed c0 e0 bd ae 78 c1 bf 6c e1 05 bf
       0.0415015 -0.10974298 -1.5114954 -0.5229709
000090 5c b0 55 bf fa 3c 42 bf 0a 65 be be 29 e0 f9 be
       -0.8347223 -0.7587429 -0.37186462 -0.48803833
0000a0 5b 92 08 bf a3 13 db 3e b1 da 53 be ca c2 00 be
       -0.5334832 0.4278842 -0.20688893 -0.12574306
0000b0 49 9b 95 bf 66 03 60 bf a0 3c 44 bf bd c2 ac be
       -1.1688014 -0.87505186 -0.76655006 -0.33742324
0000c0 48 9c 54 be 5b 67 b2 be 4c b1 d6 3e bc c0 e5 be
       -0.20762742 -0.3484448 0.41932142 -0.44873607
0000d0 21 34 e9 3e d8 d3 1a bf 6c 19 87 bf df 92 a6 bf
       0.45547584 -0.604795 -1.0554633 -1.3013572
0000e0 fb aa 79 c0 69 cd bc bd eb 7f 58 bf 59 09 ca 3e
       -3.9010608 -0.092188664 -0.8457019 0.39460257
0000f0 5f e9 7e bf e2 4c 82 bd d0 fd ff bc e9 b9 a7 be
       -0.99574846 -0.063623205 -0.031248957 -0.32759026
000100 31 ff f2 be b1 c3 05 bf 76 6d bb be 61 58 35 be
       -0.4746032 -0.52251726 -0.3660695 -0.17709495
000110 bd 57 f1 be 34 9c 1e bf e1 c6 62 be 73 c0 74 bf
       -0.47137251 -0.619571 -0.22146179 -0.95606154
000120 cb 5c 22 be 84 3c 99 be e7 14 a9 3e 26 36 4b bf
       -0.1585571 -0.29928982 0.3302376 -0.793795
000130 c7 04 61 bf 86 16 ef 3c ca 80 82 3d a2 0e 02 be
       -0.87897915 0.029185545 0.06372221 -0.12700894
000140 7e 04 9d 3d 83 1d 9f be 63 af a4 bf 1f 27 77 bc
       0.076668724 -0.31077203 -1.2866024 -0.015085011
000150 d6 89 f0 bc 72 d6 50 bf 5a 81 49 bf d6 ad 04 bf
       -0.0293626 -0.8157722 -0.78713 -0.5182775
000160 f8 a8 8b bf e9 46 42 bf ec 5e c4 3e 48 a8 9d 3e
       -1.091094 -0.7588945 0.3835367 0.3079245
000170 49 06 99 3e b4 67 aa be 84 7c 39 bf 79 a0 a8 be
       0.29887608 -0.33282244 -0.7245562 -0.3293493
000180 f7 ec 83 bf ef 1f 82 bf 5f c9 80 bf 18 cf 34 bf
       -1.0306691 -1.0165995 -1.0061454 -0.706285
000190 4c 6f 66 3e f6 0b 9b be 6a a7 b8 bd 5e f1 68 3f
       0.22503394 -0.30282563 -0.09016307 0.909933
0001a0 6c be 5a bf f0 c0 6f bf 86 6d 92 be 6f 6d 4c bf
       -0.8544681 -0.93653774 -0.28599185 -0.7985448
0001b0 7b a3 5f bf a3 2e 7d bf 23 a8 87 bf 4a ca 94 3e
       -0.87358826 -0.98899287 -1.0598186 0.29060584
0001c0 cd a2 7a bf 8a 89 14 bf cd d6 91 3e 36 dc 8f bf
       -0.97904664 -0.5802237 0.28484192 -1.1239078
0001d0 9e 0d 5a bf 05 63 a6 bd cc d9 1f bf 89 e7 cb bd
       -0.8517703 -0.08124355 -0.62441707 -0.09956271
0001e0 8c bb 9e bf bc b5 9a 3c 03 82 a3 bd 49 5d b0 bd
       -1.2400985 0.018885486 -0.07983782 -0.08611543
0001f0 fb 25 ac bf ad 6a 7f bf 2b 78 94 be fd f9 44 bf
       -1.3449091 -0.9977215 -0.2899793 -0.7694395
000200 28 17 e7 3d 9d 7f df 3d d5 c6 a5 be e2 62 db be
       0.112837136 0.10913012 -0.3237826 -0.4284888
000210 f7 31 cb bd 51 9f 83 be f1 73 31 bf cb a6 35 bf
       -0.099216394 -0.25707486 -0.6931754 -0.7095763
000220 51 d5 41 3f 9e ad b8 bd 04 c0 f5 be cc c2 02 bf
       0.7571612 -0.0901749 -0.4799806 -0.51078486
000230 63 81 3a 3f 58 81 05 bf a5 ad e7 be 58 f7 29 be
       0.7285368 -0.5215049 -0.45249668 -0.1659826
000240 82 e2 55 bf e8 81 47 be 53 81 21 be 37 92 91 bf
       -0.8354875 -0.19483149 -0.1577199 -1.1372746
000250 ee 89 7f bf cd 12 1a bf 77 26 0a 3d b7 04 b1 3e
       -0.9981984 -0.6018494 0.03372809 0.3457391
000260 c3 8d 76 bf 47 24 d7 be ab a7 61 be 0f 1f 92 bf
       -0.9631006 -0.42019865 -0.22036617 -1.1415728
000270 2e 2b be be 58 4b 98 3e 2c 46 9d be 13 cf 21 bf
       -0.37142318 0.29744983 -0.307176 -0.63206595
000280 a6 2d 8f bf 0f 32 96 bf 01 7d 95 bd 34 57 86 be
       -1.1185806 -1.1734027 -0.07299233 -0.26238406
000290 c7 17 24 be 78 b6 c5 bc 67 34 28 bf cc 7a 91 be
       -0.16024695 -0.02413486 -0.6570496 -0.28414
0002a0 47 a7 1b bf c1 09 67 be 71 e0 f7 3e e4 51 1c bf
       -0.6080212 -0.22562315 0.48413423 -0.61062455
0002b0 71 7c f2 bd 76 bc a6 be 38 e6 75 bf d8 1a e9 3b
       -0.118401416 -0.3256566 -0.9605441 0.0071137957
0002c0 ec ab 93 be 0c fe 98 bf 01 01 c2 3d 9e 73 8f be
       -0.28842103 -1.1952529 0.09472848 -0.28017896
0002d0 df d7 e0 3e 2d 3c 6b bf 12 25 5f bf a5 b2 09 bc
       0.43914697 -0.91888696 -0.8716594 -0.008404409
0002e0 61 ed c5 bc e2 91 47 bf 91 f2 49 3d d7 8c ec be
       -0.024161043 -0.77956975 0.049303595 -0.46201202
0002f0 69 e0 80 be 2c a5 8c bf 04 77 f7 be 0e 9e 18 bd
       -0.2517121 -1.0987906 -0.4833299 -0.037260108
000300 b9 ac a8 bd f7 6a ab bd 6f f0 65 3e b3 45 87 3e
       -0.08236069 -0.08370011 0.22455 0.26420364
000310 d5 ae 80 bf ca bc 57 be 33 a6 6d 3f 0f 7c 1c be
       -1.0053355 -0.21068111 0.92831725 -0.152817
000320 75 60 fa be ed 0d 04 be d6 37 9e be b8 a6 23 bf
       -0.48901716 -0.12895937 -0.30901974 -0.6392627
000330 22 53 09 bf be 2f 6a bf fa 5e c8 be dd a8 80 3e
       -0.53642476 -0.914791 -0.3913496 0.25128832
000340 49 3c a4 bf 34 38 dd be e5 32 36 bf c0 f3 73 bf
       -1.2830898 -0.43206942 -0.7117141 -0.9529381
000350 8e 7f 57 bf 99 a4 3e bf b9 36 a3 bf dc 13 67 bf
       -0.8417901 -0.74469906 -1.2751075 -0.9026468
000360 0d c1 5c bf f2 94 df 3d e0 c6 95 bf 0b e6 06 bf
       -0.8623207 0.10917081 -1.1701317 -0.5269477
000370 a3 1f 2f bf 8e b6 0a bd 31 c6 3b be 1a 5d 3e bf
       -0.6840765 -0.033865504 -0.18337323 -0.7436081
000380 84 43 31 bf cb ae 99 3d 6e 0c d2 bd bd 5d 42 3e
       -0.69243646 0.07504042 -0.10256277 0.18981071
000390 4c 4f bf 3e 7a 2f 97 bf ce 4e a5 3e 84 b2 98 be
       0.37365186 -1.1811364 0.32286686 -0.29823697
0003a0 7c fb 9b bf 99 91 0f be 95 83 87 be e6 33 ba be
       -1.2186122 -0.14020385 -0.26467577 -0.3636772
0003b0 07 55 28 bf 78 e3 76 be 67 4a 56 be 2d 48 46 bf
       -0.6575474 -0.2411021 -0.2092682 -0.7745388
0003c0 e1 60 a3 be fe 34 a7 3e 90 95 67 bf c4 11 83 bf
       -0.3190985 0.32657617 -0.9046259 -1.0239797
0003d0 8e ff 0d be d5 27 92 bf 07 4e d4 bc fe 16 88 be
       -0.13867018 -1.1418406 -0.025916113 -0.26580042
0003e0 c8 a7 8d bf f3 d0 85 be 0e b0 d5 be b1 bf 5b bf
       -1.1066828 -0.26135978 -0.41735882 -0.8583937
0003f0 cd e3 d5 be 18 01 8c 3b 3d 05 19 be 4f f2 f8 be
       -0.4177536 0.0042725913 -0.14943404 -0.48622367

fc2.weight f4 [300, 404]
000000 be 36 26 3d 9c b3 74 bd 23 d3 1e bd 34 10 f8 3b
       0.04057955 -0.0597416 -0.038775574 0.007570291
000010 41 5f 7f bd da 2a e5 3c b3 58 d3 bc f7 91 1b bd
       -0.0623467 0.027974535 -0.025799131 -0.037981
000020 21 4e d7 3c 33 76 c8 3c 12 da 1d bd 24 05 75 3c
       0.026282372 0.024470424 -0.038538046 0.014954839
000030 b3 29 39 bc ee 33 b7 bd f7 b5 32 bd 76 72 27 3d
       -0.011301446 -0.08945452 -0.043630566 0.040880643
000040 06 bc 76 bd ba db 1a 3d 33 27 4a bd b5 bf 34 3d
       -0.060237907 0.037807204 -0.04935379 0.04412814
000050 f3 ac 15 3d 35 a5 94 3b 7c 65 2d 3c 3d e7 21 bd
       0.03654189 0.004536296 0.010583278 -0.039527167
000060 3c 4c b1 3b 19 f6 19 bd 1a f1 5c 3c ed 41 cf bd
       0.005410699 -0.037588213 0.0134852175 -0.10119996
000070 cb e8 80 bd 15 6c 4b 3b f0 fc 56 bc 19 ba fb 3c
       -0.06294402 0.0031039764 -0.013121828 0.030728387
000080 3f 2d 49 bd 56 a6 a6 bc ad df 72 3c 96 4c dc bd
       -0.049115416 -0.020342987 0.014823836 -0.10756795
000090 9d 69 a1 bd fe 7d a7 bc f2 fd 5a 3d 24 9c f3 3c
       -0.07881472 -0.02044582 0.053464837 0.02973754
0000a0 9d 31 10 3c db 30 50 3c 31 f4 0d 3d e9 d3 9a bc
       0.008800891 0.012706961 0.034656707 -0.018899875
0000b0 4c 05 be 3b 08 fc bc bc 0b 96 03 3c 20 62 5d 3a
       0.0057989713 -0.023069397 0.0080313785 0.0008445103
0000c0 89 24 73 bd 29 78 98 bc 79 c6 68 bd 5a bb e8 3c
       -0.059361015 -0.018611984 -0.056829903 0.028409649
0000d0 79 3d 4b bd 5f 05 a7 bd 37 c4 b2 3c e9 7e 65 bb
       -0.04961917 -0.08155321 0.021822078 -0.0035018271
0000e0 90 3a d2 bb 86 62 25 3c 60 e4 53 bd e4 c6 f6 3a
       -0.0064156726 0.010094291 -0.051731467 0.0018827585
0000f0 9e 27 c8 3c ba 43 41 bc 84 80 0d 3d 58 f5 7d bd
       0.024432953 -0.011795932 0.03454639 -0.062001556
000100 5f a1 b9 bc 34 80 38 bb 95 fe ce bc 4b c8 4d bd
       -0.022659956 -0.0028152587 -0.025267879 -0.050239842
000110 88 4b f5 bc 48 73 ae bb 11 af 10 3d e7 55 a5 bc
       -0.029943243 -0.005323801 0.035323206 -0.020182563
000120 f4 b9 d1 39 98 40 b7 bc b1 44 d4 bc a5 17 13 bd
       0.00040002132 -0.022369668 -0.02591166 -0.03591122
000130 b1 72 3a bb 16 eb a1 bd 35 61 2f 3b 7f 76 92 3c
       -0.002844971 -0.07906167 0.002676082 0.017878769
000140 e3 51 f1 3b f7 3b 97 bd 7a 56 01 bd 98 2c d5 bc
       0.007364498 -0.07384484 -0.03157661 -0.02602224
000150 50 02 79 bd f0 21 9b 3b 7f e0 a7 bd 36 19 da bc
       -0.06079322 0.0047342703 -0.08197116 -0.02662335
000160 f7 3b 23 bd 6e 1a 37 bd 48 74 82 bd b9 fd be bc
       -0.03985211 -0.04470294 -0.06369835 -0.023314344
000170 22 b1 8f 3c 33 5d bf bb f0 fa 2b bc c9 04 e6 bb
       0.017540518 -0.0058399676 -0.01049684 -0.0070196134
000180 6a ff c2 ba 5c 92 48 bd b4 c6 22 3d 03 19 d8 bc
       -0.0014877145 -0.048967704 0.03974028 -0.026379114
000190 4f fa 32 bc f2 09 ba 3c 65 97 07 bd fb 27 5d bc
       -0.010923936 0.02270982 -0.033103365 -0.013498302
0001a0 b4 61 46 bd 68 03 a2 bb bf 2f 67 bd cd c2 a1 bd
       -0.04843302 -0.0049442537 -0.05644202 -0.078984834
0001b0 87 15 49 bd f7 8b 7c bd 51 9a 03 bd f9 48 23 bd
       -0.049092796 -0.06165692 -0.03212959 -0.039864514
0001c0 d8 14 8f bd 77 23 19 3c e8 58 1c bd 5f 5e ae 3c
       -0.069863975 0.009346834 -0.038170725 0.021285234
0001d0 3c 74 3a 3d b9 33 a6 3c 57 1c 7f bd 26 8e b8 3c
       0.045521006 0.020288335 -0.062282886 0.02252872
0001e0 3e 11 0d 3d e5 da 50 bd fc 4b 01 bd 59 a7 2f 3d
       0.03444027 -0.050990004 -0.031566605 0.042884205
0001f0 98 6d aa bd ff 29 a5 bd f5 9d 25 3d 98 3d 5b bd
       -0.083216846 -0.08064651 0.040433843 -0.053525537
000200 fe 9b d5 bc 86 3f 70 bd ff b8 4c 3d 61 5e f5 3c
       -0.02607536 -0.05865433 0.049981114 0.02995223
000210 d8 2f c3 3c bc fd a9 3a 76 99 09 bd bf 3f d5 bc
       0.023826525 0.0012969295 -0.033593617 -0.026031373
000220 1c d7 96 bd de 39 ab bc 54 f9 3e bd af 76 9c bc
       -0.073652476 -0.020901617 -0.046624497 -0.019099561
000230 41 b9 70 bd c9 d5 bc bc 90 0d 88 bd ab 37 8e bc
       -0.058770422 -0.02305116 -0.06643212 -0.017360529
000240 60 dd b5 bb b7 57 0b bd 73 91 de 3c 2c 6d ae 3c
       -0.0055500716 -0.0340192 0.027168965 0.021292292
000250 39 7d ab 3c 15 a0 c3 bd a0 44 83 bc ec 89 04 be
       0.020933734 -0.095520176 -0.016023934 -0.12943238
000260 72 78 24 3c 17 68 27 bd 00 37 16 bd 22 7c cf 3b
       0.010038482 -0.040870752 -0.036673546 0.0063319365
000270 8b cf 93 bd 52 88 4e 3c 8a 99 a2 bd 61 01 7e bd
       -0.0721732 0.0126057435 -0.079394415 -0.062013034
000280 e6 61 e6 bc bf d8 52 3c 31 e4 11 3d ce 84 83 bc
       -0.028122853 0.012869059 0.03561801 -0.016054537
000290 e3 12 3c 3c c1 17 17 3c a9 ce f5 3c f5 90 87 bd
       0.011479112 0.009221972 0.03000577 -0.06619445
0002a0 a3 07 59 bd 48 9c 11 bd 52 9f 38 bb cc 6a 00 3d
       -0.0529858 -0.035549432 -0.0028171134 0.03135185
0002b0 ae 4a 36 3c c9 ff 45 ba fa ad f8 bc ac 8d 92 bc
       0.011126203 -0.00075530686 -0.030356396 -0.01788982
0002c0 5a 15 8c 3c 0f 6c 79 bd 4e 0d c6 bd 82 91 2e 3d
       0.017100025 -0.06089407 -0.096705064 0.042619236
0002d0 4d 40 b7 3c c3 38 dc 39 b7 d0 a3 bc ba 99 0f bd
       0.022369528 0.0004200396 -0.019996984 -0.035058714
0002e0 2e 20 1e bd 6b 94 47 bd ae 80 3e 3c 7b 08 99 3a
       -0.038604908 -0.048725527 0.011627359 0.0011675501
0002f0 a6 1c aa 3b b0 46 19 3d 65 63 6a bd 47 91 6a bc
       0.0051914034 0.03742093 -0.057223696 -0.014316863
000300 ee db 04 bd ab 7a 16 bd 3d 1c 29 3c 43 45 6c bd
       -0.032436304 -0.03673808 0.010321674 -0.05768324
000310 8f 60 8d 3c 9c 71 0c 3d 31 f9 a7 bd 0d 3d 7d bd
       0.017257957 0.034288034 -0.08201826 -0.0618258
000320 13 ec 5e bd 13 6e 80 bd 29 de 1e bd db 7c 3d 3c
       -0.054424357 -0.06270995 -0.038786087 0.011565412
000330 3d 33 df bd 33 91 d0 3c e8 92 1a bd e7 66 be bd
       -0.10898445 0.025459861 -0.037737757 -0.09296971
000340 fa fc 7e 3c ad 13 25 3c bd 23 8c 3c df a9 12 3d
       0.015563244 0.010075492 0.017106885 0.035806533
000350 b3 6f 7f bd 6c af 0b 39 26 e5 3a bd d5 5c 24 bd
       -0.062362384 0.00013321423 -0.04562869 -0.040127594
000360 f0 fa 21 bd 9d 35 84 bc 22 96 25 bc f6 e1 c0 bc
       -0.039545953 -0.016138846 -0.010106595 -0.023545247
000370 54 06 08 bd 29 44 a1 bc d7 36 c3 3c 59 97 8a bd
       -0.03320916 -0.019685822 0.02382986 -0.067671485
000380 8e 40 cd bc 20 68 a3 3a ba e5 c9 bc 0b 2a ff bb
       -0.025055196 0.0012466945 -0.024645675 -0.0077869943
000390 15 46 5f 3b 80 5c d1 bc bc 37 e4 3c ba e5 ea bc
       0.0034068872 -0.025556803 0.027858607 -0.028673995
0003a0 09 b9 ea 3c b4 33 de bc 10 5b 59 bd 00 88 b0 bc
       0.028652685 -0.027124263 -0.05306536 -0.021549225
0003b0 9f 5d df bc 9e 2f 4f bd 49 d4 3b bc 26 e6 02 bc
       -0.027266322 -0.05058252 -0.011464187 -0.007989442
0003c0 ff 39 17 bd b7 24 2b 3c ce 85 14 bd 29 58 ac 3c
       -0.036920544 0.010445765 -0.03626042 0.021038132
0003d0 9c 94 8d bd ac 63 44 bd c1 31 2a bd 13 f0 36 bc
       -0.069131106 -0.047946617 -0.041551355 -0.011165637
0003e0 16 a3 96 3c ec e4 76 bd 2d 5d 97 bd 50 df ea bb
       0.018388312 -0.06027691 -0.07390819 -0.007167734
0003f0 d3 86 c3 3b 60 10 98 bc a9 c5 46 bd 70 0a be bd
       0.005967 -0.018562496 -0.048528347 -0.092793345

fc2.bias f4 [300]
000000 31 ac 86 bd 82 36 c4 bc 22 1d 8f bd ac 5f b4 bd
       -0.06575812 -0.023951773 -0.069879785 -0.088073105
000010 f7 b1 a9 bd e7 11 bd bd e4 af b1 bd 7a 8c 38 bb
       -0.08285897 -0.0923193 -0.086761266 -0.0028159902
000020 c6 3d c6 bd 85 b9 be bd 4a 52 af bd 2e 6b 6c bd
       -0.09679751 -0.09312729 -0.08560617 -0.057719402
000030 d9 66 34 bd 82 ea 4f bd e6 d5 c1 bd 91 ec 95 bc
       -0.044043396 -0.050760753 -0.09464626 -0.01830128
000040 9a 74 7f 3b e6 97 aa 3c 04 3a 5c bd 77 2b f2 bd
       0.0038979412 0.020824384 -0.053766266 -0.118246965
000050 f5 e8 dd bd 60 aa 20 3a 9a 0d c9 3b 54 8a ab 3c
       -0.10835449 0.00061289035 0.0061356546 0.020939983
000060 1c 1c c2 bd 0e 9e 54 bd f7 7e ae bd 2c 72 94 bd
       -0.09478018 -0.051908545 -0.0852031 -0.07248339
000070 e7 ce 09 be fb 98 5c bd 9a 53 4a bd 09 91 ad bc
       -0.13457833 -0.05385683 -0.049396135 -0.021187322
000080 6d a2 bf bd 61 ef e9 bd c7 6e 31 bd 16 5a af bd
       -0.09357152 -0.11422611 -0.043318536 -0.085621044
000090 40 59 74 bd 87 2e d3 bd 3f 99 41 bd ed 97 79 bd
       -0.059655428 -0.10311609 -0.047265287 -0.060935903
0000a0 1a 97 82 bd a8 1d 36 bd 1d 93 97 3f 3a db 49 3b
       -0.063764766 -0.044461876 1.184177 0.0030800835
0000b0 75 10 96 bd fb db ef bb b6 af d2 bd 3d 6a ca bd
       -0.07327358 -0.007319925 -0.102874205 -0.098835446
0000c0 ea 47 a5 bd c7 fc a3 bd b1 b8 7a bd 3b 03 ba bc
       -0.08070357 -0.08007198 -0.06121129 -0.022706619
0000d0 6e b3 b7 bd c1 20 7d bd 0f fd 90 bd b6 19 93 bd
       -0.0896977 -0.061798815 -0.07079517 -0.07182638
0000e0 85 35 98 bd c2 a9 f5 bc 24 9c 2e bb 17 7e 38 bd
       -0.07432083 -0.029988173 -0.002664336 -0.045042124
0000f0 77 30 be bd f2 2e 6c bd 3b 83 b6 3b 2e 80 ec bd
       -0.09286588 -0.057661958 0.005569843 -0.11547886
000100 b6 ac 89 bd 4d eb 82 bd d8 83 1a bd 19 6a 71 bd
       -0.06722395 -0.06392536 -0.037723392 -0.058939073
000110 51 5c c6 bd 20 50 3e bc e2 c1 83 bd 96 26 69 bd
       -0.09685577 -0.011615783 -0.064334646 -0.056921564
000120 2e ef fc bd 5f ac f9 bd ff 69 95 be 48 f0 51 bd
       -0.123503074 -0.1219108 -0.2918243 -0.05125454
000130 9e ab 42 bd a8 17 ab bd 88 d1 82 bd 9d 74 51 bd
       -0.04752695 -0.083541214 -0.06387621 -0.0511366
000140 29 33 73 3e f4 ce 28 bd 2a 3a 05 bd 68 29 34 bd
       0.23749985 -0.04121299 -0.032526173 -0.0439848
000150 46 93 55 bd 39 8b af ba 5a 4b 48 bd e8 6a 8d bc
       -0.052142404 -0.0013392932 -0.048899986 -0.017262891
000160 67 5f d8 bd 6b 51 42 bc c1 b6 c9 bd f6 1e 07 be
       -0.105650716 -0.011860232 -0.09849311 -0.13195404
000170 45 2a b7 bd 56 dd 9d bd ca bb f9 bd ab bb d7 bd
       -0.08943609 -0.07708232 -0.12194021 -0.10533842
000180 56 7a bd bd cd 06 f3 bd 94 0e 4f bd 57 79 41 bd
       -0.09251849 -0.118665315 -0.050551012 -0.04723486
000190 ff f7 02 bd 61 d5 ff bd fc d9 c1 bd 6d aa 2a bd
       -0.03197479 -0.12491871 -0.09465405 -0.041666437
0001a0 04 de ec 3e ef 1f 5b bd 94 3b 74 bd fc d8 d1 bd
       0.46263134 -0.05349725 -0.05962713 -0.102464646
0001b0 a8 61 77 be 9a 3e d3 bd 4d 3f 80 bc b9 d0 92 bb
       -0.24158347 -0.10314675 -0.015655184 -0.004480448
0001c0 23 6a 97 bd 2c ca 67 bb 60 d3 83 bd 24 9c fb bd
       -0.07393291 -0.0035368307 -0.06436801 -0.12285641
0001d0 68 7c eb bc 50 27 17 bd 36 47 39 bd ac 21 be bd
       -0.028745845 -0.036902726 -0.045233928 -0.09283766
0001e0 e2 1a 88 bd 01 49 8e bd a4 77 fd bc bf 0e e0 bd
       -0.066457525 -0.06947518 -0.030940838 -0.109403126
0001f0 c7 a9 c1 bd 55 74 d2 bd 60 fe db bc c5 95 f4 bd
       -0.094562106 -0.10276095 -0.026854694 -0.11942629
000200 55 ba 85 bd 9c f6 6c bd ba 9c 7d bd 86 f2 e6 bc
       -0.06529681 -0.057852373 -0.061917044 -0.028191816
000210 70 97 47 bd 4a 0d 38 bd 5d 22 9a bd 08 f5 6d bd
       -0.048728406 -0.04493455 -0.075260855 -0.058095008
000220 66 a9 b3 bd 0e 31 a7 bd bd 03 bf bd 02 53 38 3e
       -0.087725446 -0.08163653 -0.09326885 0.18000415
000230 ba 02 e8 bd bd 70 7a bd 7d 56 4f bd ea ae 2c bd
       -0.11328645 -0.06114267 -0.05061959 -0.042159
000240 d5 66 81 3b 86 57 b4 bd db 51 b3 bd 3a de c7 bd
       0.003949026 -0.08805756 -0.08755847 -0.09759183
000250 0f 19 d0 be 2f 98 b2 bd c9 c1 54 bd 98 20 a0 bd
       -0.40644118 -0.08720433 -0.05194262 -0.07818717
000260 be c5 7f bd 17 68 92 bd 62 ae 79 bd 6a e2 e1 bd
       -0.06244444 -0.0714876 -0.06095732 -0.11029513
000270 e2 f9 bb bd 7d 52 bb be 84 a7 c4 bd e0 a4 d7 bd
       -0.09178521 -0.3658637 -0.096022636 -0.10529494
000280 9b 2c 0e bc eb 62 76 bd 0f b7 95 bd f6 60 ba bd
       -0.008677627 -0.06015293 -0.07310306 -0.09100525
000290 4c c0 c0 bd 78 cc f5 bc 8e 97 ba bd 73 92 67 bd
       -0.09411678 -0.030004725 -0.09110938 -0.05653615
0002a0 2a 88 a7 bd 8c 14 4a bd 45 4a ca bd 4d 14 79 bc
       -0.08180268 -0.049336 -0.09877447 -0.015202594
0002b0 4c 18 5d bd 46 00 e3 bc 71 4b 14 3c cb 1b 5a bd
       -0.05397825 -0.027710091 0.00905119 -0.05324916
0002c0 01 4c ba bc 40 c3 c0 bd 95 f7 0e bd d8 ff a4 bd
       -0.02274132 -0.09412241 -0.03490408 -0.08056611
0002d0 8f a9 19 bd 17 3b 0d be 7f 3e d4 bd cd 9c 4b bd
       -0.03751522 -0.13792072 -0.10363483 -0.049710084
0002e0 87 79 2f bd c0 9c 3a ba 47 55 ac bc a9 02 87 bd
       -0.042840507 -0.00071186945 -0.021036757 -0.06592304
0002f0 c2 b9 74 3c e5 8d 6e bc 89 46 d8 bd 81 6e 56 bd
       0.014936866 -0.0145601975 -0.105603285 -0.05235148
000300 63 d9 42 3f 17 8c 63 3d 42 3b 7b bd 9b 48 2a bd
       0.76112956 0.055553522 -0.06133581 -0.04157315
000310 24 70 d6 bd 49 b0 ed bd 13 d2 91 bd dd bf b9 bc
       -0.10470608 -0.11605889 -0.071201466 -0.022674495
000320 0d 8c 2d bd de c7 03 be 96 75 33 bd f2 3f 8f 3e
       -0.04236989 -0.12869212 -0.04381331 0.27978474
000330 d8 0d 67 bd f6 85 a0 bd 84 5a 00 be 42 ed 3b bd
       -0.056409687 -0.07838051 -0.12534529 -0.045880564
000340 b0 95 db bd 74 12 13 bc ba 36 b8 3f ca 57 2c bd
       -0.1072191 -0.008976568 1.4391701 -0.04207591
000350 b2 22 c4 bd 48 f7 a5 bd 3e f6 bd bd 46 5f f6 bc
       -0.0957693 -0.08103806 -0.092754826 -0.030074727
000360 5f 13 71 bc fb 3e 10 3b c2 0c eb bd b3 19 2d bc
       -0.014714091 0.0022010196 -0.11477043 -0.010565209
000370 89 29 eb bd 07 14 5f bd ec 9f be 3c ef b8 9e bc
       -0.114825316 -0.05446246 0.023269616 -0.019375293
000380 8b d3 cb bd 33 4f 78 bc 0d a7 24 bd 4e 2f f3 bc
       -0.09952458 -0.015155601 -0.040198375 -0.029685643
000390 cb db 6e be 9e cc 32 bc 87 f5 a6 bc 3e 8c e1 bd
       -0.23326032 -0.010913042 -0.020380748 -0.11013077
0003a0 be cb 14 3c 8b 78 22 bd 71 56 95 bd 6e 42 9a bd
       0.009081779 -0.03966574 -0.07291878 -0.07532202
0003b0 b3 54 45 bd 48 ed 4f bd 20 2d 96 bd 34 06 b3 bd
       -0.04817648 -0.0507634 -0.07332826 -0.087414175
0003c0 b1 a8 2a bd d7 0e 54 bd 73 c7 91 bd 83 ae 95 bd
       -0.041664783 -0.051771965 -0.0711812 -0.07308676
0003d0 c1 cb 18 bc 57 bb be bd 39 af 93 bd 89 b8 76 bd
       -0.0093259225 -0.09313076 -0.072111554 -0.06023458
0003e0 b1 1f 09 bd 1d 2e 88 bd 44 f5 89 bd 74 12 96 bd
       -0.03347749 -0.066494204 -0.06736234 -0.073277384
0003f0 bc fe a9 3d 80 ba 82 bd 79 c8 2d bc 21 55 9a bd
       0.0830054 -0.06383228 -0.010606878 -0.07535768

fc3.weight f4 [1, 300]
000000 7b 20 48 bc b6 0e 9c bb 9c 81 7e 3c a3 09 c3 bc
       -0.012214775 -0.004762496 0.015533831 -0.023808306
000010 12 83 a7 3b c7 02 e4 3c b1 45 ec 3b b8 fe af bc
       0.0051120603 0.027833356 0.0072104563 -0.021483764
000020 c1 74 4a 3a 9f e8 c5 ba e0 b2 10 bc 2c 3e a0 bb
       0.0007723086 -0.0015099234 -0.00883171 -0.004890224
000030 7c 97 19 3c 7f 4d 8c 3c f7 ad 31 3c bb b8 b5 3b
       0.009374496 0.017126797 0.010844699 0.005545703
000040 9a ed 87 3c 58 52 4c ba f6 38 c5 ba 94 c3 72 3b
       0.01659279 -0.00077942526 -0.0015046883 0.0037042843
000050 3a 70 6d 3c c4 f0 83 3b 0a ce ea bb 5b 62 64 3c
       0.014492089 0.0040265042 -0.007165675 0.013939465
000060 0e 91 20 3c 0f 21 a0 bc 5e fc 8f bc a7 44 e4 b8
       0.009800209 -0.019547014 -0.017576393 -0.00010884675
000070 65 09 8d bc ba 5c d3 3b 40 c0 55 bc 6d 94 d4 3b
       -0.017216394 0.006450263 -0.013046324 0.0064874203
000080 21 50 bf bc 07 ac b6 bb 2b 48 bb 3c 12 29 54 3c
       -0.023353638 -0.0055747065 0.02286156 0.012949245
000090 33 76 df bb 56 79 e4 bb e3 11 72 bc ea 9d f2 3c
       -0.0068195104 -0.006972472 -0.014774772 0.029616315
0000a0 65 51 63 3b 4c e9 f7 3a eb f2 81 bc 5e ac f7 bc
       0.0034685966 0.0018914132 -0.015862903 -0.030233558
0000b0 70 05 3a ba fc ad 68 bb d2 4c e4 bc 8c b4 ff bc
       -0.0007096147 -0.0035504093 -0.027868662 -0.031214021
0000c0 d3 51 71 bb ee d3 a2 bc 8d 32 70 bc 2d 57 f4 bb
       -0.0036822453 -0.019876447 -0.01466049 -0.007456681
0000d0 35 51 3e bc 97 05 b1 bc 2a 17 c3 3c 8a a1 2f bb
       -0.011616041 -0.02160911 0.023814756 -0.0026799166
0000e0 cc c1 90 bc 4b ce 72 bc 5d b7 fe bb b4 7d cb 3b
       -0.017670535 -0.014819692 -0.0077733235 0.0062100533
0000f0 44 5d ad 3c 2a a4 3a 3c 3d 72 3b 3c 1a 8b 24 bc
       0.021162637 0.011391679 0.011440811 -0.01004293
000100 5b ab ba bc d9 d3 f3 3b 83 4e 37 3c ca 86 bb bc
       -0.022786787 0.0074410257 0.011188152 -0.02289142
000110 fa 77 80 bb 28 2b 93 3c 7b 89 d4 bc f8 0a 50 3c
       -0.0039205523 0.017964914 -0.025944462 0.012697928
000120 47 2f 55 39 00 3b d7 bb b5 3a 4d bc 64 ce 80 3b
       0.00020330875 -0.0065683126 -0.012526204 0.0039308537
000130 5b 27 7c 3c 62 88 d5 bc 50 50 17 3c 25 3d 96 3c
       0.015390242 -0.026066009 0.009235457 0.018339703
000140 e7 57 f9 3b e4 ac a0 3c 01 e8 c7 3c 5f aa be 3c
       0.0076093557 0.01961369 0.02440262 0.023274599
000150 ad 68 83 bc 28 36 c4 bc 75 5c 5f 39 f0 51 0a 3c
       -0.016041124 -0.023951605 0.0002130138 0.008442387
000160 c2 ec c9 bc 71 1a de bc a5 28 9f 3c 29 ee 1d 3c
       -0.024649028 -0.027112218 0.01942856 0.009639301
000170 97 26 b6 bc 80 32 b9 bb 9f 0a da 3c 70 31 df 3b
       -0.022235198 -0.005651772 0.026616393 0.0068113133
000180 21 99 0a bc fd 77 65 bc 07 79 d1 3c 2c 4c 92 bc
       -0.00845936 -0.014005658 0.025570406 -0.017858587
000190 58 e2 17 bc b5 43 68 3c 31 f0 b9 3b 21 87 41 bc
       -0.009270273 0.014176299 0.005674385 -0.011812002
0001a0 00 95 2d 3d 58 9f d6 bc 8a 7a 49 bb 36 01 3f 3a
       0.042378426 -0.026199028 -0.0030743205 0.0007286252
0001b0 8d 9d 7d bc b1 1f 34 bc cf 3e cf bb 15 bb 50 bc
       -0.015479458 -0.010993884 -0.006324626 -0.012739916
0001c0 91 22 3b 3c af 0c 73 3c 66 26 2a 3d fa 46 ad b9
       0.0114218155 0.014834567 0.041540526 -0.00033050013
0001d0 a1 4d 8a 3b 1c bc 0e bc 8e 0f 03 b9 1e 30 87 bc
       0.00422068 -0.008711841 -0.00012498928 -0.016502436
0001e0 6b 51 90 3c 93 a4 89 bc ac 67 50 bc 01 e1 a5 bc
       0.017616948 -0.016802108 -0.01272003 -0.020248892
0001f0 a9 64 8f bc 5d 65 9b bc 7e 34 bc 3c 33 da 14 3c
       -0.017504053 -0.018969232 0.022974249 0.009085226
000200 d4 b6 c5 bc 16 0b 32 ba fb 3f 3b 3c 9d d1 bd 3b
       -0.02413503 -0.0006791813 0.011428828 0.00579281
000210 22 cb ba bc c9 81 7c 3b dc ea 85 bc c5 46 db bc
       -0.02280194 0.0038529506 -0.016347341 -0.026767144
000220 4b 12 1d bc b9 12 1e bc 0f ed b7 3c 94 70 06 bc
       -0.009586881 -0.0096480185 0.022451906 -0.008205552
000230 1e 99 bf 3c 08 52 fb bb 12 55 a7 bc f4 07 9f bc
       0.023388442 -0.007669691 -0.020426307 -0.019412972
000240 d3 54 45 bc d5 f8 ac 3b c9 d0 85 bc 46 e6 85 3b
       -0.012044149 0.0052786865 -0.016334908 0.0040862886
000250 b3 35 18 bc c2 11 9d bb af 5f 9e 3c 45 57 cc bb
       -0.009290147 -0.0047933767 0.019332735 -0.0062359893
000260 dd 57 ba 3b fa e5 7e bb e6 63 60 3a 5c b4 7a bc
       0.0056867437 -0.00388944 0.0008559808 -0.01530179
000270 e6 4e a9 3c db 2e 0a 3b 2e 1e fe ba 8a 1f c3 bb
       0.020667505 0.0021085057 -0.0019387656 -0.0059546875
000280 18 fb 7d 3c 84 3e 9a 39 df da f9 3c 05 2e 9d bc
       0.01550176 0.00029419747 0.030499874 -0.019186983
000290 85 a9 4e 3c 28 61 8b 3c 6f c6 aa 3c ee 1b e2 bb
       0.012613659 0.017014101 0.020846574 -0.006900302
0002a0 74 e6 a2 3b 0e 26 d6 3c ad a7 ed 3a fd d2 8d 3c
       0.00497132 0.026141193 0.0018131636 0.017312521
0002b0 5b 03 fa bc 81 3b 49 bc c0 87 97 3b 88 73 ec 3b
       -0.030519178 -0.012282253 0.004624337 0.007215921
0002c0 2f 94 87 ba 21 95 a6 bb 6d 58 4b 3b e4 33 98 bb
       -0.0010343845 -0.0050836955 0.0031028048 -0.0046448577
0002d0 f5 6e 3b ba 34 dc b5 3c ca df 22 3c f9 8d 9b bb
       -0.0007150018 0.022199728 0.009941051 -0.004747149
0002e0 0e 5e 23 bc e0 b9 7d bc 38 18 12 3c bd 99 06 bc
       -0.009971155 -0.015486211 0.008916907 -0.008215365
0002f0 c6 78 0b bb ba 43 da bc b7 6b c0 bc 70 22 dd bc
       -0.0021281703 -0.026643623 -0.023488862 -0.02699396
000300 b5 41 0c bc f2 2a d6 3b 1b 38 84 3c 9f bf 9e 3c
       -0.008560588 0.006535881 0.016140034 0.019378481
000310 d2 17 e0 bc 0d 20 be 3b c7 86 54 bb a1 f5 0c 3c
       -0.027355108 0.0058021606 -0.0032428966 0.008603484
000320 07 89 17 bd 17 52 b8 bc 72 80 82 bc ee cb 64 bc
       -0.036995914 -0.022500081 -0.015930388 -0.013964636
000330 d1 77 be 3c df 02 96 3c 39 99 47 3c 71 94 90 bc
       0.023250492 0.018311916 0.012182527 -0.017648907
000340 8e 23 98 bc af 19 5a ba d9 ae 30 bc b3 cc bb bc
       -0.018571641 -0.0008319867 -0.010783874 -0.022924757
000350 2a e1 9f bc e6 53 c8 bb 83 4c c7 3a cd 1b 13 bc
       -0.019516546 -0.006113517 0.0015205297 -0.008978796
000360 aa 62 b4 3c 2b 68 c1 bb 26 d7 22 bc 64 46 3e bc
       0.022019703 -0.0059023104 -0.009938991 -0.011613462
000370 49 55 16 3c 29 d4 00 3c ae b3 0d bb a4 dc be bc
       0.009175607 0.007863083 -0.002162199 -0.023298569
000380 03 2e 11 bc f4 ba 80 bb 18 86 a1 bb b7 5c 09 3c
       -0.008861068 -0.0039285365 -0.0049293153 0.008383921
000390 02 eb 87 bc 96 18 61 3c f1 d7 51 bc ec 5f 84 bc
       -0.016591553 0.013738772 -0.012807832 -0.01615902
0003a0 b4 79 5f 3c 81 bc e3 3b 8e 81 66 bc e9 5b b7 3c
       0.013639856 0.0069499617 -0.014068974 0.022382693
0003b0 db 9b ba bb 65 24 77 3b b9 8b c4 3c 1a 25 ae bc
       -0.005694849 0.0037710902 0.023992406 -0.021257926
0003c0 1f ee 2d 3c 33 d2 e5 3c 33 27 56 bb f6 f4 78 bc
       0.0106158545 0.028054332 -0.0032677173 -0.015195122
0003d0 27 48 0a bd a6 4e b2 3c 00 4d d3 bc b0 62 ce 3c
       -0.033760216 0.021766018 -0.025793552 0.025193542
0003e0 aa c5 66 3c ac 53 38 3c f9 bd af 3c ac 61 0f 3c
       0.014085213 0.011250418 0.02145289 0.008751314
0003f0 51 d0 e6 3b f0 ee b0 bb 7d d2 32 3b 8d 37 96 3c
       0.007043876 -0.0053995773 0.0027286105 0.018337036
