saved_agents/critic_target_1.pth (torch_old, 566674 bytes, 5 tensors)

fcs1.weight f4 [400, 48]
00000000: 4165 453e 1291 d83d 498e 50bd 827d db3c
00000010: 6f16 bcbb 01f4 dabd aaab d53b 2130 c53b
00000020: 036d e43d 4df5 0e3d 6692 22bd 8fc6 b43c
00000030: 1b26 6b3d 7ea9 2abe 0e8c 923c e57d 82bc
00000040: 4693 193e 1a7f d83d 6398 ef3c 75b6 163c
00000050: 7e7e 143d a9aa d1bd d602 a9bc ce9f 96bd
00000060: fc2c fa3d ffda a83d 5520 093c eefa 183d
00000070: c504 05bc e79e 3bbe 5355 fcbc 2f06 2d3d
00000080: 9e31 193e b9dd cf3d 0cc6 80bc 6503 0c3b
00000090: 5beb e0bc 1522 10be d405 83bc f6b4 a9bc
000000a0: de69 193e 0d85 0f3d 1343 febb 3a6b e0bc
000000b0: ad17 0fbc f71c babd 0d31 843a bbb2 eb3c
000000c0: f4ed fa3e 8699 193f a8d6 39bd 280a c0be
000000d0: ad19 973d d66e 17bf 2a9e d1bd cdd2 9abe
000000e0: 673a 203f 5024 353f 4a5c 50bc 14a2 033f
000000f0: 0436 023e 2524 12bf e7bd 21bc bcbe 023f
00000100: 3068 3e3f 68d7 3c3f 0977 d73a 9d50 183e
00000110: 146b 083e 1072 c0be 6ddf 0ebb 1492 0e3e
00000120: bd9b 0c3f 150c 033f 404f 38bd 793d 58be
00000130: ea24 60bd c6f1 1cbf 9570 05bd 208e 46be
00000140: 90f2 353f 56c0 183f 16ba 18bd 0732 243e
00000150: 2233 eabd 648b 06bf d80b b4bd cfa5 ae3d
00000160: 8158 443f 7c0c f53e 9852 bcbd d855 303e
00000170: 3f1c 34be 377f b3be 7ad2 d4bd ca77 da3d
00000180: 6472 4c3e 5761 80be 1355 073d 7af8 a9bd
00000190: 9f94 123f 3570 c83c 22ee 9c3c a827 30bd
000001a0: 36b1 a63e 129b dcbe 4acc 29bd 4a54 783d
000001b0: 2b7e d53e ae99 1ebe 82ad ccbc d4b1 213d
000001c0: 8f8f 903e 60e1 cbbe 0577 463d 6afc 91bd
000001d0: 8d41 a2bd e306 a6be 9393 91bb 40bd aabd
000001e0: 23fd 493e c941 1fbe a8dc 29bd 073e 1e3e
000001f0: 989a 15bf 72bc fa3d 1f8d dbba 52b2 573e
00000200: 7f58 683e dee6 46be 2b83 9fbd 520d b03b
00000210: 11a1 b6be d5d4 5dbe 639f a5bd d1a2 023c
00000220: 2099 ca3e 8058 2bbe 7722 97bd 21aa f53e
00000230: 7928 613c fa46 93be d295 b0bd 15dd fd3e
00000240: 998d 473e 3c54 81bd c6c8 27bc c572 943d
00000250: 6c4c 81bc ae01 1bbe 124a e8bc 8cec 043e
00000260: ec1d 763e 86bc 28bd 4aba ea3c 9cf5 093d
00000270: 4487 02bd e7c1 31be 407a b5bc 8acd ec3c
00000280: 3dbb 8d3e 01a5 ca3c bdb0 95bc ebda 7c3d
00000290: 1283 6bbc 4a60 e0bd 1733 a23b 6588 933d
000002a0: ce6d 163e aeed 153d 04bc 0dbd 452d 11bd
000002b0: 603d c83b 993a 40be 4a8e d03b 9ff3 33bd
000002c0: 5cea 753e 3d25 8d3d 3606 aabb 0a73 60ba
000002d0: 5aca 59bd 9dec 17be 478f 3bbd c55f 93bc
000002e0: edd5 813e 8337 6f3b 5327 f3bb f0b4 c5bb
000002f0: df3f 00bd c476 0bbe 6980 d7bc e374 f7bb
00000300: 1d52 073f fff7 603e 0645 973d acaf 68be
00000310: 06dd 25bf 6ea6 bcbe 45c4 47ba 62ec 37be
00000320: b73b 463f b51d 7c3e 8d13 2a3d 0cc4 09bf
00000330: 171b c0be c9a0 74bd a6f5 523d a311 edbe
00000340: 2903 583f c7a7 38be 0657 7f3d 7c08 7abe
00000350: faf1 923e da4c f33e c2ea 033d 88ba 72be
00000360: a64f 05be b9d2 3ebf b28c 143d 5c36 13be
00000370: eddd 233f 89b3 c9be 3054 bebc e02e d3bd
00000380: 3bfa da3d 9931 18bf f9ee 01bd e8c5 01bd
00000390: 797a ae3e 60b7 8abd 2287 93bd 7353 c7bd
000003a0: ad3d 803e 8a4a 11bf 03b6 7abb 52db b83d
000003b0: 5c13 90be 5405 ca3e 6f49 323d c441 d23d
000003c0: 672e 623c f472 3e3f 9add 80bd df5c 313e
000003d0: 7425 a23d 84b2 30bf 574e 9dbd 9750 b63d
000003e0: dd9d c43d 88b6 843f 3eb0 503c 5e2c 603e
000003f0: 903a c73c fa97 75bf 544c 873c 4cec 2d3e
0.19276907 0.10574545 -0.050916944 0.026793245 -0.005739979 -0.10691071 0.006520708 0.0060177003
0.11153605 0.034901906 -0.039690398 0.022067336 0.057409387 -0.16666219 0.017889049 -0.015929172
0.14997587 0.10571118 0.029247468 0.009198775 0.036253445 -0.10237629 -0.020631235 -0.07354699
0.12215611 0.08244895 0.008369525 0.03734868 -0.008118813 -0.18322335 -0.030802405 0.042242225
0.14960334 0.10149712 -0.015719436 0.0021364328 -0.027455976 -0.14075501 -0.01599399 -0.020716172
0.14981791 0.035038996 -0.0077594607 -0.02739488 -0.008733672 -0.09087556 0.0010085419 0.028771749
0.4900967 0.59999883 -0.045370728 -0.3750775 0.07377944 -0.591535 -0.102352455 -0.30238953
0.62589115 0.70758533 -0.012717316 0.51419187 0.12715918 -0.570864 -0.009871936 0.5107229
0.7437773 0.73766184 0.0016438673 0.14874502 0.13322097 -0.37587023 -0.0021800653 0.13922912
0.5492514 0.5119031 -0.044997454 -0.211172 -0.054722704 -0.61306417 -0.03257807 -0.19390154
0.71073246 0.5966848 -0.03728684 0.16034709 -0.11435534 -0.52556443 -0.087913215 0.08527719
0.76697546 0.47861087 -0.09195441 0.17220247 -0.175889 -0.35057995 -0.10391708 0.10667379
0.19965512 -0.25074264 0.033040117 -0.08299346 0.5725803 0.024467567 0.01915652 -0.04300657
0.32557076 -0.4308706 -0.04145459 0.06062726 0.4169782 -0.15488312 -0.024985079 0.03947623
0.28234527 -0.39820385 0.04845335 -0.07128222 -0.07922659 -0.3242713 -0.004442641 -0.08336878
0.1972547 -0.15552439 -0.0414702 0.15453349 -0.58439016 0.12242974 -0.0016750431 0.21064118
0.22690009 -0.19424006 -0.0778869 0.0053726817 -0.3566976 -0.2166322 -0.08087041 0.007973389
0.3956995 -0.16732979 -0.073796205 0.4798136 0.01374256 -0.28765088 -0.08622326 0.49582735
0.19487609 -0.063148946 -0.010240739 0.07248453 -0.015783511 -0.1513736 -0.028355632 0.1298086
0.24034852 -0.041195415 0.028653283 0.033681497 -0.03186728 -0.17359124 -0.02215302 0.028906602
0.27681914 0.024736883 -0.018272752 0.061732214 -0.014374511 -0.10955866 0.004949938 0.072037496
0.14690325 0.036603622 -0.034603134 -0.035443563 0.006110832 -0.18772353 0.0063646184 -0.043933507
0.24015182 0.06891868 -0.0051887287 -0.0008562064 -0.053171493 -0.14836355 -0.045790937 -0.017990002
0.25358525 0.0036501593 -0.0074204593 -0.0060335323 -0.031310912 -0.13619524 -0.026306348 -0.007551776
0.5285967 0.21969603 0.07386212 -0.22723264 -0.6479038 -0.36845726 -0.0007620494 -0.17961267
0.7743487 0.24620707 0.04152255 -0.5381477 -0.37520668 -0.05972365 0.0515038 -0.46302518
0.8437982 -0.18032752 0.06233885 -0.24417299 0.28700238 0.4751957 0.032206304 -0.23703969
-0.13018665 -0.7454029 0.03626699 -0.14376205 0.64010507 -0.39394787 -0.023233503 -0.10311675
0.10692259 -0.5945068 -0.031722043 -0.03168288 0.34077814 -0.06773257 -0.07203509 -0.097327136
0.25047055 -0.5675436 -0.003825546 0.09026207 -0.2813977 0.3945719 0.043527063 0.1026645
0.0138050085 0.74394155 -0.06292267 0.17320584 0.079173 -0.69022393 -0.07680958 0.0890209
0.096004225 1.0368204 0.012737332 0.21891925 0.024319917 -0.9593502 0.016515888 0.16984671

fcs1.bias f4 [400]
00000000: 0b84 723c 9ed4 1bbf 0563 44bf 9037 b7be
00000010: bcc2 28bf 87ad 4fbf 3061 0a3e bda0 07bf
00000020: 68dd b0bf 985f 3ebf 970d 2abf 5cc5 b2be
00000030: 0260 093e e40b d7be 94dc bb3e 7cd4 f5bd
00000040: 27ba abbd 65f9 b13e 5d90 04be a414 94be
00000050: 456a 0bbe 0dce 07bf 7d85 9ebf d90e 3dbf
00000060: aeaf a3be 6e89 14bf f241 7cbe 9185 0d3f
00000070: 45e8 9ebe 8b98 90bf 4da9 0abe 455e 89be
00000080: 06ac 233d b1b7 e2bd 9178 c1bf 2d6f 05bf
00000090: f4a3 55bf a7e8 41bf 1065 bebe 7dc4 f8be
000000a0: 4c08 08bf fd0e da3e 381e 51be 25c2 00be
000000b0: 10cb 95bf 199d 61bf 613c 44bf ce31 afbe
000000c0: ca9b 54be c066 b2be acef d63e 13c0 e5be
000000d0: bdef e73e feae 1bbf 543d 87bf 739b a5bf
000000e0: 3779 79c0 40cd bcbd e27f 58bf eb9d c93e
000000f0: 7dda 7ebf ad4c 82bd 44fd ffbc efb9 a7be
00000100: 0625 f7be 6608 06bf abf2 bbbe e057 35be
00000110: 5603 f1be 8e9b 1ebf 5bc6 62be 3037 74bf
00000120: 7f5c 22be c63b 99be e5a4 a83e c1f9 4abf
00000130: 94b8 60bf 6c50 c53c db92 863d f979 febd
00000140: ca2f a53d 64bf 9cbe 0fb9 a4bf c426 77bc
00000150: cc89 f0bc 58e0 51bf cc9e 49bf 71f6 03bf
00000160: ae58 8bbf c9a6 40bf 8f02 c63e 6d58 9e3e
00000170: 1510 9a3e 1767 aabe 6600 39bf 67a0 a8be
00000180: 61d1 83bf 944e 82bf 2dc9 80bf ebf7 34bf
00000190: a69e 633e d60b 9bbe 6761 b6bd 6594 683f
000001a0: b755 5bbf dd9a 6fbf ce6c 92be 0c29 4dbf
000001b0: 4a36 5fbf 842e 7dbf c5a7 87bf baad 963e
000001c0: 2ca2 7abf a0a0 14bf 239a 953e 55c9 8fbf
000001d0: b029 5abf f762 a6bd 86d9 1fbf e1e6 cbbd
000001e0: 7cd4 9ebf d1a8 993c 7781 a3bd e05c b0bd
000001f0: c5ba acbf 993f 7fbf d202 93be 5641 45bf
00000200: d6a0 db3d 0831 dd3d b7c6 a5be 271c dbbe
00000210: a131 cbbd f59e 83be a705 31bf 01b7 35bf
00000220: a5ad 413f 00ad b8bd 0d76 f4be 1980 02bf
00000230: 519b 3a3f eacd 04bf b258 e6be 4e95 27be
00000240: 4df6 55bf f7ea 44be f780 21be e37a 91bf
00000250: c0e6 7dbf 1de1 18bf a513 343d a25e b23e
00000260: fcba 75bf 403b d4be a3a7 61be ffdf 91bf
00000270: 6aee bcbe 3329 993e daaf 9dbe 17cf 21bf
00000280: 70e0 8ebf 4cd7 95bf 667c 95bd d361 8abe
00000290: 8d64 22be e53f cabc 7e0b 28bf 9e7a 91be
000002a0: e967 1cbf c309 67be b806 fa3e e61a 1bbf
000002b0: 8c71 f3bd 5e18 a4be ace5 75bf c50c 43ba
000002c0: 8eab 93be 7f66 98bf a2ed c83d 1573 8fbe
000002d0: 9293 e03e 72bb 6abf fea4 5ebf 6db2 09bc
000002e0: 31ed c5bc 9367 47bf a58f 3e3d 3088 ebbe
000002f0: 6f2a 84be 901b 8cbf bb9f f6be f69d 18bd
00000300: 1fac a8bd 776a abbd 0678 663e db2e 873e
00000310: de04 80bf 92bc 57be 3f4e 6d3f ce7b 1cbe
00000320: ddf4 f8be e50d 04be 08f9 9cbe d0d7 24bf
00000330: 51f3 07bf e17f 6abf f95e c8be 1e35 813e
00000340: 16bb a3bf 87a4 dbbe 81d8 35bf a7d6 74bf
00000350: b300 56bf 5540 3dbf 6ecc a1bf 422e 68bf
00000360: f1b9 5cbf 2995 df3d a3d9 95bf 3fd4 06bf
00000370: 9fbe 2ebf 95b6 0abd f8c5 3bbe 6729 3ebf
00000380: bb7f 31bf f6a1 933d 520c d2bd 6df1 453e
00000390: 184d c03e fd1d 97bf df43 a73e 46b2 98be
000003a0: 6051 9bbf 77f5 11be 15f4 86be d136 b7be
000003b0: df60 27bf 3c5e 7cbe 424a 56be 32b1 45bf
000003c0: a760 a3be 04a9 a53e 85c6 66bf 1520 83bf
000003d0: 35ff 0dbe 1a52 92bf aa4d d4bc b516 88be
000003e0: b5a7 8dbf add0 85be 3403 d7be 25db 5bbf
000003f0: c7f2 d4be d401 8c3b 1605 19be e11a f6be
0.014801989 -0.60871303 -0.7671359 -0.35784578 -0.6592214 -0.81124157 0.13513637 -0.5297964
-1.3817568 -0.74364614 -0.66426986 -0.34916198 0.1341553 -0.4200126 0.36691725 -0.12003419
-0.08385115 0.34760585 -0.12945695 -0.28921998 -0.13614757 -0.53048784 -1.2384487 -0.7385078
-0.3196997 -0.580222 -0.24634531 0.5528193 -0.31036583 -1.1296552 -0.13541146 -0.26829734
0.039958976 -0.110701926 -1.5114919 -0.52122766 -0.834533 -0.75745624 -0.3718648 -0.4858741
-0.5313766 0.4258956 -0.20421684 -0.1257406 -1.1702595 -0.88130337 -0.7665463 -0.34217685
-0.20762554 -0.34844017 0.4197973 -0.44873103 0.45300093 -0.6081389 -1.0565591 -1.2938064
-3.8980234 -0.09218836 -0.84570134 0.39378294 -0.99552137 -0.06362281 -0.031248696 -0.32759044
-0.48270434 -0.52356565 -0.36708578 -0.17709303 -0.47072858 -0.6195611 -0.22145979 -0.9539671
-0.15855597 -0.29928416 0.32938305 -0.79287344 -0.87781644 0.0240862 0.06570979 -0.12425608
0.08065756 -0.3061477 -1.2868975 -0.015084926 -0.029362582 -0.81982946 -0.7875793 -0.51547915
-1.0886438 -0.75254494 0.38673827 0.3092684 0.30090395 -0.33281776 -0.7226623 -0.32934877
-1.0298272 -1.018023 -1.0061394 -0.7069079 0.22228488 -0.30282468 -0.08905297 0.9085143
-0.85677665 -0.9359568 -0.28598636 -0.8014076 -0.87192214 -0.988991 -1.0598074 0.29429418
-0.97903705 -0.58057594 0.2921916 -1.1233317 -0.8521986 -0.08124345 -0.6244129 -0.09956146
-1.2408595 0.018757256 -0.07983678 -0.086114645 -1.3494498 -0.9970642 -0.2871309 -0.7705282
0.107240364 0.108003676 -0.3237817 -0.42794916 -0.09921575 -0.25707212 -0.6914925 -0.70982367
0.75655586 -0.09017372 -0.47746316 -0.5097671 0.72893244 -0.518767 -0.44989544 -0.16365549
-0.8357895 -0.19230257 -0.15771852 -1.1365627 -0.9918022 -0.59718496 0.043964047 0.34837824
-0.9598844 -0.41451454 -0.22036605 -1.1396483 -0.36900645 0.29914245 -0.30798227 -0.6320662
-1.1162243 -1.1706328 -0.07299118 -0.2702776 -0.1585867 -0.02468867 -0.65642536 -0.28413862
-0.61096054 -0.22562318 0.4883325 -0.6058792 -0.11886892 -0.3204984 -0.96053576 -0.00074405625
-0.28841823 -1.1906279 0.0981095 -0.28017488 0.43862587 -0.9169227 -0.8697051 -0.008404356
-0.024160953 -0.77892417 0.04652371 -0.4600234 -0.25813624 -1.0945911 -0.4816874 -0.03726002
-0.082359545 -0.08369916 0.22506723 0.26402935 -1.0001485 -0.21068028 0.9269752 -0.15281603
-0.48624316 -0.12895925 -0.30658746 -0.64391804 -0.53105646 -0.9160138 -0.39134958 0.25235838
-1.2791469 -0.42898962 -0.71033484 -0.95640033 -0.83594817 -0.7392629 -1.2640512 -0.90695584
-0.86221224 0.10917122 -1.1707042 -0.5266761 -0.68259615 -0.03386553 -0.18337238 -0.74281925
-0.69335526 0.07208626 -0.10256256 0.19330378 0.37558818 -1.1806027 0.3266897 -0.29823512
-1.2134209 -0.14253794 -0.26358095 -0.3578401 -0.6538219 -0.24645323 -0.20926765 -0.77223504
-0.31909677 0.3235551 -0.90146667 -1.0244166 -0.13866885 -1.1431305 -0.02591594 -0.26579824
-1.1066805 -0.2613577 -0.4199463 -0.85881263 -0.41591474 0.004272679 -0.14943346 -0.48067382

fc2.weight f4 [300, 404]
00000000: 6f36 263d 33b4 74bd 06d3 1ebd 5b10 f83b
00000010: ac5e 7fbd a22b e53c 5a58 d3bc 6e91 1bbd
00000020: 694e d73c 6876 c83c ced9 1dbd 7305 753c
00000030: 3829 39bc a833 b7bd a8b5 32bd d672 273d
00000040: bcbb 76bd 2ddc 1a3d 3927 4abd 4fc0 343d
00000050: d6ac 153d 8da5 943b 4666 2d3c 4ee7 21bd
00000060: b74c b13b b6f5 19bd 9af0 5c3c 7941 cfbd
00000070: 6de8 80bd 386c 4b3b 62fc 56bc dcb9 fb3c
00000080: 392d 49bd 27a6 a6bc 3be0 723c 8a4c dcbd
00000090: 8769 a1bd 8e7e a7bc 62fd 5a3d bc9b f33c
000000a0: b531 103c 8a30 503c 44f4 0d3d 96d3 9abc
000000b0: bf05 be3b 58fb bcbc 5c96 033c e261 5d3a
000000c0: 3424 73bd ae77 98bc 4bc6 68bd 22bc e83c
000000d0: 593d 4bbd af04 a7bd 7fc4 b23c 737e 65bb
000000e0: 6a3a d2bb b662 253c 32e4 53bd 73c7 f63a
000000f0: 4828 c83c 7143 41bc a480 0d3d f4f4 7dbd
00000100: c0a0 b9bc b07f 38bb 10ff cebc e8c8 4dbd
00000110: fc4a f5bc 0773 aebb b6ae 103d 6f55 a5bc
00000120: 49ba d139 ef40 b7bc 4a44 d4bc 1e17 13bd
00000130: 2072 3abb 6fea a1bd 4e61 2f3b f576 923c
00000140: 9352 f13b 463b 97bd cd55 01bd 522c d5bc
00000150: 8b02 79bd b621 9b3b 37e0 a7bd 4219 dabc
00000160: ef3b 23bd a71a 37bd bd73 82bd 68fd bebc
00000170: 94b1 8f3c b85c bfbb 37fa 2bbc 9a05 e6bb
00000180: f8ff c2ba c191 48bd 86c7 223d c218 d8bc
00000190: a0f9 32bc 370a ba3c 2498 07bd 4a27 5dbc
000001a0: 9961 46bd 3604 a2bb 432f 67bd 97c2 a1bd
000001b0: c815 49bd 048c 7cbd 459a 03bd 6f48 23bd
000001c0: 8d14 8fbd 8d23 193c a658 1cbd b65e ae3c
000001d0: b073 3a3d 4f33 a63c 441c 7fbd c08d b83c
000001e0: b411 0d3d dada 50bd a54b 01bd 9ea7 2f3d
000001f0: 576d aabd af29 a5bd 169e 253d 723d 5bbd
00000200: 0a9c d5bc 5b40 70bd 09b9 4c3d 835e f53c
00000210: 6830 c33c 66fe a93a 6d99 09bd d93f d5bc
00000220: 7ed6 96bd 3f39 abbc b8f8 3ebd 1d77 9cbc
00000230: acb8 70bd 10d5 bcbc 550d 88bd 7537 8ebc
00000240: b0dc b5bb 8557 0bbd c991 de3c 8e6d ae3c
00000250: fe7d ab3c 21a0 c3bd 5544 83bc 5589 04be
00000260: 1e79 243c e767 27bd 5636 16bd 117c cf3b
00000270: 7ecf 93bd 5188 4e3c 6f99 a2bd ac00 7ebd
00000280: cb61 e6bc 01d9 523c dde4 113d 6584 83bc
00000290: 8812 3c3c 1d18 173c 3cce f53c 5590 87bd
000002a0: 0a07 59bd 369c 11bd f09e 38bb 736a 003d
000002b0: d74a 363c 29ff 45ba 64ad f8bc 9e8d 92bc
000002c0: 2416 8c3c 046c 79bd 390d c6bd 7f91 2e3d
000002d0: 2840 b73c 0139 dc39 5fd0 a3bc 249a 0fbd
000002e0: e520 1ebd a094 47bd 2f81 3e3c fd08 993a
000002f0: 171c aa3b b646 193d cb62 6abd aa91 6abc
00000300: 5ddb 04bd 4e7a 16bd d71b 293c d344 6cbd
00000310: d55f 8d3c 8d71 0c3d 37f9 a7bd 943c 7dbd
00000320: a2eb 5ebd 936d 80bd bdde 1ebd 077d 3d3c
00000330: ba32 dfbd 6991 d03c be92 1abd a066 bebd
00000340: cbfd 7e3c ce13 253c 3424 8c3c 85aa 123d
00000350: 146f 7fbd ccaf 0b39 bfe5 3abd 375c 24bd
00000360: d7fa 21bd f534 84bc 7f95 25bc 90e2 c0bc
00000370: 1407 08bd 0744 a1bc 7037 c33c 5597 8abd
00000380: 3140 cdbc 7668 a33a 99e5 c9bc 8c29 ffbb
00000390: 7a45 5f3b 8a5c d1bc e237 e43c 0ae6 eabc
000003a0: 82b9 ea3c 4233 debc 695b 59bd d887 b0bc
000003b0: ea5c dfbc 812f 4fbd 08d4 3bbc cde5 02bc
000003c0: b639 17bd ee24 2b3c 8685 14bd f757 ac3c
000003d0: 2d94 8dbd 7163 44bd 2f31 2abd b0ef 36bc
000003e0: b5a3 963c 5ce4 76bd de5c 97bd 03df eabb
000003f0: 2087 c33b c60f 98bc 99c5 46bd 700a bebd
0.040579256 -0.059742164 -0.038775466 0.007570309 -0.062346146 0.027974907 -0.025798965 -0.03798049
0.026282506 0.024470523 -0.038537793 0.0149549125 -0.011301331 -0.089453995 -0.043630272 0.040881
-0.06023763 0.037807632 -0.049353812 0.044128712 0.036541782 0.0045363368 0.010583466 -0.03952723
0.0054107565 -0.037587844 0.013485098 -0.1011991 -0.06294332 0.0031039845 -0.013121696 0.030728273
-0.049115393 -0.0203429 0.0148239685 -0.10756786 -0.07881456 -0.020446088 0.0534643 0.029737346
0.008800914 0.012706885 0.034656778 -0.01889972 0.005799025 -0.023069069 0.008031454 0.00084450666
-0.059360698 -0.018611755 -0.056829732 0.028410021 -0.049619053 -0.0815519 0.021822212 -0.0035017997
-0.006415655 0.010094335 -0.051731296 0.0018827751 0.02443327 -0.011795864 0.03454651 -0.062001184
-0.02265966 -0.002815228 -0.025268108 -0.050240427 -0.029942982 -0.005323771 0.035322867 -0.02018234
0.0004000238 -0.02236983 -0.025911469 -0.03591072 -0.0028449371 -0.07906043 0.002676088 0.017878989
0.00736458 -0.073843524 -0.031575967 -0.02602211 -0.06079344 0.0047342433 -0.081970625 -0.026623372
-0.03985208 -0.044703152 -0.063697316 -0.023314193 0.01754073 -0.0058399104 -0.010496668 -0.0070197107
-0.001487731 -0.048967127 0.03974106 -0.026378993 -0.010923773 0.022709949 -0.033104077 -0.013498137
-0.04843292 -0.0049443496 -0.056441557 -0.07898443 -0.049093038 -0.061656967 -0.032129545 -0.039864
-0.069863416 0.009346855 -0.03817048 0.021285396 0.045520484 0.020288138 -0.062282816 0.02252853
0.03444071 -0.050989963 -0.03156628 0.04288446 -0.08321636 -0.08064591 0.040433966 -0.053525396
-0.026075382 -0.058655124 0.04998115 0.029952293 0.023826793 0.0012969493 -0.033593584 -0.026031421
-0.0736513 -0.02090132 -0.046623915 -0.019099766 -0.058769867 -0.023050815 -0.06643168 -0.017360428
-0.0055499896 -0.034019012 0.027169125 0.021292474 0.020934101 -0.095520265 -0.016023794 -0.12943013
0.010038642 -0.040870573 -0.036672913 0.0063319285 -0.0721731 0.012605743 -0.079394214 -0.06201236
-0.028122803 0.012869121 0.03561865 -0.016054342 0.011479028 0.009222058 0.030005567 -0.06619326
-0.05298523 -0.035549365 -0.0028170906 0.031351518 0.011126242 -0.00075529754 -0.030356117 -0.017889794
0.017100401 -0.060894027 -0.09670491 0.042619225 0.02236946 0.0004200414 -0.01999682 -0.03505911
-0.03860559 -0.048725724 0.011627479 0.0011675652 0.005191337 0.03742095 -0.057223123 -0.014316956
-0.032435764 -0.036737733 0.010321579 -0.057682823 0.01725761 0.034287978 -0.08201831 -0.06182535
-0.054423936 -0.062708996 -0.03878664 0.011565453 -0.10898347 0.025459962 -0.0377376 -0.09296918
0.015563439 0.010075523 0.017107107 0.03580715 -0.06236179 0.00013321562 -0.04562926 -0.040127005
-0.03954586 -0.016138533 -0.010106443 -0.023545533 -0.033209875 -0.019685758 0.023830146 -0.067671455
-0.025055023 0.0012467045 -0.024645614 -0.007786935 0.003406851 -0.025556821 0.027858678 -0.028674144
0.02865291 -0.027124051 -0.05306569 -0.02154915 -0.027265985 -0.050582413 -0.011464126 -0.007989359
-0.03692027 0.010445816 -0.03626015 0.021038039 -0.06913028 -0.047946397 -0.04155081 -0.011165544
0.018388608 -0.060276374 -0.0739076 -0.0071676983 0.005967036 -0.018562209 -0.048528288 -0.092793345

fc2.bias f4 [300]
00000000: 35ac 86bd 2136 c4bc 251d 8fbd 705f b4bd
00000010: d7b1 a9bd 3811 bdbd 28af b1bd 308c 38bb
00000020: a93d c6bd 70b9 bebd af51 afbd 1b6b 6cbd
00000030: 7866 34bd 39ea 4fbd 89d5 c1bd 1eec 95bc
00000040: 5375 7f3b 4e98 aa3c ca39 5cbd fc2a f2bd
00000050: 42e8 ddbd e6aa 203a f80d c93b 7e8a ab3c
00000060: d91b c2bd 5a9d 54bd bf7e aebd fe71 94bd
00000070: 8dce 09be 5298 5cbd f952 4abd 7790 adbc
00000080: 40a2 bfbd 2bef e9bd 506e 31bd 7f59 afbd
00000090: cc58 74bd 2a2e d3bd 9998 41bd c497 79bd
000000a0: e596 82bd 881d 36bd 34b6 973f 70db 493b
000000b0: 0e10 96bd 93db efbb 9aaf d2bd a169 cabd
000000c0: 5f47 a5bd 1ffc a3bd 0cb8 7abd 3003 babc
000000d0: 00b3 b7bd 7420 7dbd d6fc 90bd 7619 93bd
000000e0: 4635 98bd 84a9 f5bc a79b 2ebb 207e 38bd
000000f0: f02f bebd f32e 6cbd df83 b63b 3380 ecbd
00000100: 2dac 89bd 45eb 82bd 1e83 1abd 046a 71bd
00000110: 215c c6bd f84f 3ebc 44c1 83bd 6326 69bd
00000120: 3cef fcbd 95a9 f9bd 19f0 95be 32f0 51bd
00000130: 99ab 42bd a717 abbd 7dd1 82bd fa73 51bd
00000140: 2aef 753e 7fce 28bd e539 05bd c028 34bd
00000150: aa92 55bd b78a afba a94a 48bd c56a 8dbc
00000160: 125f d8bd f950 42bc b9b6 c9bd 451e 07be
00000170: 482a b7bd eedc 9dbd b4bb f9bd 02bb d7bd
00000180: e879 bdbd 8406 f3bd e90d 4fbd 5979 41bd
00000190: c5f7 02bd 6cd5 ffbd 71d9 c1bd 47aa 2abd
000001a0: 7c0d e53e c21f 5bbd 1c3b 74bd c2d8 d1bd
000001b0: 5c61 77be 923e d3bd 173f 80bc 06d0 92bb
000001c0: 266a 97bd f3c9 67bb 4dd3 83bd 2c9c fbbd
000001d0: 0b7c ebbc f626 17bd e846 39bd 1821 bebd
000001e0: 9d1a 88bd a548 8ebd 2c77 fdbc 430e e0bd
000001f0: c9a9 c1bd 3a74 d2bd 6afe dbbc bc95 f4bd
00000200: 05ba 85bd 2bf6 6cbd ac9c 7dbd 53f2 e6bc
00000210: f996 47bd d80c 38bd 3e22 9abd dbf4 6dbd
00000220: 68a9 b3bd 6f30 a7bd a803 bfbd 6fee 353e
00000230: 3302 e8bd 2c70 7abd c955 4fbd afae 2cbd
00000240: fc66 813b d856 b4bd 2051 b3bd 11de c7bd
00000250: 1a19 d0be f897 b2bd 4ac1 54bd 9f20 a0bd
00000260: ccc5 7fbd 1e68 92bd 6cae 79bd 3be2 e1bd
00000270: 88f9 bbbd 5852 bbbe 69a7 c4bd 5aa4 d7bd
00000280: 852c 0ebc ac62 76bd feb6 95bd f060 babd
00000290: 31c0 c0bd e4cb f5bc d896 babd 7b92 67bd
000002a0: ef87 a7bd 7914 4abd 9949 cabd bc13 79bc
000002b0: aa17 5dbd 1394 e7bc b54b 143c 9a1b 5abd
000002c0: d84b babc 89c2 c0bd ddf6 0ebd 7fff a4bd
000002d0: 26a9 19bd 1d3b 0dbe 0a3e d4bd a99c 4bbd
000002e0: 8779 2fbd 509c 3aba d754 acbc 2502 87bd
000002f0: 73ba 743c 338d 6ebc 1246 d8bd 326e 56bd
00000300: 7354 423f ca8c 633d 4c3b 7bbd 9f48 2abd
00000310: c26f d6bd 1bb0 edbd 56d1 91bd 38bf b9bc
00000320: c78b 2dbd 95c7 03be 1075 33bd cad3 8f3e
00000330: ab0d 67bd 6785 a0bd 0b5a 00be 08ed 3bbd
00000340: ba95 dbbd 6e12 13bc 2e0c b83f 2f57 2cbd
00000350: 9922 c4bd 27f7 a5bd 8cdf bdbd c45e f6bc
00000360: 4c13 71bc c53f 103b 530c ebbd b719 2dbc
00000370: 3b29 ebbd 7a13 5fbd 6fa0 be3c 76b8 9ebc
00000380: 59d3 cbbd dc4e 78bc 6fa6 24bd 242f f3bc
00000390: 53db 6ebe 50cc 32bc 0ff5 a6bc 4b8c e1bd
000003a0: d5cb 143c d777 22bd 1e56 95bd 4642 9abd
000003b0: 1154 45bd 91ec 4fbd f62c 96bd 2006 b3bd
000003c0: b7a8 2abd 620e 54bd 2ec7 91bd 66ae 95bd
000003d0: 46cb 18bc 00bb bebd aeae 93bd d4b7 76bd
000003e0: 507e 09bd 252e 88bd d311 8cbd 6612 96bd
000003f0: 2eff a93d 0dba 82bd efc7 2dbc 0655 9abd
-0.06575815 -0.023951592 -0.06987981 -0.08807266 -0.082858734 -0.092318 -0.086759865 -0.002815973
-0.096797295 -0.09312713 -0.08560502 -0.05771933 -0.044043034 -0.05076048 -0.09464557 -0.018301066
0.0038979843 0.020824578 -0.05376605 -0.11824605 -0.10835315 0.00061289815 0.0061356984 0.020940062
-0.09477968 -0.051907875 -0.08520269 -0.07248305 -0.13457699 -0.0538562 -0.049395535 -0.02118705
-0.093571186 -0.11422571 -0.043318093 -0.08561992 -0.059654996 -0.103115395 -0.04726467 -0.06093575
-0.06376437 -0.044461757 1.1852479 0.003080096 -0.07327281 -0.0073198765 -0.102873996 -0.09883428
-0.080702536 -0.08007073 -0.061210677 -0.022706598 -0.089696884 -0.061798528 -0.07079475 -0.07182591
-0.07432036 -0.029988058 -0.002664307 -0.045042157 -0.09286487 -0.05766196 0.0055699195 -0.115478896
-0.06722293 -0.0639253 -0.0377227 -0.058938995 -0.09685541 -0.011615746 -0.06433347 -0.056921374
-0.12350318 -0.12190548 -0.29284742 -0.05125446 -0.04752693 -0.08354121 -0.06387613 -0.051135994
0.24017015 -0.041212555 -0.032525916 -0.043984175 -0.052141823 -0.0013392781 -0.048899326 -0.017262826
-0.10565008 -0.011860126 -0.09849305 -0.1319514 -0.089436114 -0.077081546 -0.12194005 -0.10533716
-0.092517674 -0.11866477 -0.050550375 -0.047234867 -0.031974573 -0.12491879 -0.09465302 -0.041666295
0.4473685 -0.053497083 -0.059626684 -0.102464214 -0.24158233 -0.10314669 -0.015655084 -0.0044803647
-0.07393293 -0.0035368174 -0.06436787 -0.12285647 -0.028745672 -0.03690239 -0.045233637 -0.09283656
-0.06645701 -0.069474496 -0.030940615 -0.1094022 -0.09456212 -0.10276075 -0.026854713 -0.11942622
-0.06529621 -0.05785195 -0.061916992 -0.028191721 -0.048727963 -0.044934124 -0.075260624 -0.05809484
-0.08772546 -0.08163535 -0.09326869 0.17766736 -0.113285445 -0.06114213 -0.05061892 -0.04215878
0.0039490443 -0.08805627 -0.08755708 -0.09759153 -0.4064415 -0.08720392 -0.051942147 -0.07818722
-0.062444493 -0.07148765 -0.060957357 -0.11029478 -0.09178454 -0.3658626 -0.096022435 -0.105293944
-0.0086776065 -0.060152695 -0.073102936 -0.091005206 -0.094116576 -0.03000445 -0.091108024 -0.05653618
-0.08180224 -0.04933593 -0.09877319 -0.015202459 -0.053977646 -0.02826885 0.009051253 -0.05324898
-0.022741243 -0.09412105 -0.034903396 -0.080565445 -0.03751483 -0.13792081 -0.103633955 -0.04970995
-0.042840507 -0.00071186293 -0.021036549 -0.06592206 0.014937031 -0.014560032 -0.1056024 -0.052351184
0.7591011 0.05555419 -0.061335847 -0.041573163 -0.10470535 -0.11605855 -0.07120006 -0.022674188
-0.04236963 -0.12869103 -0.04381281 0.2809127 -0.05640952 -0.078379445 -0.12534349 -0.045880347
-0.107219175 -0.008976562 1.4378717 -0.042075332 -0.095769115 -0.08103781 -0.09271154 -0.030074485
-0.014714073 0.0022010666 -0.1147696 -0.010565213 -0.114824735 -0.054461934 0.02326986 -0.019375067
-0.09952421 -0.01515552 -0.040197786 -0.029685564 -0.23325853 -0.01091297 -0.020380525 -0.11013087
0.0090818005 -0.03966507 -0.07291816 -0.07532172 -0.048175875 -0.050762717 -0.07332794 -0.087414026
-0.041664805 -0.05177153 -0.07118069 -0.073086545 -0.009325808 -0.09313011 -0.07211052 -0.060233906
-0.033567727 -0.06649426 -0.06839337 -0.07327728 0.08300625 -0.063831426 -0.01060675 -0.07535748

fc3.weight f4 [1, 300]
00000000: 4021 48bc 6e0e 9cbb 9481 7e3c 5909 c3bc
00000010: 3e83 a73b c302 e43c 6246 ec3b 1eff afbc
00000020: 5875 4a3a 48e9 c5ba 9eb2 10bc 4e3e a0bb
00000030: 2e97 193c d54c 8c3c 98ad 313c c0b8 b53b
00000040: 4ded 873c e951 4cba 8039 c5ba 54c3 723b
00000050: d270 6d3c fcf0 833b d3cd eabb da62 643c
00000060: 5790 203c 9f20 a0bc cdfb 8fbc 2a45 e4b8
00000070: 1d09 8dbc 425c d33b fabf 55bc fa93 d43b
00000080: 704f bfbc 7fac b6bb 3048 bb3c f228 543c
00000090: ea75 dfbb bb78 e4bb 3411 72bc 9b9e f23c
000000a0: 3252 633b 4ce9 f73a 5022 7ebc 5cac f7bc
000000b0: 8705 3aba 12ae 68bb 334c e4bc d4b3 ffbc
000000c0: 9352 71bb 06d4 a2bc 4c32 70bc 7456 f4bb
000000d0: c050 3ebc a005 b1bc a116 c33c 26a2 2fbb
000000e0: 76c1 90bc 0bcf 72bc b4b6 febb 697d cb3b
000000f0: e75c ad3c 20a4 3a3c 9871 3b3c de8b 24bc
00000100: 28ab babc dad2 f33b 384e 373c b086 bbbc
00000110: bb77 80bb a62a 933c 2385 d4bc 420a 503c
00000120: aa2e 5539 9ff9 d6bb 3ad3 40bc ddcd 803b
00000130: 3c27 7c3c ba87 d5bc 964f 173c 963c 963c
00000140: f2b9 f63b 77ac a03c 71e7 c73c d0a9 be3c
00000150: 4568 83bc 2136 c4bc e95c 5f39 cd51 0a3c
00000160: a1ec c9bc 421a debc 2e28 9f3c 1eee 1d3c
00000170: 2026 b6bc 9732 b9bb 6a0a da3c 2a31 df3b
00000180: ac99 0abc 6b77 65bc aa78 d13c fe4b 92bc
00000190: 75e2 17bc 0b43 683c 6ff0 b93b 6887 41bc
000001a0: 358f cd3c a29e d6bc 917a 49bb 8800 3f3a
000001b0: 3b9e 7dbc 601f 34bc 593e cfbb d2ba 50bc
000001c0: e821 3b3c fc0b 733c 3f26 2a3d 3f46 adb9
000001d0: 1d4d 8a3b 7dbb 0ebc 350f 03b9 752f 87bc
000001e0: f650 903c 5da4 89bc 0168 50bc 7fe0 a5bc
000001f0: 3d64 8fbc e664 9bbc 2034 bc3c e6d9 143c
00000200: 81b6 c5bc 570b 32ba 983f 3b3c 2fd2 bd3b
00000210: 68ca babc 1481 7c3b 75ea 85bc 0a46 dbbc
00000220: 9512 1dbc 0e12 1ebc d0ec b73c f7df 17bc
00000230: e098 bf3c bb52 fbbb 5f54 a7bc 5e07 9fbc
00000240: d954 45bc 1ff8 ac3b add0 85bc c5e5 853b
00000250: 0d36 18bc 0611 9dbb 665f 9e3c 9956 ccbb
00000260: 5758 ba3b 5be6 7ebb 6b63 603a 24b4 7abc
00000270: 664f a93c a52e 0a3b 5b1e feba 391f c3bb
00000280: 33fb 7d3c 253f 9a39 2cda f93c ee2d 9dbc
00000290: 21a9 4e3c e560 8b3c 67c6 aa3c 431b e2bb
000002a0: ffe5 a23b 8a25 d63c 83a7 ed3a add2 8d3c
000002b0: cc02 fabc a231 86bc 0e87 973b b273 ec3b
000002c0: 3c94 87ba f794 a6bb e957 4b3b b633 98bb
000002d0: 3f6f 3bba e8db b53c bfdf 223c 4d8e 9bbb
000002e0: 875d 23bc 94b9 7dbc 6d18 123c 7599 06bc
000002f0: 1c79 0bbb 7243 dabc 096b c0bc d221 ddbc
00000300: 833c 12bc 3a2a d63b 1538 843c 7ebf 9e3c
00000310: a317 e0bc 4f20 be3b 7987 54bb 95f5 0c3c
00000320: 9e88 17bd 9851 b8bc 3d80 82bc 28fe 6dbc
00000330: d077 be3c c602 963c 8998 473c 2694 90bc
00000340: 4e23 98bc 4219 5aba d4c6 2cbc 38cc bbbc
00000350: 8ee0 9fbc 4153 c8bb 0cff cf3a ce1b 13bc
00000360: 9062 b43c 2968 c1bb 27d7 22bc d045 3ebc
00000370: ce54 163c e4d4 003c 34b4 0dbb 98dc bebc
00000380: 462d 11bc 55ba 80bb a785 a1bb 445d 093c
00000390: f5ea 87bc e317 613c fad7 51bc ed5f 84bc
000003a0: 0a79 5f3c 73bc e33b 0b81 66bc 805b b73c
000003b0: 889b babb 6c24 773b 498b c43c e724 aebc
000003c0: 6fed 2d3c 0bd2 e53c e127 56bb 43f5 78bc
000003d0: a547 0abd 884e b23c a24c d3bc 0962 ce3c
000003e0: d523 683c ef53 383c 32c6 ab3c 1d61 0f3c
000003f0: f3cf e63b f8ee b0bb c8d1 323b 1e37 963c
-0.012214959 -0.0047624623 0.0155338235 -0.023808168 0.005112081 0.027833348 0.0072105387 -0.021483954
0.0007723174 -0.001509943 -0.008831648 -0.00489024 0.009374423 0.01712648 0.010844611 0.0055457056
0.016592646 -0.0007794188 -0.0015047044 0.0037042694 0.0144922305 0.0040265303 -0.0071656494 0.013939584
0.009800038 -0.019546805 -0.017576123 -0.0001088477 -0.01721626 0.006450207 -0.013046259 0.0064873667
-0.023353308 -0.0055747624 0.02286157 0.012949215 -0.0068194764 -0.0069724 -0.014774609 0.029616645
0.0034686443 0.0018914132 -0.01551111 -0.030233555 -0.00070961606 -0.0035504145 -0.027868366 -0.031213678
-0.00368229 -0.019876491 -0.014660429 -0.007456595 -0.011615932 -0.021609128 0.023814501 -0.002679953
-0.017670374 -0.014819871 -0.0077732448 0.0062100184 0.021162463 0.0113916695 0.011440657 -0.010043113
-0.022786692 0.007440907 0.011188082 -0.022891372 -0.003920523 0.017964672 -0.02594239 0.012697758
0.00020330647 -0.006560519 -0.01176911 0.003930791 0.015390214 -0.026065696 0.009235283 0.018339437
0.0075294906 0.019613488 0.024402352 0.023274332 -0.01604093 -0.023951592 0.00021301549 0.008442354
-0.024648966 -0.02711213 0.019428339 0.009639291 -0.022234976 -0.0056517827 0.026616294 0.0068112807
-0.00845949 -0.014005522 0.025570232 -0.017858502 -0.0092703 0.014176141 0.005674414 -0.0118120685
0.0250927 -0.026198689 -0.0030743221 0.0007286151 -0.01547962 -0.0109938085 -0.006324571 -0.012739854
0.011421658 0.0148344 0.04154038 -0.0003304947 0.0042206184 -0.008711693 -0.00012498799 -0.016502121
0.01761673 -0.016802007 -0.012720109 -0.02024865 -0.017503852 -0.01896901 0.022974074 0.009085154
-0.024134876 -0.0006791851 0.011428736 0.005792878 -0.022801593 0.0038529085 -0.01634715 -0.026766796
-0.00958695 -0.009647859 0.022451788 -0.009269706 0.023388326 -0.0076697743 -0.020425973 -0.019412693
-0.012044155 0.005278602 -0.016334856 0.0040862286 -0.00929023 -0.004793289 0.019332599 -0.006235909
0.0056868005 -0.0038894627 0.00085597363 -0.015301738 0.020667743 0.0021084931 -0.0019387709 -0.0059546498
0.015501785 0.00029420215 0.03049954 -0.01918694 0.012613566 0.017013976 0.020846559 -0.0069002225
0.0049712653 0.026140947 0.0018131587 0.017312372 -0.030518912 -0.016381089 0.004624254 0.0072159404
-0.001034386 -0.005083676 0.003102774 -0.0046448363 -0.0007150061 0.022199586 0.009941041 -0.004747188
-0.009971029 -0.01548614 0.008916956 -0.008215298 -0.0021281904 -0.026643489 -0.023488538 -0.026993666
-0.00892556 0.0065357955 0.016140023 0.01937842 -0.02735502 0.0058021913 -0.003242938 0.008603473
-0.036995523 -0.022499844 -0.01593029 -0.014525928 0.02325049 0.01831187 0.012182363 -0.017648768
-0.018571522 -0.0008319804 -0.010545451 -0.022924528 -0.019516256 -0.0061134403 0.0015868857 -0.008978797
0.022019655 -0.0059023094 -0.009938992 -0.011613324 0.009175492 0.007863257 -0.0021622302 -0.023298547
-0.008860892 -0.0039284625 -0.0049292627 0.008384053 -0.016591528 0.013738605 -0.0128078405 -0.016159022
0.013639698 0.006949955 -0.014068852 0.022382498 -0.0056948103 0.0037710918 0.023992198 -0.02125783
0.010615691 0.028054258 -0.0032677578 -0.015195194 -0.03375973 0.021765962 -0.025793377 0.025193231
0.014168699 0.01125048 0.02096853 0.008751181 0.0070438324 -0.005399581 0.0027285684 0.018336829
