saved_agents/critic_local_0.pth (torch_old, 566674 bytes, 5 tensors)

fcs1.weight f4 [400, 48]
0.72259015 -0.09874656 -0.059576478 -0.12166319 -0.016475804 -1.1094853 -0.0021386675 -0.14243779
0.7351349 -0.29868564 -0.21660939 0.0071457876 -0.09467138 -0.94109833 -0.15903077 -0.030851709
1.2622987 -0.15699044 0.09193687 0.31687295 -0.26526895 -0.7688882 0.04205754 0.23412842
0.04067633 1.9459375 0.06981193 0.13751821 0.0026170472 -1.1857934 0.03064088 0.14241242
0.2947547 1.7874706 0.0078729745 0.0561303 0.12462423 -0.9151928 0.0075983936 0.03327818
0.43275958 1.5278205 -0.050421912 -0.04872601 0.29278976 -0.7573859 -0.041654002 0.0074417833
0.86414945 0.11982611 -0.03603573 -0.0759301 -0.16184266 -0.064831235 -0.09301784 -0.0032412948
0.8997802 -0.09008762 -0.060431637 -0.15431301 0.10584494 0.17977741 -0.057586595 -0.15777613
0.9631516 -0.18473369 -0.021166332 -0.41650406 -0.13752778 0.08282168 -0.024991207 -0.42602083
0.15913044 -0.47527593 0.007514923 0.095588684 0.18089998 -0.08635448 0.019934768 0.112862736
0.27955008 -0.39805713 0.11540197 0.30162358 -0.09304391 0.22507715 0.0647751 0.22655617
0.30399597 -0.23465452 -0.015021546 0.41481432 0.09486141 0.10811541 -0.0269826 0.34928662
-0.14453027 0.7590582 -0.030097041 0.3311542 -0.07598732 -0.6721003 -0.043980334 0.3711447
0.13945597 0.9030224 -0.046795614 0.43957317 0.21596444 -1.0199549 -0.030325118 0.41842392
0.33197272 0.9313369 -0.015990483 -0.13443838 0.48421672 -1.771253 -0.06888714 -0.14652514
-0.23124932 -0.8612021 0.018124029 -0.3572737 0.06417483 -0.57414335 0.057919137 -0.3011681
-0.14440082 -0.5347636 0.00487266 0.17449139 -0.1556865 -1.0817152 0.0018889556 0.1770915
-0.0856666 -0.4625284 -0.025826408 0.16642961 -0.5497025 -1.7346338 -0.03825313 0.18244334
0.043726105 0.7484168 -0.018219713 -0.19497305 -0.0798298 -0.46412623 -0.036334462 -0.13764934
0.4082961 0.9045362 -0.038720757 0.37761623 -0.06371452 -0.39240256 -0.08952645 0.37284124
0.49162734 1.0751114 -0.07307163 0.66651344 0.07925652 -0.13548695 -0.049849506 0.67681855
1.304291 -0.39708444 0.021819094 -0.039035216 0.070156716 -0.5004762 0.06278707 -0.047526322
1.3177981 -0.32704493 0.058345713 0.54338056 -0.0213245 -0.36717567 0.017743908 0.52624756
1.3371438 -0.066279985 -0.033756673 0.9478591 -0.12494299 -0.16212165 -0.05264289 0.94634074
-0.01893241 0.9040641 0.065666586 -0.37605366 0.34753713 -0.4222301 -0.008961378 -0.32843453
0.19171774 0.85164046 -0.07487426 0.655854 0.074833885 -0.5516451 -0.06489341 0.7309803
0.24567199 1.0101377 -0.027682636 0.50155354 0.117617585 -0.7367194 -0.05781527 0.50868714
0.0014360516 -0.18089412 0.06752588 0.86920553 -0.35533613 -0.4477193 0.008024981 0.90985405
0.24274318 -0.023755703 -0.0038279325 0.4949077 -0.10926688 -0.5596539 -0.04413944 0.42926317
0.4683426 0.0876972 -0.08084682 0.2739963 -0.11201313 -0.8173406 -0.033494867 0.28639755
0.13847613 0.14056602 -0.007949124 0.07614414 0.054512296 -0.09983986 -0.021835683 -0.008041186
0.1810991 0.18287592 -0.0031378272 -0.025272042 0.011904965 -0.13756865 0.0006406228 -0.07434497
00000000: abfb 383f a33b cabd 7706 74bd 8d2a f9bd
00000010: 44f8 86bc 9d03 8ebf e328 0cbb 36db 11be
00000020: cd31 3c3f 53ed 98be dace 5dbe 3627 ea3b
00000030: 12e3 c1bd d2eb 70bf f6d8 22be b9bc fcbc
00000040: 0193 a13f 1ac2 20be 6649 bc3d 2c3d a23e
00000050: 55d1 87be dbd5 44bf 8744 2c3d 5cbf 6f3e
00000060: 399c 263d 7b14 f93f 8ff9 8e3d 93d1 0c3e
00000070: c482 2b3b 14c8 97bf 9502 fb3c 90d4 113e
00000080: 17ea 963e d6cb e43f a6fd 003c e3e8 653d
00000090: fd3a ff3d 134a 6abf f2fb f83b b34e 083d
000000a0: aa92 dd3e 9f8f c33f 3587 4ebd ed94 47bd
000000b0: 8ae8 953e 0be4 41bf 639d 2abd 34da f33b
000000c0: e638 5d3f 6467 f53d 349a 13bd 3e81 9bbd
000000d0: 15ba 25be 3dc6 84bd 2380 bebd e76b 54bb
000000e0: ff57 663f dc7f b8bd 2a87 77bd 3b04 1ebe
000000f0: 3bc5 d83d 9217 383e ecdf 6bbd 1190 21be
00000100: 1a91 763f d42a 3dbe 0465 adbc 0540 d5be
00000110: 15d4 0cbe 6a9e a93d 5cba ccbc 671f dabe
00000120: 17f3 223e 5e57 f3be be3f f63b 00c4 c33d
00000130: d83d 393e 9eda b0bd 3d4e a33c 9424 e73d
00000140: 3021 8f3e 25ce cbbe de57 ec3d 686e 9a3e
00000150: ce8d bebd a07a 663e cfa8 843d 57fe 673e
00000160: 5ca5 9b3e 4649 70be ee1c 76bc 8b62 d43e
00000170: b346 c23d 9d6b dd3d 9d0a ddbc b2d5 b23e
00000180: beff 13be a351 423f 128e f6bc 0b8d a93e
00000190: 3d9f 9bbd c40e 2cbf b924 34bd ae06 be3e
000001a0: 8ccd 0e3e 7a2c 673f c2ac 3fbd bc0f e13e
000001b0: c825 5d3e e28d 82bf 626c f8bc a93b d63e
000001c0: 54f8 a93e 186c 6e3f 79fe 82bc 37aa 09be
000001d0: 41eb f73e 6bb8 e2bf b314 8dbd b00a 16be
000001e0: 9fcc 6cbe be77 5cbf d878 943c 94ec b6be
000001f0: 186e 833d 0ffb 12bf 9e3c 6d3d b532 9abe
00000200: cfdd 13be 44e6 08bf d6aa 9f3b dfad 323e
00000210: 486c 1fbe a575 8abf d596 f73a 7957 353e
00000220: f871 afbd 86d0 ecbe e791 d3bc 866c 2a3e
00000230: 4eb9 0cbf 7b08 debf 50af 1cbd 6dd2 3a3e
00000240: 251a 333d 3e98 3f3f 8241 95bc 04a7 47be
00000250: ce7d a3bd f4a1 edbe 72d3 14bd f3f3 0cbe
00000260: 300c d13e af8f 673f a899 1ebd ea56 c13e
00000270: c27c 82bd fde8 c8be a559 b7bd 0ce5 be3e
00000280: 94b6 fb3e 409d 893f 94a6 95bd a0a0 2a3f
00000290: 3e51 a23d 17bd 0abe ff2e 4cbd fb43 2d3f
000002a0: 02f3 a63f a74e cbbe f5bd b23c 64e3 1fbd
000002b0: 53ae 8f3d 351f 00bf 8296 803d f6aa 42bd
000002c0: 9cad a83f 6f72 a7be eafb 6e3d fd1a 0b3f
000002d0: b8b0 aebc 73fe bbbe ac5b 913c 29b8 063f
000002e0: 8727 ab3f cdbd 87bd 7044 0abd e5a6 723f
000002f0: 1ce2 ffbd 3803 26be 12a0 57bd 6343 723f
00000300: 2418 9bbc bf70 673f 347c 863d 1b8a c0be
00000310: 63f0 b13e 8b2e d8be bed2 12bc 9228 a8be
00000320: a851 443e 1c05 5a3f ad57 99bd 0ce6 273f
00000330: 8242 993d 9d38 0dbf d6e6 84bd 8621 3b3f
00000340: 7091 7b3e 314c 813f b2c6 e2bc d065 003f
00000350: 7de1 f03d a599 3cbf b4cf 6cbd 5239 023f
00000360: e539 bc3a 4f3c 39be 024b 8a3d 4184 5e3f
00000370: 9eee b5be 773b e5be 367b 033c 32ec 683f
00000380: ab91 783e 529b c2bc 0dde 7abb 8b64 fd3e
00000390: 50c7 dfbd 7a45 0fbf 8fcb 34bd 62c8 db3e
000003a0: 9aca ef3e 979a b33d 0493 a5bd 3e49 8c3e
000003b0: 2467 e5bd 3c3d 51bf ea31 09bd b3a2 923e
000003c0: b0cc 0d3e 8af0 0f3e 0b3d 02bc 75f1 9b3d
000003d0: 4948 5f3d d778 ccbd bfe0 b2bc 2ebf 03bc
000003e0: 0b72 393e d343 3b3e 01a4 4dbb 5007 cfbc
000003f0: 0b0d 433c ccde 0cbe 78ef 273a 2d42 98bd

fcs1.bias f4 [400]
-0.68806994 0.28180775 -0.7055916 -0.81594956 -0.64065117 -0.080551654 -1.1595211 -0.95768267
-0.22389573 -0.20267685 -0.26182345 0.058448955 -0.15729019 -0.08790182 -0.3058785 -0.4304185
-0.09903988 -0.14687064 -1.1394006 -0.8391176 0.2707091 -0.13643304 -0.52208453 -0.009521594
-0.2509726 -0.46504745 -0.7678154 0.34810826 -1.2018106 -0.59459305 -0.3544953 -0.052809168
-0.94886345 -0.17515749 -0.260474 -0.7621751 -0.92830807 -1.411192 -0.87492245 -0.3692898
-1.2972714 -1.4632499 -1.3006382 -0.15116204 -0.45977524 -0.90588397 -0.5906974 -1.3635178
-0.85158855 -0.5220979 -0.13796805 -0.18654257 0.117911786 -0.012004621 -0.5523375 -0.3680758
-0.3888183 -0.2934939 -0.62430507 0.10542032 -0.38847908 -0.17386964 -0.1491327 -0.10918871
-0.23759337 -1.2886993 -0.070711516 -1.3647577 -0.48818 -0.047563255 -0.29168254 0.45451352
-1.2053083 -0.8518009 -0.46687934 -0.38449523 -0.9774153 -0.9741596 0.016250584 -0.17664488
-1.2743856 -1.2156695 -0.96755123 -0.24077219 -0.5646193 -1.8120809 0.14104576 -1.372286
-0.35433212 -1.1135818 -1.0483106 0.8746038 -0.9328356 -1.2114981 -0.33110386 -0.31808802
-0.35249892 -0.52322775 -0.19565919 0.26640153 -0.13762891 -0.6010798 0.21291928 -0.19782923
-0.5287413 -0.8800384 -0.47957718 -0.8341627 -0.9204317 -0.71144617 -0.30960435 -0.68353087
-0.08330477 -1.2700614 0.27944407 -0.06567069 -0.6330711 -0.4476102 -0.8843097 -0.9007142
0.07225382 -0.26323366 -0.0707018 -1.1910115 -1.0451798 0.11070941 -0.5983611 -0.707082
-0.10536541 0.030064492 -0.8923316 -0.20558771 -0.50671166 -0.056157712 -0.15571171 -1.8803265
0.6423959 -0.051435128 -0.0051913727 -0.54271334 -0.5308712 -0.23852071 -0.20373276 -1.61616
-0.85554665 -0.34470385 0.20036589 0.09253764 0.5042718 -0.7659986 -0.4610937 -0.21312879
-0.051761825 -0.5999862 -0.91742593 -0.20856556 -0.19170538 -0.2972028 -0.08642741 -0.18317154
-0.097324744 -0.60678136 -1.2007704 0.29176396 -0.32809964 -0.07969351 -1.1158762 0.008351805
-0.71257347 -1.2265849 -0.45207554 -0.20158958 -0.29283342 -0.83632565 -0.9642882 -0.2551289
-0.40300736 -0.6253361 -0.72098845 -0.16142152 -0.8101041 -0.3459294 -0.15879983 0.18915823
-0.5527247 -0.17786007 -0.83596855 -1.3813902 -0.71486616 -0.30852067 0.08347805 -0.48761952
0.8487529 -0.1392681 -0.2612373 -0.17426571 -0.43185624 -0.85049635 -0.09637688 0.54508847
-0.8493508 -1.306341 -0.6229288 -0.07837671 0.4298022 -0.49924684 -0.17206146 -0.82918644
-0.11261393 -0.025180265 -0.8388441 0.37483028 -0.27009162 -0.113654405 -0.44243017 -1.2232021
-0.119759575 -0.027088221 -0.34078616 -0.83717126 0.5368434 -0.6103027 -0.117821194 -0.49387977
-0.6860623 -0.93532133 -0.6571584 0.5053244 -0.37829575 -0.09692404 -0.92737365 -1.2774404
0.24374811 0.28596327 -1.0840076 -0.5398629 -0.7237441 -0.5955189 0.29817772 -0.9340167
-0.49294716 -0.9645598 -1.0081486 -1.0048902 -0.89249754 -0.37285522 -0.8182234 -0.90312946
-0.61729497 -0.9171114 -0.14054249 0.24091619 -0.30424768 0.35268545 -1.3170214 -1.207469
00000000: 5a25 30bf 1b49 903e a7a1 34bf 12e2 50bf
00000010: b701 24bf 44f8 a4bd 306b 94bf b12a 75bf
00000020: ec44 65be 858a 4fbe b90d 86be 2c68 6f3d
00000030: ae10 21be df05 b4bd 1b9c 9cbe d05f dcbe
00000040: 6cd5 cabd 4265 16be e1d7 91bf 69d0 56bf
00000050: 629a 8a3e 1ab5 0bbe 55a7 05bf 7600 1cbc
00000060: 7b7f 80be b31a eebe 8d8f 44bf 3f3b b23e
00000070: eed4 99bf 4037 18bf 6880 b5be 6d4e 58bd
00000080: b7e8 72bf 7c5c 33be d95c 85be e81d 43bf
00000090: 99a5 6dbf f1a1 b4bf ebfa 5fbf 8d13 bdbe
000000a0: fd0c a6bf c64b bbbf 507b a6bf 39ca 1abe
000000b0: a967 ebbe 03e8 67bf f237 17bf c087 aebf
000000c0: b501 5abf 35a8 05bf 7f47 0dbe 0405 3fbe
000000d0: bc7b f13d 08af 44bc fe65 0dbf 6e74 bcbe
000000e0: 3113 c7be d544 96be 75d2 1fbf 9ce6 d73d
000000f0: bbe6 c6be e20a 32be 3eb6 18be 559e dfbd
00000100: ad4b 73be 19f4 a4bf 33d1 90bd 61b0 aebf
00000110: bbf2 f9be b0d1 42bd 6a57 95be ffb5 e83e
00000120: 8b47 9abf a00f 5abf cf0a efbe 8fdc c4be
00000130: e437 7abf 8662 79bf f21f 853c 65e2 34be
00000140: 111f a3bf 0f9b 9bbf 70b1 77bf fc8c 76be
00000150: e48a 10bf 44f2 e7bf 4d6e 103e 11a7 afbf
00000160: 056b b5be d989 8ebf 0b2f 86bf 09e6 5f3f
00000170: 50ce 6ebf 5f12 9bbf 7286 a9be 6fdc a2be
00000180: bd7a b4be 41f2 05bf e25a 48be c865 883e
00000190: 98ee 0cbe 5ee0 19bf 8307 5a3e bf93 4abe
000001a0: 975b 07bf 324a 61bf 248b f5be b08b 55bf
000001b0: 69a1 6bbf 5621 36bf 7684 9ebe e1fb 2ebf
000001c0: b19b aabd 5f91 a2bf 4b13 8f3e 5b7e 86bd
000001d0: f310 22bf 2a2d e5be 1f62 62bf 3595 66bf
000001e0: d0f9 933d 90c6 86be 1bcc 90bd 1173 98bf
000001f0: 74c8 85bf 9dbb e23d 312e 19bf 5303 35bf
00000200: d2c9 d7bd cf49 f63c d86f 64bf 9685 52be
00000210: dbb7 01bf a105 66bd e472 1fbe 8aae f0bf
00000220: 0f74 243f a4ad 52bd 641c aabb 43ef 0abf
00000230: 2de7 07bf c63e 74be 529f 50be 55de cebf
00000240: 1b05 5bbf 067d b0be b72c 4d3e 6084 bd3d
00000250: f517 013f 7c18 44bf 7914 ecbe 6f3e 5abe
00000260: 3504 54bd b298 19bf 6ddc 6abf 3692 55be
00000270: 6a4e 44be f72a 98be db00 b1bd 5291 3bbe
00000280: 3252 c7bd 0656 1bbf d8b2 99bf 1662 953e
00000290: adfc a7be 5a36 a3bd 08d5 8ebf 02d6 083c
000002a0: 376b 36bf bc00 9dbf 7276 e7be 806d 4ebe
000002b0: 43ee 95be 7019 56bf 97db 76bf 41a0 82be
000002c0: fb56 cebe 0716 20bf b392 38bf af4b 25be
000002d0: fb62 4fbf a91d b1be 6c9c 22be b2b2 413e
000002e0: 5e7f 0dbf f320 36be 0902 56bf 65d1 b0bf
000002f0: 7801 37bf 6cf6 9dbe 8af6 aa3d 44a9 f9be
00000300: df47 593f 4c9c 0ebe e5c0 85be b672 32be
00000310: 431c ddbe 21ba 59bf 3e61 c5bd eb8a 0b3f
00000320: 0e6f 59bf 2f36 a7bf 4378 1fbf f883 a0bd
00000330: 090f dc3e 489d ffbe e130 30be 9045 54bf
00000340: 22a2 e6bd d846 cebc 7dbe 56bf c1e9 bf3e
00000350: 7349 8abe a4c3 e8bd 3586 e2be e391 9cbf
00000360: 8244 f5bd 1ee8 ddbc 867b aebe db50 56bf
00000370: 926e 093f cc3c 1cbf 3d4c f1bd cfdd fcbe
00000380: c7a1 2fbf 3871 6fbf 883b 28bf f15c 013f
00000390: fbaf c1be 1c80 c6bd 5c68 6dbf 2b83 a3bf
000003a0: 1b99 793e c769 923e c3c0 8abf 7434 0abf
000003b0: 4b47 39bf ed73 18bf c0aa 983e b81b 6fbf
000003c0: 9263 fcbe 64ed 76bf 030b 81bf 3ea0 80bf
000003d0: b87a 64bf e1e6 bebe 1777 51bf 7e33 67bf
000003e0: 0b07 1ebf d0c7 6abf 5fea 0fbe bcb2 763e
000003f0: 5ac6 9bbe 3093 b43e 2894 a8bf 588e 9abf

fc2.weight f4 [300, 404]
0.03912753 -0.11305927 -0.037473317 0.022270806 -0.06189318 0.010271369 -0.016001659 -0.022388449
0.025774349 0.008015951 -0.045045197 -0.006970754 -0.005016706 -0.05576896 -0.050970968 0.003244447
-0.061447386 0.032697503 -0.046475466 0.018724356 0.029313339 0.012563158 0.026483689 -0.036198307
0.013501449 -0.041478183 0.03886427 -0.07011839 -0.057640933 0.0013348326 -0.02872899 0.038011253
-0.04421123 -0.018396452 0.019673241 -0.047858644 -0.077084325 0.0010513655 0.03164119 0.020673497
0.00396583 0.018598761 0.004719264 -0.020567466 0.007946694 -0.037438422 0.029230101 -0.01888267
-0.06105187 -0.011737975 -0.012071336 0.042133376 -0.045739204 -0.062179513 0.035947185 0.0012914907
0.0057098116 0.024836468 -0.040903766 0.022822717 0.03932243 0.012311798 0.014573486 -0.046075158
-0.018550703 -0.0034462076 -0.017984012 -0.059292704 0.0026538433 -0.014613634 0.02436627 -0.0054543493
0.0072258394 -0.007474733 -0.015553426 -0.035279557 0.003895543 -0.04736274 0.0059521287 0.03600264
-0.011491817 -0.05871063 -0.014243571 -0.017779568 -0.05164607 0.014690688 -0.086959 -0.00027286026
-0.007816718 -0.03355323 -0.062381763 -0.016722703 -0.009866731 0.0016902993 -0.001968179 -0.0007802261
-0.013229554 -0.04765451 0.041912314 -0.042023275 0.0059751305 0.041518793 -0.027557705 0.035844985
-0.02493965 -0.009080511 -0.04243999 -0.04310611 -0.08789215 -0.0056236377 -0.020000549 -0.011010497
-0.060646076 0.019497177 -0.073677525 0.026112417 0.035468042 0.024265293 -0.07543437 0.0027885956
-0.008458096 -0.057285726 -0.026089814 0.04296917 -0.050099034 -0.05162205 0.04373377 0.017246382
-0.0066671395 -0.048547834 0.04331933 0.03241229 0.038389787 0.024664849 -0.028708944 -0.019730361
-0.03653854 -0.0041136285 -0.033474013 -0.04226276 0.018637493 -0.023042666 0.008378982 -0.024911446
0.0006003793 -0.03715955 -0.008026772 0.024984328 0.0003746255 -0.056545954 0.00071028835 -0.013991423
0.035534084 -0.011773287 -0.005203737 -0.022186143 -0.060553156 0.014881026 -0.06304187 -0.057491504
-0.02973512 0.03248445 0.0270196 -0.040794626 -0.013910765 0.013675218 0.038447496 -0.061744563
-0.03309765 -0.045292627 0.006228185 0.030509757 0.030968238 -0.031946443 -0.027886108 0.009957972
-0.008195793 -0.023404129 -0.049882714 0.047843132 -0.0032408745 0.025117533 -0.013894269 -0.030811945
-0.05300221 -0.0381979 0.019238787 -0.01771873 0.0080887675 -0.016063802 -0.055109397 -0.028665299
-0.026159022 -0.042196363 0.0022202013 -0.033533204 0.02283111 0.014312537 -0.036157154 -0.05768323
-0.030314362 -0.044643544 -0.02961025 0.030026084 -0.097157486 0.028832147 -0.0323882 -0.022826817
0.028725348 0.031661335 0.032614578 0.015205083 -0.04512246 0.03428256 -0.07597567 0.000113710754
-0.034896154 0.007972367 -0.01020348 -0.030775137 -0.0906323 -0.019312266 0.043025874 -0.02556794
0.0044676354 0.019523237 -0.0017177443 -0.002066897 -0.012260428 -0.0070491564 0.030968074 -0.027153142
0.039336633 -0.017674336 -0.071225844 -0.030031236 -0.0004956968 -0.04190762 -0.023759557 -0.0038778197
-0.02276322 0.031957485 0.028086808 -0.01948561 -0.05707257 -0.08613931 -0.043663155 -0.020024257
0.029339511 -0.05958836 -0.053404137 0.030394768 0.037415218 -0.008832621 -0.04663839 -0.053546324
00000000: 3044 203d 9e8b e7bd 9f7d 19bd 4471 b63c
00000010: b483 7dbd 3e49 283c e915 83bc fb67 b7bc
00000020: ba24 d33c 5655 033c 5081 38bd ec6a e4bb
00000030: 2e63 a4bb fe6d 64bd efc6 50bd caa0 543b
00000040: 41b0 7bbd d1ed 053d 0f5d 3ebd d263 993c
00000050: 8722 f03c b4d5 4d3c 52f4 d83c ad44 14bd
00000060: 2e35 5d3c 07e5 29bd 2430 1f3d 3b9a 8fbd
00000070: e618 6cbd 8df5 ae3a 0f59 ebbc b0b1 1b3d
00000080: d616 35bd 28b4 96bc c729 a13c 6d07 44bd
00000090: 63de 9dbd f9cd 893a 319a 013d 775b a93c
000000a0: cbf3 813b 6e5c 983c 0ea4 9a3b 1a7d a8bc
000000b0: da32 023c 0859 19bd f773 ef3c d4af 9abc
000000c0: 8711 7abd a350 40bc dac6 45bc 0c94 2c3d
000000d0: 0859 3bbd f2af 7ebd 5b3d 133d 3d47 a93a
000000e0: 5f19 bb3b d975 cb3c b58a 27bd b5f6 ba3c
000000f0: 8e10 213d 6cb7 493c a1c5 6e3c 4eb9 3cbd
00000100: a5f7 97bc c5d9 61bb 3553 93bc e8dc 72bd
00000110: 1aec 2d3b 066e 6fbc c69b c73c 66ba b2bb
00000120: bcc6 ec3b 9bee f4bb ccd3 7ebc 4c81 10bd
00000130: 5e4c 7f3b 6fff 41bd 130a c33b 8177 133d
00000140: 2d48 3cbc 8f7a 70bd de5d 69bc 75a6 91bc
00000150: d48a 53bd 36b1 703c 8f17 b2bd af0e 8fb9
00000160: b111 00bc 1d6f 09bd 0584 7fbd 0dfe 88bc
00000170: 12a8 21bc 088d dd3a 90fc 00bb 1688 4cba
00000180: c5c0 58bc 6031 43bd 3fac 2b3d 9920 2cbd
00000190: 07cb c33b 9c0f 2a3d b2c0 e1bc 31d2 123d
000001a0: 3d4e ccbc 6cc6 14bc 8ed5 2dbd 0890 30bd
000001b0: cd00 b4bd 7e46 b8bb 31d8 a3bc 5f65 34bc
000001c0: 0568 78bd 8bb8 9f3c 3ee4 96bd b5e9 d53c
000001d0: f046 113d 02c8 c63c 567d 9abd dfc0 363b
000001e0: d393 0abc 70a4 6abd 4eba d5bc 7100 303d
000001f0: a534 4dbd a571 53bd 2e22 333d 4948 8d3c
00000200: 0578 dabb 18da 46bd 9c6f 313d c0c2 043d
00000210: 9c3e 1d3d f00d ca3c 052f ebbc 91a1 a1bc
00000220: 70a9 15bd 9ecb 86bb 0c1c 09bd b71b 2dbd
00000230: a8ad 983c f9c3 bcbc ff47 093c 1713 ccbc
00000240: c662 1d3a 9d34 18bd b982 03bc efab cc3c
00000250: 6269 c439 bb9c 67bd a532 3a3a 483c 65bc
00000260: 308c 113d bfe4 40bc 1c84 aabb b7bf b5bc
00000270: 9606 78bd 8ccf 733c 191c 81bd 367c 6bbd
00000280: 1197 f3bc 6a0e 053d 3558 dd3c 4418 27bd
00000290: fae9 63bc 060e 603c 1f7b 1d3d dee7 7cbd
000002a0: 6791 07bd c384 39bd cd15 cc3b 99ef f93c
000002b0: 1ab1 fd3c 46da 02bd 6871 e4bc c326 233c
000002c0: a647 06bc 04ba bfbc d151 4cbd 29f7 433d
000002d0: da64 54bb 49c3 cd3c caa4 63bc 5569 fcbc
000002e0: d818 59bd 6775 1cbd a99a 9d3c df26 91bc
000002f0: c086 043c 3c98 83bc 64ba 61bd 7dd3 eabc
00000300: 724b d6bc 18d6 2cbd cc80 113b 1d5a 09bd
00000310: 4f08 bb3c 227f 6a3c 8619 14bd 4045 6cbd
00000320: d355 f8bc 26dc 36bd 3291 f2bc 43f9 f53c
00000330: 81fa c6bd 6531 ec3c 7da9 04bd 4eff babc
00000340: 6c51 eb3c 51af 013d dd96 053d be1e 793c
00000350: 54d2 38bd df6b 0c3d 2299 9bbd ff77 ee38
00000360: 45ef 0ebd 889e 023c 7f2c 27bc 241c fcbc
00000370: 6d9d b9bd c234 9ebc e63b 303d db73 d1bc
00000380: 3e65 923b 32ef 9f3c ef25 e1ba c774 07bb
00000390: f6df 48bc 9cfc e6bb c2b0 fd3c 4470 debc
000003a0: 731f 213d c5c9 90bc dbde 91bd 1104 f6bc
000003b0: a6f1 01ba 53a7 2bbd 67a3 c2bc 0523 7ebb
000003c0: ef79 babc dae5 023d 4e16 e63c 49a0 9fbc
000003d0: edc4 69bd ce69 b0bd 23d8 32bd e909 a4bc
000003e0: 6a59 f03c ed12 74bd 4cbe 5abd 73fe f83c
000003f0: b340 193d b3b6 10bc e507 3fbd 6453 5bbd

fc2.bias f4 [300]
-0.0467664 -0.09145853 -0.064768024 -0.06661287 -0.037035193 -0.06832521 -0.08277401 0.0030025917
-0.06504197 1.3297331 -0.10968842 0.36495525 -0.021446643 -0.07923892 -0.08967552 -0.010306627
0.0098667145 -0.01794315 -0.05230347 -0.056600478 -0.0788731 -0.013354744 -0.01695524 -0.017384347
-0.06874586 -0.07841979 -0.044715602 -0.063173935 -0.062814616 -0.014746519 -0.019451125 -0.039428204
-0.042141344 -0.086637445 -0.056094334 -0.12302847 -0.044473857 -0.10298029 -0.034848824 -0.072152115
-0.054980084 -0.032350972 -0.015209906 0.0016345907 -0.123832285 -0.032085206 -0.08012836 -0.017310014
-0.0804896 -0.068585865 -0.08167967 -0.04490643 -0.14386474 -0.32378227 -0.049953178 0.8848032
-0.05347115 -0.031817272 -0.012214358 1.677502 -0.1058388 -0.05214349 -0.014869871 -0.08729123
-0.034092367 -0.057808362 -0.013135537 -0.04317427 -0.07823115 -0.02057802 -0.041372336 -0.019139253
-0.07275897 -0.08390763 -0.014689686 -0.061508123 -0.0139796585 -0.06920026 -0.051576238 -0.06349694
-0.014328641 -0.07554363 -0.03888197 0.034230515 -0.024798743 -0.016303997 -0.02286135 -0.02627523
-0.08256643 0.0011042076 -0.05137036 -0.04205094 -0.062277187 -0.072093494 -0.10052601 -0.09215367
-0.09183115 -0.08994945 -0.048276637 -0.02775132 -0.006655587 -0.1107675 -0.10156317 0.011216819
-0.025995223 -0.04559995 -0.018123696 -0.070904344 -0.11670964 -0.08414275 -0.011469735 -0.0020268606
-0.076436676 0.00479979 -0.044044074 -0.077826254 -0.028086904 -0.037698615 -0.0540261 -0.072516866
-0.08138162 -0.058351226 -0.016321266 0.28231767 -0.041884113 -0.072307095 -0.013264492 -0.06595737
-0.10180366 -0.08316935 -0.035266012 0.0054299813 0.007238752 -0.17137179 -0.035546318 -0.04475615
-0.08318222 -0.087101236 -0.082385704 -0.07311059 -0.12048251 -0.0325661 -0.030446982 -0.042928126
-0.032344587 -0.074315004 -0.055756304 -0.08227103 -0.04151219 -0.08217351 -0.030929442 -0.100865684
-0.051661555 -0.054711137 -0.07315884 -0.109414004 -0.08622671 -0.10892652 -0.10459429 -0.058972396
-0.0497164 -0.05009165 0.28470558 -0.104336046 -0.087404974 -0.039525095 -0.06994811 -0.014112888
-0.07989137 -0.036031693 -0.039293416 -0.062879205 -0.057772547 -0.09982791 0.011626028 -0.019945994
-0.06968592 -0.09085358 0.53698325 -0.038140588 0.004155962 -0.11131654 -0.08022666 0.007921548
-0.023639174 0.01569019 -0.029852418 -0.084475674 0.020302389 0.0018723129 -0.07564191 -0.09932102
-0.0042918343 -0.047048565 -0.017820802 -0.032764405 -0.077901185 -0.090616666 -0.004100349 -0.053809486
-0.01583794 -0.06741054 -0.022213565 -0.00571812 0.013509045 -0.10334323 -0.06997581 -0.013742191
-0.05057949 -0.020808939 -0.07023886 -0.02976048 -0.05653845 0.0019734844 -0.09305941 -0.017844409
-0.037787322 -0.023283359 -0.0825186 0.34245583 -0.10311523 -0.038423747 0.02473324 -0.03216051
-0.077152506 -0.042456217 -0.037581597 -0.042174492 -0.032977317 -0.03133297 -0.029320499 -0.042601097
0.015053875 -0.03144929 -0.016671734 -0.045811396 -0.01540577 -0.06317824 -0.08480996 -0.09191894
-0.036825668 -0.027885692 -0.06807076 -0.085642084 -0.01949069 -0.0700863 -0.07797182 -0.032408796
-0.048449997 -0.06047766 -0.021387445 -0.070877425 -0.016875938 -0.053464126 -0.04389734 -0.033969186
00000000: 208e 3fbd 9c4e bbbd 19a5 84bd 546c 88bd
00000010: 37b2 17bd 16ee 8bbd 6c85 a9bd 21c7 443b
00000020: b934 85bd b234 aa3f 53a4 e0bd 6adb ba3e
00000030: dfb0 afbc 0448 a2bd cda7 b7bd 20dd 28bc
00000040: 00a8 213c 83fd 92bc 2a3c 56bd e7d5 67bd
00000050: 3888 a1bd dbcd 5abc b7e5 8abc 9e69 8ebc
00000060: a1ca 8cbd 8e9a a0bd b527 37bd 5661 81bd
00000070: f3a4 80bd 629b 71bc f757 9fbc 787f 21bd
00000080: 679c 2cbd f96e b1bd 2cc3 65bd 5af6 fbbd
00000090: 382a 36bd 55e7 d2bd a4bd 0ebd 7dc4 93bd
000000a0: cc32 61bd 7482 04bd f832 79bc c33f d63a
000000b0: c89b fdbd c76b 03bd 561a a4bd bbcd 8dbc
000000c0: bbd7 a4bd bf76 8cbd ac47 a7bd ceef 37bd
000000d0: 4751 13be cac6 a5be b49b 4cbd 7682 623f
000000e0: 9104 5bbd d452 02bd bb1e 48bc 63b8 d63f
000000f0: 03c2 d8bd 6a94 55bd c2a0 73bc bfc5 b2bd
00000100: 70a4 0bbd 76c8 6cbd 6f36 57bc 81d7 30bd
00000110: a737 a0bd 3c93 a8bc 0a76 29bd ecc9 9cbc
00000120: a802 95bd c3d7 abbd 02ad 70bc f1ef 7bbd
00000130: f00a 65bc deb8 8dbd 9b41 53bd af0a 82bd
00000140: adc2 6abc 9eb6 9abd b342 1fbd 4c35 0c3d
00000150: bc26 cbbc f68f 85bc ba47 bbbc 273f d7bc
00000160: 9718 a9bd 0fbb 903a ba69 52bd 9b3d 2cbd
00000170: 5d16 7fbd c1a5 93bd 95e0 cdbd 10bb bcbd
00000180: f811 bcbd 6b37 b8bd b9bd 45bd bc56 e3bc
00000190: 1c17 dabb 12da e2bd 5a00 d0bd c0c6 373c
000001a0: eff3 d4bc 03c7 3abd 2578 94bc 4c36 91bd
000001b0: 7705 efbd 0953 acbd 8eeb 3bbc 14d5 04bb
000001c0: d58a 9cbd 8f47 9d3b 8f67 34bd 5f63 9fbd
000001d0: 8216 e6bc dd69 1abd 794a 5dbd b983 94bd
000001e0: 68ab a6bd b201 6fbd 2db4 85bc f18b 903e
000001f0: ad8e 2bbd be15 94bd 5053 59bc a814 87bd
00000200: 707e d0bd b154 aabd 1873 10bd fced b13b
00000210: 0e33 ed3b 167c 2fbe 0499 11bd 3a52 37bd
00000220: 715b aabd 2262 b2bd d6b9 a8bd 01bb 95bd
00000230: 89bf f6bd 0864 05bd f36b f9bc 67d5 2fbd
00000240: c27b 04bd 7732 98bd b960 64bd b77d a8bd
00000250: b008 2abd 964a a8bd be5f fdbc ab92 cebd
00000260: 119b 53bd c918 60bd 4dd4 95bd 7314 e0bd
00000270: a197 b0bd de14 dfbd 8835 d6bd 0a8d 71bd
00000280: 6da3 4bbd e72c 4dbd eec4 913e 23ae d5bd
00000290: 6101 b3bd 11e5 21bd f440 8fbd be39 67bc
000002a0: 169e a3bd f895 13bd 22f2 20bd d0c6 80bd
000002b0: e8a2 6cbd 9372 ccbd 197b 3e3c c865 a3bc
000002c0: 7eb7 8ebd 7111 babd bc77 093f 4e39 1cbd
000002d0: bc2e 883b edf9 e3bd e04d a4bd 61c9 013c
000002e0: f1a6 c1bc b788 803c 0f8d f4bc 9501 adbd
000002f0: 3251 a63c 6568 f53a 25ea 9abd d268 cbbd
00000300: 84a2 8cbb ffb5 40bd eefc 91bc f833 06bd
00000310: a88a 9fbd 3b95 b9bd 385c 86bb 5667 5cbd
00000320: 91be 81bc 8a0e 8abd 39f9 b5bc 115f bbbb
00000330: 0b55 5d3c 9ea5 d3bd 7a4f 8fbd ed26 61bc
00000340: 702c 4fbd 8277 aabc 64d9 8fbd 40cc f3bc
00000350: dd94 67bd 9355 013b ef95 bebd 702e 92bc
00000360: e1c6 1abd bebc bebc 83ff a8bd 5f56 af3e
00000370: 142e d3bd 3862 1dbd 5d9d ca3c bdba 03bd
00000380: 2202 9ebd 92e6 2dbd 29ef 19bd 29bf 2cbd
00000390: 3913 07bd 0057 00bd 8b31 f0bc 7d7e 2ebd
000003a0: 87a4 763c f9d0 00bd 2993 88bc bba4 3bbd
000003b0: 7c68 7cbc 9863 81bd d8b0 adbd ff3f bcbd
000003c0: 83d6 16bd 8970 e4bc af68 8bbd 1e65 afbd
000003d0: f1aa 9fbc 6889 8fbd b1af 9fbd 16bf 04bd
000003e0: 8173 46bd 6cb7 77bd b934 afbc 2f28 91bd
000003f0: 683f 8abc 33fd 5abd b2cd 33bd 4623 0bbd

fc3.weight f4 [1, 300]
-0.018687353 0.037657805 -0.0070648347 0.025360238 0.018481506 0.002115552 0.0064779194 0.019161843
0.01762375 -0.010820328 0.028010566 0.013828489 0.0041367505 0.022893852 -0.02374892 0.0119579565
0.01041681 0.0018410212 -0.020115916 -0.013700399 -0.029391296 0.013421431 0.036388323 -0.02692445
-0.022827893 -0.019413622 0.0017347398 0.00837237 0.023001276 -0.009085421 0.02077548 0.016856613
0.010298576 0.025643557 0.0019700045 -0.0020834175 0.0034555078 0.0061641503 0.01689932 0.016470699
-0.01684758 0.0059246044 -0.03121782 -0.020306014 -0.007141328 0.01702073 0.00051329297 -0.01932614
-0.031605035 -0.015943408 0.0065142564 0.0046880785 -0.019918587 -0.02179469 -0.02534167 -0.014103803
0.005182269 -0.0029575762 -0.014408996 -0.01657722 0.017873246 0.021590222 -0.00047973264 -0.009667847
0.009312891 -0.0026044182 -0.00852704 -0.013986398 -0.023519227 0.013846422 -0.010361042 0.02545861
-0.00050707156 0.010788863 0.021278298 -0.0017090193 -0.011091422 -0.009807315 -0.01664238 0.03118432
0.015036756 0.020115912 0.01501919 0.031012552 0.0016032609 -0.009679349 0.019488242 0.016280543
0.01391909 0.019151017 0.012805327 0.015334012 -0.015401057 0.016634084 -0.00919575 0.02580174
0.019363178 0.011610525 0.02618968 -0.024441829 0.012198951 -0.00138733 0.019058513 -0.014414502
-0.017607385 0.0046324832 -0.0017201047 0.014754757 0.013182172 -0.02421063 0.013426567 0.000912943
-0.010765641 -0.0046035824 0.017084382 0.0020582937 0.0035524701 -0.0013801048 0.024012089 -0.015450723
-0.0022078028 0.0006906196 -0.026379034 -0.010623576 0.005098367 0.011701685 -0.011630897 -7.0480266e-05
-0.007257678 0.011141068 -0.009868189 -0.014382369 0.0023301702 -0.037354697 0.02712072 -0.014940752
0.016979398 -0.020701401 -0.01234364 -0.00079791027 -0.019265717 -0.005963633 -0.024077628 -0.0011872788
-0.007928416 0.012705236 0.016746657 0.010219306 -0.031157909 -0.022688268 -0.01684824 -0.019903397
0.009566175 0.011206957 0.009570101 -0.017461311 0.0103406655 -0.009998324 0.020388331 -0.012122656
-0.027902365 0.016393153 -0.021420227 0.004997564 0.018797465 0.028533792 0.0187176 -0.01703892
-0.008684977 0.008105184 -0.002176977 0.016115109 0.013072774 0.0180054 0.02329968 -0.012512483
0.021588419 -0.014704886 0.012887691 0.020970726 0.0005745197 0.0051972573 0.0006571529 0.0071769906
-0.02461473 -0.029179947 0.025119351 -0.028662622 -0.013643028 -0.019600766 0.020663267 0.0063321223
-0.026424918 0.014279879 0.017657664 0.02262879 0.02786558 -0.006344725 0.029003276 0.0115141915
0.0080419425 -0.008715227 -0.011652933 -0.0045108707 -0.011592943 0.01994052 -0.006371475 -0.018906087
-0.012993232 -0.01840569 -0.008434489 0.022139706 0.020860096 0.0012523554 0.025415538 0.001778752
-0.022919424 -0.01390579 -0.0031152344 -0.020845871 0.00509412 -0.002481621 0.0093463 0.013200211
0.002618987 -0.011136893 0.026036508 0.001794464 -0.0047604986 0.00044532612 -0.015677556 -0.025456708
0.008867873 0.0044445833 0.01760417 -0.0010553683 -0.005744326 -0.006394003 0.012298824 -0.014221121
-0.02075465 0.007925104 0.031597074 0.014159044 0.007382156 0.030287193 0.017772496 0.0013431768
-0.02857223 0.0028028924 -0.022978464 0.0028739818 -0.029460406 0.009418497 0.0010768803 0.023803508
00000000: 3816 99bc 123f 1a3d 2180 e7bb 46c0 cf3c
00000010: 8766 973c 13a5 0a3b ba44 d43b 4cf9 9c3c
00000020: af5f 903c bf47 31bc 6a76 e53c e390 623c
00000030: 948d 873b e38b bb3c 188d c2bc 4eeb 433c
00000040: 45ab 2a3c 6c4e f13a 22ca a4bc a377 60bc
00000050: 04c6 f0bc 90e5 5b3c ec0b 153d aa90 dcbc
00000060: 9001 bbbc 5109 9fbc 3560 e33a 442c 093c
00000070: 2c6d bc3c 05db 14bc 5731 aa3c e116 8a3c
00000080: 5cbb 283c 7012 d23c 311b 013b f289 08bb
00000090: cd75 623b a4fc c93b 7170 8a3c 8fed 863c
000000a0: f003 8abc 2f23 c23b 83bc ffbc cc58 a6bc
000000b0: cd01 eabb 0f6f 8b3c 828e 063a da51 9ebc
000000c0: 4874 01bd c09b 82bc 8b75 d53b 749e 993b
000000d0: 4e2c a3bc c78a b2bc 5599 cfbc a313 67bc
000000e0: 06d0 a93b e5d3 41bb b613 6cbc f3cc 87bc
000000f0: ea6a 923c fadd b03c a084 fbb9 e465 1ebc
00000100: 1995 183c e3ae 2abb ffb4 0bbc 3427 65bc
00000110: 65ab c0bc 1adc 623c 5cc1 29bc 938e d03c
00000120: ffec 04ba c5c3 303c d34f ae3c 2c01 e0ba
00000130: ccb8 35bc dcae 20bc 9a55 88bc 4276 ff3c
00000140: ba5c 763c 20ca a43c 0c13 763c 090e fe3c
00000150: 8224 d23a 2296 1ebc cea5 9f3c c65e 853c
00000160: e50c 643c 98e2 9c3c 6fcd 513c 823b 7b3c
00000170: b754 7cbc 3444 883c c5a9 16bc 2c5e d33c
00000180: 879f 9e3c 123a 3e3c bd8b d63c 3b3a c8bc
00000190: 1cde 473c 12d7 b5ba 9920 9c3c ce2a 6cbc
000001a0: 5d3d 90bc 16cc 973b 2375 e1ba f0bd 713c
000001b0: 09fa 573c 5f55 c6bc 1bfb 5b3c 9152 6f3a
000001c0: 5f62 30bc a6d9 96bb 8cf4 8b3c 70e4 063b
000001d0: 8fd0 683b a2e4 b4ba 00b5 c43c 0725 7dbc
000001e0: c9b0 10bb b20a 353a d818 d8bc 820e 2ebc
000001f0: 3410 a73b 6db8 3f3c 858f 3ebc cece 93b8
00000200: d1d1 edbb 0789 363c 2fae 21bc 07a4 6bbc
00000210: c5b5 183b 3d01 19bd 462c de3c 0eca 74bc
00000220: 6118 8b3c fc95 a9bc fb3c 4abc da2a 51ba
00000230: 23d3 9dbc 946a c3bb 723e c5bc 779e 9bba
00000240: 30e6 01bc 9f29 503c 4930 893c e06e 273c
00000250: df3e ffbc bfdc b9bc 5205 8abc 730c a3bc
00000260: 72bb 1c3c 629d 373c eacb 1c3c 060b 8fbc
00000270: e56b 293c 03d0 23bc 6e05 a73c 1b9e 46bc
00000280: 8093 e4bc ef4a 863c 7979 afbc 9bc2 a33b
00000290: 24fd 993c b3bf e93c a755 993c 3595 8bbc
000002a0: 6f4b 0ebc 9bcb 043c 9dab 0ebb d503 843c
000002b0: 302f 563c 1080 933c f8de be3c 2801 4dbc
000002c0: 32da b03c c3ec 70bc e526 533c cdca ab3c
000002d0: 5d9b 163a c14d aa3b c944 2c3a f62c eb3b
000002e0: d5a4 c9bc c90a efbc 19c7 cd3c e0cd eabc
000002f0: 0287 5fbc c991 a0bc 0346 a93c b17d cf3b
00000300: 1279 d8bc 27f6 693c cea6 903c 0360 b93c
00000310: 5b46 e43c 69e7 cfbb 4798 ed3c 05a6 3c3c
00000320: 5ac2 033c 50ca 0ebc f2eb 3ebc edcf 93bb
00000330: 54f0 3dbc 4d5a a33c cec7 d0bb f0e0 9abc
00000340: 91e1 54bc 88c7 96bc d030 0abc 545e b53c
00000350: cbe2 aa3c 1326 a43a 3f34 d03c 0325 e93a
00000360: 84c1 bbbc 1cd5 63bc f628 4cbb f6c4 aabc
00000370: 93ec a63b b1a2 22bb 3921 193c b345 583c
00000380: 50a3 2b3b 8477 36bc 844a d53c 3834 eb3a
00000390: f5fd 9bbb a97a e939 386e 80bc 968a d0bc
000003a0: 8e4a 113c dea3 913b 9f36 903c 4954 8aba
000003b0: e63a bcbb c984 d1bb 0281 493c b4ff 68bc
000003c0: a805 aabc 4cd8 013c ef6b 013d 56fb 673c
000003d0: 03e6 f13b d91c f83c a097 913c 890d b03a
000003e0: 4f10 eabc bbb0 373b 553d bcbc 6a59 3c3b
000003f0: f356 f1bc 0a50 1a3c 1b26 8d3a 93ff c23c
