saved_agents/critic_target_0.pth (torch_old, 566674 bytes, 5 tensors)

fcs1.weight f4 [400, 48]
000000 83 5d 3b 3f bf af b1 bd 98 dd 8f bd 24 6a 07 be
       0.7318956 -0.08676099 -0.070246875 -0.13224083
000010 01 e3 b9 bb 08 a6 8e bf ae dc 51 bc 28 b0 1c be
       -0.005672813 -1.1144419 -0.012808962 -0.15301573
000020 7d e4 3e 3f 9a d6 92 be 6c 4a 4f be 67 f8 88 3b
       0.74567395 -0.28679353 -0.20243233 0.0041800025
000030 c7 7a ab bd d4 5a 6f bf 8d 54 14 be 22 84 0a bd
       -0.08373027 -0.9349797 -0.14485379 -0.033817418
000040 37 1c a2 3f 91 b9 14 be 7d 76 a5 3d 08 e3 a0 3e
       1.266486 -0.14523913 0.080792405 0.3142321
000050 f8 24 82 be fc d2 41 bf 7c 3d fd 3c 39 0b 6d 3e
       -0.2541883 -0.7571256 0.030913107 0.23148812
000060 e6 01 61 3d a0 fe f6 3f 3d 78 95 3d f9 f2 19 3e
       0.05493345 1.9296455 0.07298324 0.15034093
000070 5e 1e 06 bc 92 6a 98 bf b9 7e 0a 3d fd f5 1e 3e
       -0.008185951 -1.1907523 0.03381226 0.15523525
000080 6d 6d 9d 3e 41 17 e3 3f 05 e6 20 ba db ed 90 3d
       0.30747548 1.7741472 -0.0006137791 0.07076617
000090 b6 d2 e8 3d 16 b9 68 bf d0 e0 68 ba 8c 41 44 3d
       0.11368315 -0.9090742 -0.00088835973 0.047914073
0000a0 63 97 e3 3e d4 c7 c2 3f 62 d4 5c bd 37 3c 0a bd
       0.44451436 1.5217233 -0.05391348 -0.03374883
0000b0 27 3c 90 3e 24 e1 3e bf 95 ea 38 bd 11 a8 b7 3c
       0.28170893 -0.7456229 -0.04514559 0.022419007
0000c0 d6 f7 5e 3f 41 be f7 3d 61 94 1c bd 63 1a 93 bd
       0.8709692 0.12096835 -0.038227443 -0.07182767
0000d0 a8 4b 23 be 6f f1 8d bd 42 fd c2 bd 82 c1 61 3a
       -0.1594683 -0.069308154 -0.09520961 0.0008611904
0000e0 7c e3 67 3f 6b 19 af bd ff 95 74 bd 82 f7 11 be
       0.9058149 -0.0854977 -0.05971336 -0.14254573
0000f0 34 9a dd 3d d9 41 34 3e b7 ee 68 bd 5d 83 15 be
       0.108204275 0.17603244 -0.05686828 -0.14600892
000100 e6 a8 77 3f ab 78 35 be 7e c0 c5 bc b1 0a cf be
       0.96742094 -0.17721812 -0.024139639 -0.40437844
000110 5c 71 0a be 8a 94 a3 3d da 15 e5 bc 17 ea d3 be
       -0.13519806 0.07987316 -0.027964521 -0.41389534
000120 2a 3d 25 3e d4 b4 f0 be 0c 7d b2 3b 39 b5 b5 3d
       0.16136613 -0.4701296 0.0054470357 0.08872456
000130 6e cf 36 3e d4 05 ba bd 9e 5d 92 3c da 15 d9 3d
       0.17852566 -0.09083143 0.017866906 0.10599871
000140 c8 59 90 3e d7 32 c9 be 24 02 e7 3d 53 4b 9b 3e
       0.28193498 -0.392966 0.11279705 0.30330905
000150 cb 62 c3 bd e8 a4 62 3e 17 a6 7e 3d 33 b8 69 3e
       -0.09540328 0.22133219 0.062170114 0.22824173
000160 b9 41 9c 3e 30 53 6a be e4 27 ba bc 63 3d d2 3e
       0.30518892 -0.22883296 -0.0227241 0.4106246
000170 3d 81 bd 3d c1 61 d7 3d 07 12 0e bd 90 b0 b0 3e
       0.09253166 0.10516692 -0.03468516 0.34509706
000180 77 ec 18 be 4b 4e 40 3f 91 a5 bf bc 5e 4d a9 3e
       -0.14933954 0.75119466 -0.023394378 0.3306684
000190 c5 4f 99 bd 4e 90 2c bf 7a b0 18 bd 01 c7 bd 3e
       -0.07485918 -0.6740769 -0.037277676 0.3706589
0001a0 1d 87 09 3e 2c 38 65 3f b8 6c 44 bd 9d 1d e2 3e
       0.13430448 0.89538836 -0.047955245 0.44163218
0001b0 2a 5b 5d 3e ce be 83 bf 31 f6 00 bd 83 49 d7 3e
       0.21616808 -1.0292604 -0.031484786 0.42048272
0001c0 3d 6c a8 3e 15 50 6c 3f ca b1 0b bc 1e 86 13 be
       0.3289508 0.92309695 -0.008526275 -0.1440663
0001d0 d9 3a f8 3e 46 8a e3 bf b0 96 7b bd 9a e6 1f be
       0.48482397 -1.7776573 -0.061423004 -0.15615311
0001e0 f6 87 72 be 96 1e 5b bf 1e 35 81 3c 2a fa b0 be
       -0.23684677 -0.85593545 0.015772399 -0.3456586
0001f0 9f 1e 81 3d 8f 7c 13 bf c9 9a 63 3d 4e 40 94 be
       0.06304669 -0.57611936 0.055567537 -0.2895531
000200 b1 34 19 be 61 80 07 bf ae 13 c8 3b c9 42 2e 3e
       -0.14961506 -0.52930266 0.0061058616 0.17017664
000210 a3 a1 1f be 8c a6 8b bf 20 9d 4c 3b 6b ec 30 3e
       -0.15589003 -1.0910201 0.0031221583 0.17277686
000220 28 a7 b8 bd 48 31 eb be b6 8b b4 bc 17 ad 24 3e
       -0.090162575 -0.45936036 -0.022039276 0.16081654
000230 22 e1 0c bf 58 da de bf 3b 2c 0d bd f6 12 35 3e
       -0.55031025 -1.7410383 -0.03446601 0.17683014
000240 2e dd 38 3d 5b 26 3e 3f 0e f3 87 bc bf a6 4b be
       0.04513281 0.74277276 -0.01659539 -0.19887827
000250 fc f9 94 bd 92 24 eb be 3f 2c 0e bd b1 f3 10 be
       -0.07274243 -0.45926338 -0.034710165 -0.14155461
000260 a5 10 d1 3e 5e 7c 66 3f 75 8f 21 bd c3 5e c7 3e
       0.4083301 0.9003352 -0.039443452 0.38939485
000270 83 c9 72 bd e5 bb c5 be 8e d4 b8 bd e6 ec c4 3e
       -0.059274208 -0.38619915 -0.090249166 0.3846199
000280 41 b3 fb 3e 38 86 89 3f 50 d5 94 bd ac 12 2e 3f
       0.49160197 1.0744085 -0.07267249 0.6799724
000290 25 cb a6 3d 62 ee 02 be 70 8c 4a bd fc b5 30 3f
       0.081442155 -0.12786248 -0.049450338 0.69027686
0002a0 fb 88 a7 3f 0e 28 cc be 98 17 c8 3c 2e 31 1d bd
       1.3088678 -0.3987431 0.024425313 -0.03837698
0002b0 7f 2a 81 3d 0c c1 fd be ee ec 85 3d c3 f8 3f bd
       0.063069336 -0.49561346 0.065393314 -0.046868097
0002c0 10 5f a8 3f 2d 70 a9 be db 37 78 3d 3c b8 09 3f
       1.3154011 -0.33093396 0.060600143 0.53796744
0002d0 d7 10 d3 bc 5a d1 b8 be 7d d3 a3 3c 6e 55 05 3f
       -0.025764866 -0.36097223 0.019998306 0.5208348
0002e0 68 c3 aa 3f ae 7a 90 bd a3 08 00 bd c4 70 73 3f
       1.3340883 -0.07054649 -0.031258237 0.9509394
0002f0 01 2e 02 be 7e 34 1e be 53 64 4d bd 4a 0d 73 3f
       -0.12712862 -0.15449712 -0.050144505 0.9494215
000300 83 d0 aa bc b5 10 65 3f 59 c3 7e 3d 23 7b c6 be
       -0.02085138 0.8947862 0.062198017 -0.3876582
000310 aa 39 b2 3e 14 78 d5 be 57 a7 4b bc 9e 19 ae be
       0.3480962 -0.41693175 -0.012430034 -0.3400392
000320 4c 1f 40 3e 96 d0 56 3f cb 4d ab bd 6d b1 26 3f
       0.18761939 0.83912027 -0.08364447 0.6511448
000330 90 fe 9c 3d 36 40 0b bf f5 dc 96 bd e2 ec 39 3f
       0.076657414 -0.54394853 -0.07366363 0.7262708
000340 b1 59 74 3e a8 16 7f 3f c8 5c 33 bd 39 eb 00 3f
       0.2386234 0.99643946 -0.043789655 0.5035892
000350 ed 21 f5 3d d8 ae 39 bf 98 64 97 bd b6 be 02 3f
       0.119693615 -0.72532415 -0.073922336 0.5107225
000360 24 0f 88 bb fe fb 32 be ce 05 82 3d bb af 5e 3f
       -0.0041521955 -0.1747894 0.063487634 0.86986893
000370 e7 37 b6 be 0f 85 e2 be ba a2 82 3b b7 17 69 3f
       -0.35589525 -0.4424214 0.0039866837 0.9105181
000380 22 2f 74 3e d4 60 64 bc a3 e9 c5 3a 01 b2 fe 3e
       0.23846105 -0.013939101 0.0015099536 0.4974518
000390 5d 83 e3 bd 15 4d 0d bf 6a ee 1e bd dc 15 dd 3e
       -0.1110904 -0.5519574 -0.038801588 0.4318074
0003a0 09 11 ee 3e 04 5f c4 3d e1 e0 9b bd b7 95 87 3e
       0.46497372 0.09588435 -0.076112516 0.2648141
0003b0 9a a7 e9 bd 6e 52 4e bf 2c 9b eb bc 2e ef 8d 3e
       -0.114089206 -0.8059453 -0.028760515 0.27721542
0003c0 6d cc 0d 3e 15 f0 0f 3e 0d 3d 02 bc 85 f1 9b 3d
       0.13847513 0.14056428 -0.007949126 0.076144256
0003d0 99 48 5f 3d 31 78 cc bd a0 e0 b2 bc fd be 03 bc
       0.054512594 -0.09983862 -0.021835625 -0.008041141
0003e0 e0 71 39 3e 80 43 3b 3e 30 a4 4d bb e1 06 cf bc
       0.18109846 0.18287468 -0.003137838 -0.025271835
0003f0 40 0d 43 3c ec de 0c be 0f ef 27 3a c6 41 98 bd
       0.0119050145 -0.13756913 0.0006406167 -0.0743442

fcs1.bias f4 [400]
000000 dd b1 32 bf b8 05 8e 3e 9e 42 33 bf 22 33 50 bf
       -0.6980265 0.27738738 -0.70023525 -0.8132802
000010 a9 02 23 bf af f7 a4 bd 39 3a 94 bf 1f e4 76 bf
       -0.63675934 -0.080550544 -1.1580268 -0.96441835
000020 a3 44 65 be 21 8a 4f be 9d 0d 86 be 1d f2 63 3d
       -0.22389464 -0.20267536 -0.2618226 0.05565082
000030 77 10 21 be 98 05 b4 bd e0 af 9d be 2f 71 d9 be
       -0.15728937 -0.087901294 -0.30798244 -0.42469165
000040 71 d5 ca bd 36 65 16 be 3a 04 92 bf 6b 64 55 bf
       -0.09903992 -0.14687046 -1.140754 -0.8335635
000050 b7 5f 8a 3e 1f 2f 07 be 40 6e 05 bf 5e 00 1c bc
       0.2702615 -0.13201569 -0.52121353 -0.009521572
000060 69 4d 7e be 13 31 ef be b6 62 43 bf 73 22 b2 3e
       -0.24834217 -0.46717128 -0.76322496 0.34791908
000070 cb 39 99 bf b1 e6 17 bf 37 67 b3 be e2 4d 58 bd
       -1.1970762 -0.5933638 -0.35039684 -0.05280865
000080 90 01 74 bf 3f 8a 35 be 45 5c 85 be 77 37 42 bf
       -0.95314884 -0.17728518 -0.2604696 -0.7586588
000090 40 3f 6d bf 5b 78 b4 bf 09 3f 62 bf 75 ca c2 be
       -0.92674637 -1.409923 -0.88377434 -0.38045087
0000a0 52 7d a6 bf c6 53 ba bf 38 28 a6 bf 9c 3b 1b be
       -1.3006995 -1.4556816 -1.2981024 -0.15159458
0000b0 6c 73 ed be 7c cd 67 bf 19 83 16 bf d7 f6 ae bf
       -0.46377122 -0.9054792 -0.5879379 -1.366908
0000c0 0a 01 5a bf b7 e7 03 bf d5 46 0d be 70 04 3f be
       -0.85157835 -0.51525444 -0.13796552 -0.18654037
0000d0 c4 bb f1 3d 50 2b 2a bc 4d 65 0d bf cc 11 ba be
       0.118033916 -0.010386303 -0.552327 -0.36341703
0000e0 f7 1f c6 be 66 44 96 be 46 2c 21 bf 67 e7 ce 3d
       -0.38696262 -0.2934906 -0.6295818 0.1010273
0000f0 69 e6 c6 be 5b 52 33 be a5 c8 14 be 26 63 e3 bd
       -0.38847664 -0.17511885 -0.14529665 -0.111028954
000100 16 cf 6e be a4 01 a5 bf fc b6 90 bd 4e 0c af bf
       -0.23321185 -1.2891126 -0.070661515 -1.367563
000110 51 9d f8 be 19 d1 42 bd e6 56 95 be 5d 41 e8 3e
       -0.48557523 -0.047562692 -0.2916786 0.45362368
000120 4a 4f 9b bf ec 4b 59 bf 2e 73 ef be 21 b6 bf be
       -1.2133572 -0.8488147 -0.46767563 -0.3744364
000130 a6 1a 79 bf 9f 57 78 bf 32 d3 8d 3c e8 e1 34 be
       -0.9730629 -0.970087 0.01731262 -0.17664301
000140 61 3f a3 bf f3 5f 9c bf 4b 36 78 bf dc 8c 76 be
       -1.2753717 -1.2216781 -0.96957844 -0.24077171
000150 9a f8 11 bf cb f0 e7 bf 59 c7 0e 3e cd c0 af bf
       -0.5701996 -1.8120359 0.13943233 -1.3730713
000160 ea 35 b7 be 11 30 8e bf 30 31 86 bf 96 b8 60 3f
       -0.3578332 -1.1108419 -1.0483761 0.87781656
000170 4f 7b 6e bf a1 a5 9a bf 17 86 a9 be d7 db a2 be
       -0.93156904 -1.2081796 -0.33110115 -0.3180835
000180 ca 30 b2 be b6 1b 06 bf 49 5a 48 be ee ff 88 3e
       -0.34802848 -0.52386034 -0.19565691 0.2675776
000190 8d ee 0c be 02 ed 19 bf 92 3f 5d 3e 09 93 4a be
       -0.13762875 -0.6012727 0.21606281 -0.19782652
0001a0 3e 8b 07 bf c2 fd 61 bf 56 96 f3 be a2 8b 55 bf
       -0.5294684 -0.8827783 -0.47575635 -0.8341619
0001b0 9a fb 6a bf 02 97 35 bf 1e 84 9e be 62 d9 2d bf
       -0.91790164 -0.70933545 -0.30960172 -0.67909825
0001c0 6f 9b aa bd e9 4a a2 bf 25 17 90 3e 1d 7e 86 bd
       -0.08330428 -1.2679111 0.28142658 -0.06567023
0001d0 d1 61 21 bf 0d e8 e5 be 93 61 62 bf 2f 73 67 bf
       -0.6303988 -0.44903603 -0.88430136 -0.9041013
0001e0 d0 a2 9d 3d fd c5 86 be 9e cb 90 bd 5f db 97 bf
       0.0769707 -0.26322928 -0.07070087 -1.1863822
0001f0 fe 67 86 bf d6 e6 db 3d 5b b0 18 bf e3 e2 34 bf
       -1.0500486 0.10737388 -0.596441 -0.706587
000200 da c9 d7 bd c9 c8 1c 3d 3a a5 64 bf ba 6a 52 be
       -0.10536547 0.03827742 -0.89314616 -0.20548525
000210 20 88 02 bf c1 58 74 bd 66 72 1f be 2d 68 f0 bf
       -0.5098896 -0.059654955 -0.15570983 -1.8781792
000220 bc cd 24 3f 42 ad 52 bd 85 d9 1b bc be 2e 0b bf
       0.64376426 -0.051434763 -0.00951231 -0.543682
000230 7d 24 07 bf 3c 3e 74 be b2 9e 50 be 83 01 ce bf
       -0.5279005 -0.23851866 -0.20373037 -1.6094211
000240 c9 93 5a bf c9 c9 b2 be 4c d2 4b 3e 5c dc b7 3d
       -0.8538175 -0.34919575 0.1990444 0.08977577
000250 2a b9 01 3f 71 18 44 bf 7a a3 ed be a1 aa 57 be
       0.5067316 -0.76599795 -0.46413785 -0.21061184
000260 3a 04 54 bd d2 73 19 bf 07 0f 6d bf e2 91 55 be
       -0.051761843 -0.5994235 -0.92601055 -0.20856431
000270 59 4e 44 be 46 f5 99 be 1d 1a b2 bd ea 17 3a be
       -0.19170512 -0.3006994 -0.08696387 -0.18173185
000280 39 52 c7 bd 09 46 1b bf 58 a1 99 bf 00 e8 95 3e
       -0.097324796 -0.6065374 -1.2002363 0.29278564
000290 6f 5c a8 be a2 df ad bd 58 dd 8e bf b3 7f 48 3c
       -0.3288302 -0.0848992 -1.1161299 0.012237477
0002a0 e0 6a 36 bf 9e 00 9d bf 0a 46 e6 be f9 6c 4e be
       -0.7125683 -1.2265813 -0.4497531 -0.20158757
0002b0 3e 19 92 be d6 b1 54 bf 0f 4d 77 bf 6e f3 86 be
       -0.28534883 -0.83083856 -0.9660196 -0.26357597
0002c0 04 40 cf be 3f 2e 1d bf 41 8c 38 bf 47 4b 25 be
       -0.40478528 -0.6139869 -0.7208901 -0.16141997
0002d0 be b9 4f bf d6 77 ae be c7 9b 22 be 5f a9 40 3e
       -0.81142795 -0.34075803 -0.15879737 0.1881461
0002e0 d7 c3 0c bf a8 20 36 be 7f b3 55 bf ae 63 b0 bf
       -0.5498633 -0.17785895 -0.83477014 -1.378042
0002f0 50 11 36 bf 89 f6 9d be 87 88 ac 3d f4 a8 f9 be
       -0.71120167 -0.30852154 0.08424478 -0.48761714
000300 14 8b 58 3f 3d 9c 0e be 45 c0 85 be c3 42 31 be
       0.84587216 -0.13926788 -0.26123253 -0.17310624
000310 66 71 e0 be ff 19 59 bf d4 48 ce bd ec 08 0c 3f
       -0.43836516 -0.8480529 -0.100724846 0.54701114
000320 d0 89 58 bf 04 75 a7 bf d0 db 21 bf d7 83 a0 bd
       -0.84585285 -1.3082585 -0.6322603 -0.078376465
000330 77 f5 db 3e f5 2a 00 bf 58 30 30 be 72 d9 54 bf
       0.42960712 -0.5006555 -0.17205942 -0.83144295
000340 db a1 e6 bd b1 46 ce bc 2e ea 56 bf d2 39 bf 3e
       -0.1126134 -0.025180193 -0.8395108 0.373488
000350 2e da 8b be 2b c3 e8 bd 55 bc dd be 38 87 9c bf
       -0.27314895 -0.1136535 -0.43307748 -1.2228765
000360 f4 43 f5 bd 7a e7 dd bc 2c 2b af be ac a3 57 bf
       -0.11975852 -0.027087916 -0.34212625 -0.8423412
000370 e3 95 09 3f a0 ee 1a bf 8c 4b f1 bd 9f 9b fa be
       0.53744334 -0.6052036 -0.117819875 -0.48946854
000380 3a 0b 2e bf fd 59 71 bf b0 88 27 bf c0 88 01 3f
       -0.6798588 -0.94277936 -0.65442944 0.5059929
000390 ec 3f c0 be 11 80 c6 bd 42 5d 6d bf 2b 05 a3 bf
       -0.3754877 -0.096923955 -0.92720425 -1.2735952
0003a0 b4 49 72 3e 2f 2d 92 3e 2c 64 8a bf 82 cb 08 bf
       0.23660928 0.28550097 -1.081182 -0.5343553
0003b0 da 5e 38 bf db 74 18 bf df 91 97 3e d5 ba 6f bf
       -0.7201973 -0.5955331 0.29603478 -0.9364446
0003c0 36 87 f6 be a7 83 76 bf d0 81 81 bf 7c 8a 80 bf
       -0.48150033 -0.96294636 -1.0117741 -1.0042262
0003d0 42 13 5f bf 1c 19 be be ad 49 51 bf 85 e5 66 bf
       -0.8713876 -0.37128532 -0.81753045 -0.9019397
0003e0 bc b7 1d bf e7 be 6a bf 06 34 10 be 7b 50 7b 3e
       -0.6160848 -0.91697544 -0.14082345 0.2454242
0003f0 c6 c5 9b be c1 e2 b6 3e c5 71 a8 bf f5 a2 9a bf
       -0.30424327 0.35719875 -1.315972 -1.208098

fc2.weight f4 [300, 404]
000000 c7 43 20 3d 73 8b e7 bd 66 7d 19 bd 20 71 b6 3c
       0.039127138 -0.11305895 -0.037473105 0.02227074
000010 ac 83 7d bd ae 49 28 3c 3c 16 83 bc c7 68 b7 bc
       -0.06189315 0.010271473 -0.016001813 -0.022388829
000020 c9 24 d3 3c 84 55 03 3c 07 82 38 bd ab 6a e4 bb
       0.025774376 0.008015994 -0.04504588 -0.0069707236
000030 77 62 a4 bb 92 6e 64 bd 8a c6 50 bd 41 a1 54 3b
       -0.0050166207 -0.05576951 -0.05097059 0.0032444748
000040 b4 af 7b bd 5c ee 05 3d 78 5c 3e bd 65 64 99 3c
       -0.06144686 0.03269802 -0.046474904 0.01872463
000050 ab 22 f0 3c 69 d5 4d 3c 11 f5 d8 3c 75 45 14 bd
       0.029313406 0.012563088 0.026484044 -0.036199052
000060 59 35 5d 3c 66 e5 29 bd c5 30 1f 3d 25 9a 8f bd
       0.013501489 -0.041478537 0.03886487 -0.070118226
000070 4b 18 6c bd 7f f5 ae 3a e3 58 eb bc 3d b2 1b 3d
       -0.057640355 0.001334831 -0.028728908 0.03801178
000080 07 17 35 bd 1e b4 96 bc 3e 2a a1 3c 41 07 44 bd
       -0.044211414 -0.018396433 0.019673463 -0.04785848
000090 b6 dd 9d bd 8c ce 89 3a 8c 9a 01 3d e6 5b a9 3c
       -0.07708304 0.0010513826 0.031641528 0.020673703
0000a0 9d f3 81 3b 1d 5d 98 3c b5 a4 9a 3b 77 7c a8 bc
       0.0039658085 0.018599087 0.0047193416 -0.020567162
0000b0 e4 32 02 3c ae 58 19 bd 72 74 ef 3c a6 af 9a bc
       0.007946704 -0.037438087 0.02923033 -0.018882584
0000c0 dc 10 7a bd 79 50 40 bc 21 c6 45 bc 1e 94 2c 3d
       -0.061051235 -0.011737936 -0.012071163 0.042133443
0000d0 98 58 3b bd 73 b0 7e bd 65 3d 13 3d 96 47 a9 3a
       -0.045738786 -0.062179994 0.035947222 0.0012915011
0000e0 17 1a bb 3b 99 75 cb 3c 47 8a 27 bd 28 f6 ba 3c
       0.0057098973 0.024836348 -0.040903356 0.022822455
0000f0 3e 11 21 3d 80 b7 49 3c 3a c6 6e 3c b7 b9 3c bd
       0.039323084 0.012311816 0.014573628 -0.04607555
000100 55 f8 97 bc a3 d9 61 bb 45 53 93 bc 54 dc 72 bd
       -0.018551031 -0.0034461997 -0.017984042 -0.059292153
000110 df eb 2d 3b 6b 6d 6f bc 70 9c c7 3c 58 ba b2 bb
       0.0026538295 -0.01461349 0.024366587 -0.005454343
000120 4a c7 ec 3b cb ee f4 bb 9c d3 7e bc 65 81 10 bd
       0.0072259055 -0.0074747554 -0.015553381 -0.03527965
000130 b3 4c 7f 3b b8 ff 41 bd 20 0a c3 3b fd 77 13 3d
       0.0038955628 -0.047363013 0.0059521347 0.0360031
000140 a8 47 3c bc f3 7a 70 bd a2 5e 69 bc 25 a7 91 bc
       -0.011491694 -0.058711004 -0.014243754 -0.017779896
000150 21 8b 53 bd a3 b1 70 3c 10 17 b2 bd 4d 0e 8f b9
       -0.051646356 0.014690789 -0.08695805 -0.0002728574
000160 63 11 00 bc 3c 6f 09 bd 2b 84 7f bd f5 fd 88 bc
       -0.007816645 -0.033553347 -0.062381905 -0.016722659
000170 07 a8 21 bc da 8c dd 3a f5 fb 00 bb d1 87 4c ba
       -0.009866721 0.0016902939 -0.0019681428 -0.00078022206
000180 ba c0 58 bc 31 31 43 bd 17 ac 2b 3d 7f 20 2c bd
       -0.013229543 -0.047654334 0.041912165 -0.04202318
000190 51 ca c3 3b 5e 10 2a 3d a3 c0 e1 bc 96 d1 12 3d
       0.0059750457 0.041519515 -0.027557677 0.035844408
0001a0 01 4e cc bc 25 c7 14 bc 37 d5 2d bd 6f 90 30 bd
       -0.024939539 -0.009080683 -0.042439666 -0.043106493
0001b0 20 00 b4 bd a7 46 b8 bb 2f d8 a3 bc e8 64 34 bc
       -0.08789086 -0.005623657 -0.020000545 -0.011010386
0001c0 dc 67 78 bd b5 b8 9f 3c c6 e3 96 bd 29 ea d5 3c
       -0.060645923 0.019497255 -0.07367663 0.026112633
0001d0 46 46 11 3d b8 c8 c6 3c de 7c 9a bd 97 c1 36 3b
       0.03546741 0.024265632 -0.07543348 0.0027886385
0001e0 6d 93 0a bc 6b a4 6a bd 81 ba d5 bc af 00 30 3d
       -0.008458001 -0.057285707 -0.026089909 0.042969402
0001f0 40 35 4d bd 5a 71 53 bd 3f 22 33 3d 64 48 8d 3c
       -0.05009961 -0.051621772 0.04373383 0.017246433
000200 91 78 da bb b0 da 46 bd df 6f 31 3d 24 c3 04 3d
       -0.0066672047 -0.0485484 0.04331958 0.032412663
000210 56 3e 1d 3d 71 0d ca 3c 7a 2f eb bc ff a0 a1 bc
       0.038389526 0.024664612 -0.028709162 -0.01973009
000220 ee a8 15 bd 3c cc 86 bb 6c 1c 09 bd 47 1b 2d bd
       -0.036538057 -0.004113702 -0.03347437 -0.04226234
000230 96 ad 98 3c a7 c4 bc bc 2c 48 09 3c a1 12 cc bc
       0.01863746 -0.02304299 0.0083790235 -0.024911227
000240 0d 63 1d 3a 7e 34 18 bd 0d 82 03 bc 88 ac cc 3c
       0.00060038344 -0.037159435 -0.008026612 0.024984613
000250 b0 69 c4 39 a3 9c 67 bd d7 32 3a 3a 0b 3c 65 bc
       0.00037462777 -0.056545865 0.00071029126 -0.013991366
000260 ce 8b 11 3d 21 e4 40 bc c6 84 aa bb c7 bf b5 bc
       0.03553372 -0.01177314 -0.005203816 -0.022186173
000270 fb 06 78 bd 13 d0 73 3c c4 1c 81 bd d2 7c 6b bd
       -0.060553532 0.014881152 -0.06304315 -0.057492085
000280 0c 97 f3 bc ec 0e 05 3d 81 58 dd 3c 37 18 27 bd
       -0.02973511 0.032484934 0.027019741 -0.040794577
000290 c3 e9 63 bc 42 0e 60 3c 45 7b 1d 3d 33 e8 7c bd
       -0.013910714 0.013675274 0.038447637 -0.06174488
0002a0 e4 91 07 bd a0 84 39 bd 88 16 cc 3b 0b f0 f9 3c
       -0.033098117 -0.045292497 0.006228272 0.03050997
0002b0 c3 b1 fd 3c 15 da 02 bd eb 70 e4 bc d6 26 23 3c
       0.030968552 -0.03194626 -0.027885875 0.00995799
0002c0 6d 47 06 bc b0 b9 bf bc 21 51 4c bd a0 f7 43 3d
       -0.00819574 -0.023403972 -0.049882058 0.047843575
0002d0 52 64 54 bb 70 c3 cd 3c 3b a4 63 bc a3 69 fc bc
       -0.0032408428 0.025117606 -0.013894136 -0.03081209
0002e0 01 19 59 bd 8d 75 1c bd 4d 9b 9d 3c 3e 26 91 bc
       -0.05300236 -0.038198043 0.019239092 -0.01771843
0002f0 fc 86 04 3c ed 97 83 bc 63 ba 61 bd 4b d3 ea bc
       0.008088823 -0.016063655 -0.055109393 -0.028665205
000300 d1 4b d6 bc bf d5 2c bd dd 80 11 3b ec 5a 09 bd
       -0.026159199 -0.04219603 0.0022202053 -0.033533975
000310 e7 08 bb 3c b2 7f 6a 3c b5 19 14 bd 9a 45 6c bd
       0.022831393 0.0143126715 -0.03615733 -0.057683565
000320 1c 55 f8 bc ef dc 36 bd 8c 90 f2 bc 34 f9 f5 3c
       -0.03031402 -0.044644292 -0.029609941 0.030026056
000330 f1 f9 c6 bd 4b 31 ec 3c 24 aa 04 bd c0 fe ba bc
       -0.09715641 0.028832098 -0.03238882 -0.022826552
000340 13 51 eb 3c dd ae 01 3d dd 96 05 3d 73 1f 79 3c
       0.028725183 0.031660903 0.032614578 0.015205252
000350 b8 d1 38 bd 14 6c 0c 3d 76 98 9b bd 53 77 ee 38
       -0.04512188 0.03428276 -0.07597439 0.0001137095
000360 d4 ef 0e bd b4 9e 02 3c 4e 2d 27 bc 84 1b fc bc
       -0.034896687 0.007972408 -0.010203673 -0.03077484
000370 d8 9c b9 bd 6e 34 9e bc 48 3b 30 3d f9 73 d1 bc
       -0.09063119 -0.01931211 0.043025285 -0.025567995
000380 fe 64 92 3b 65 ef 9f 3c f3 25 e1 ba 35 74 07 bb
       0.0044676056 0.019523332 -0.0017177447 -0.002066863
000390 a8 e0 48 bc 7b fc e6 bb 34 b0 fd 3c 32 70 de bc
       -0.0122605935 -0.007049141 0.03096781 -0.027153108
0003a0 4f 1f 21 3d 0d ca 90 bc 9e de 91 bd 5c 03 f6 bc
       0.0393365 -0.01767447 -0.07122539 -0.030030899
0003b0 45 f1 01 ba 66 a7 2b bd 01 a3 c2 bc d3 23 7e bb
       -0.00049569114 -0.04190769 -0.023759367 -0.0038778677
0003c0 b7 7a ba bc 94 e6 02 3d 03 16 e6 3c b6 9f 9f bc
       -0.022763593 0.031958178 0.028086668 -0.019485336
0003d0 34 c4 69 bd 60 69 b0 bd 08 d8 32 bd 67 09 a4 bc
       -0.05707188 -0.08613849 -0.043663055 -0.020024015
0003e0 23 5a f0 3c 7c 12 74 bd 1a be 5a bd dc fd f8 3c
       0.029339856 -0.05958794 -0.05340395 0.030394487
0003f0 76 40 19 3d 4d b7 10 bc 90 07 3f bd 19 54 5b bd
       0.03741499 -0.008832765 -0.04663807 -0.053547

fc2.bias f4 [300]
000000 f0 8d 3f bd 70 4e bb bd ad a4 84 bd dd 6b 88 bd
       -0.04676622 -0.0914582 -0.06476722 -0.06661198
000010 06 b2 17 bd 85 ed 8b bd 4f 85 a9 bd 70 c7 44 3b
       -0.03703501 -0.06832413 -0.0827738 0.00300261
000020 6d 34 85 bd eb e6 a9 3f 43 a4 e0 bd 97 db ba 3e
       -0.0650414 1.3273596 -0.109688304 0.3649566
000030 37 b0 af bc 67 47 a2 bd 48 a7 b7 bd 8f dc 28 bc
       -0.02144633 -0.07923775 -0.08967453 -0.0103064915
000040 ce a8 21 3c 56 fd 92 bc 32 3c 56 bd ab d5 67 bd
       0.009866906 -0.017943066 -0.0523035 -0.056600254
000050 ff 87 a1 bd ba cd 5a bc 75 e5 8a bc 75 69 8e bc
       -0.07887267 -0.013354713 -0.016955117 -0.01738427
000060 9d ca 8c bd 7f 9a a0 bd 28 27 37 bd bd 60 81 bd
       -0.06874583 -0.07841968 -0.044715077 -0.063172795
000070 a7 a4 80 bd 3c 9b 71 bc d6 57 9f bc 67 7f 21 bd
       -0.06281405 -0.014746483 -0.019451063 -0.03942814
000080 ef 9b 2c bd 50 6e b1 bd 33 c3 65 bd 04 f6 fb bd
       -0.042140897 -0.086636186 -0.05609436 -0.12302783
000090 08 2a 36 bd 12 e7 d2 bd 0d bd 0e bd c6 c3 93 bd
       -0.044473678 -0.102979794 -0.03484826 -0.07215075
0000a0 73 32 61 bd 4d 82 04 bd fc 32 79 bc 19 40 d6 3a
       -0.054979753 -0.032350827 -0.0152099095 0.0016346007
0000b0 1c 9b fd bd 65 6b 03 bd cf 19 a4 bd 35 cd 8d bc
       -0.123831004 -0.03208484 -0.08012735 -0.017309764
0000c0 a7 d7 a4 bd 3d 76 8c bd 17 47 a7 bd 28 ef 37 bd
       -0.08048945 -0.0685849 -0.08167856 -0.04490581
0000d0 ee 50 13 be dd c3 a6 be 59 9b 4c bd d7 40 62 3f
       -0.14386341 -0.32571307 -0.04995284 0.8838019
0000e0 6a 04 5b bd 25 52 02 bd 21 1e 48 bc 24 bf d6 3f
       -0.053471006 -0.03181662 -0.012214215 1.6777081
0000f0 82 c1 d8 bd 3a 94 55 bd 6c a0 73 bc 48 c5 b2 bd
       -0.10583784 -0.052143313 -0.0148697905 -0.08729035
000100 15 a4 0b bd 13 c8 6c bd 32 36 57 bc 88 d7 30 bd
       -0.034092028 -0.057807993 -0.01313548 -0.043174297
000110 47 37 a0 bd 1f 93 a8 bc af 75 29 bd ee c9 9c bc
       -0.07823043 -0.020577965 -0.041371997 -0.019139256
000120 86 02 95 bd 0f d7 ab bd f4 ac 70 bc c4 ef 7b bd
       -0.07275872 -0.083906285 -0.014689673 -0.061507955
000130 d3 0a 65 bc e5 b8 8d bd ea 40 53 bd 45 0a 82 bd
       -0.0139796315 -0.069200315 -0.05157558 -0.06349615
000140 1b c2 6a bc e6 b5 9a bd f6 41 1f bd 64 35 0c 3d
       -0.014328505 -0.075542256 -0.038881265 0.034230605
000150 b1 26 cb bc d5 8f 85 bc 68 47 bb bc ca 3e d7 bc
       -0.024798723 -0.016303936 -0.022861198 -0.026275057
000160 ef 17 a9 bd 35 bb 90 3a 4a 69 52 bd 67 3d 2c bd
       -0.08256518 0.001104212 -0.051369943 -0.042050745
000170 04 16 7f bd 4e a5 93 bd 59 e0 cd bd 80 ba bc bd
       -0.062276855 -0.07209264 -0.100525565 -0.092152596
000180 c0 11 bc bd 08 37 b8 bd 89 bd 45 bd 1b 56 e3 bc
       -0.09183073 -0.089948714 -0.048276458 -0.02775102
000190 ea 16 da bb e3 d9 e2 bd 1a 00 d0 bd 4f c7 37 3c
       -0.0066555636 -0.11076715 -0.10156269 0.011216952
0001a0 4a f3 d4 bc 80 c6 3a bd 76 77 94 bc de 35 91 bd
       -0.025994916 -0.04559946 -0.01812337 -0.070903525
0001b0 83 05 ef bd 7f 52 ac bd 78 eb 3b bc 56 d4 04 bb
       -0.11670973 -0.084141724 -0.011469714 -0.0020268164
0001c0 a6 8a 9c bd ee 46 9d 3b 40 67 34 bd c6 62 9f bd
       -0.076436326 0.0047997152 -0.04404378 -0.077825114
0001d0 03 16 e6 bc 56 69 1a bd 72 4a 5d bd 2e 83 94 bd
       -0.028086668 -0.037698112 -0.054026075 -0.07251583
0001e0 d7 aa a6 bd 9b 01 6f bd c5 b3 85 bc 21 05 92 3e
       -0.08138054 -0.05835114 -0.016321072 0.28519538
0001f0 2e 8f 2b bd 06 15 94 bd d2 52 59 bc 1d 14 87 bd
       -0.041884594 -0.072305724 -0.013264375 -0.06595633
000200 e2 7d d0 bd 57 54 aa bd 8e 72 10 bd 6f ee b1 3b
       -0.1018026 -0.08316868 -0.035265498 0.005430035
000210 e2 33 ed 3b df 7b 2f be 4e 98 11 bd 20 52 37 bd
       0.007238851 -0.17137097 -0.03554564 -0.044756055
000220 5f 5b aa bd 10 62 b2 bd 67 b9 a8 bd e6 ba 95 bd
       -0.08318209 -0.0871011 -0.08238488 -0.07311039
000230 dc be f6 bd 4d 63 05 bd 3c 6b f9 bc e9 83 2f bd
       -0.12048122 -0.032565404 -0.030446641 -0.04285041
000240 45 7b 04 bd 26 32 98 bd 83 60 64 bd 3f 7d a8 bd
       -0.03234412 -0.0743144 -0.055756103 -0.08227014
000250 93 2f 31 bd 77 4a a8 bd bc 5f fd bc 79 92 ce bd
       -0.04325826 -0.08217328 -0.030929439 -0.10086531
000260 c2 9a 53 bd 6b 18 60 bd e6 d3 95 bd bb 13 e0 bd
       -0.05166126 -0.054710787 -0.07315807 -0.10941263
000270 78 97 b0 bd 42 14 df bd 2a 35 d6 bd 64 8c 71 bd
       -0.0862264 -0.10892536 -0.10459359 -0.058971778
000280 e9 a2 4b bd a9 2c 4d bd 6c 57 93 3e 02 ae d5 bd
       -0.04971591 -0.05009142 0.28777635 -0.1043358
000290 a8 00 b3 bd f7 e4 21 bd 4d 40 8f bd 6b 39 67 bc
       -0.087403595 -0.039525 -0.06994686 -0.014112811
0002a0 97 9d a3 bd ae 95 13 bd ff f1 20 bd d5 c6 80 bd
       -0.07989042 -0.036031418 -0.039293285 -0.06287924
0002b0 93 a2 6c bd f1 71 cc bd b7 7b 3e 3c 57 65 a3 bc
       -0.05777223 -0.0998267 0.011626176 -0.019945784
0002c0 cd b6 8e bd 40 11 ba bd be 98 09 3f 9e 38 1c bd
       -0.0696846 -0.090853214 0.5374869 -0.03813993
0002d0 ec 2e 88 3b 63 f9 e3 bd 5f 4d a4 bd 6c c9 01 3c
       0.004155984 -0.11131551 -0.0802257 0.007921558
0002e0 a9 a6 c1 bc 4e 89 80 3c 5c 8c f4 bc 7f 01 ad bd
       -0.02363904 0.015690472 -0.029852085 -0.08447551
0002f0 c6 51 a6 3c ab 68 f5 3a 76 e9 9a bd 51 68 cb bd
       0.020302664 0.001872321 -0.075640604 -0.09932006
000300 fd a1 8c bb 09 b6 40 bd 4e fc 91 bc e5 33 06 bd
       -0.0042917714 -0.047048602 -0.017820504 -0.032764334
000310 9e 8a 9f bd 08 95 b9 bd bd 5b 86 bb 1a 67 5c bd
       -0.07790111 -0.090616286 -0.0041002915 -0.053809263
000320 7d be 81 bc d5 0d 8a bd d0 f8 b5 bc d8 5e bb bb
       -0.015837902 -0.067409195 -0.02221337 -0.0057180934
000330 61 55 5d 3c ea a4 d3 bd 25 4f 8f bd bb 26 61 bc
       0.013509125 -0.10334189 -0.069975175 -0.013742144
000340 61 2c 4f bd 7f 77 aa bc a6 d8 8f bd 2c cc f3 bc
       -0.050579432 -0.020808933 -0.07023744 -0.029760443
000350 d3 94 67 bd cc 55 01 3b 80 95 be bd 4e 2e 92 bc
       -0.056538414 0.0019734977 -0.093058586 -0.017844345
000360 4e c6 1a bd 90 bc be bc ef fe a8 bd 75 ca ad 3e
       -0.037786774 -0.023283273 -0.0825175 0.33943525
000370 62 2d d3 bd 7e 61 1d bd f8 9d ca 3c 4d ba 03 bd
       -0.103113905 -0.038423054 0.024733528 -0.032160092
000380 a6 01 9e bd 67 e6 2d bd ae ee 19 bd 17 bf 2c bd
       -0.07715158 -0.042456057 -0.03758114 -0.042174425
000390 8d 12 07 bd 87 56 00 bd 84 31 f0 bc f7 7d 2e bd
       -0.032976676 -0.03133252 -0.029320486 -0.0426006
0003a0 13 a5 76 3c fd d0 00 bd ed 92 88 bc 60 a4 3b bd
       0.015054005 -0.031449307 -0.016671622 -0.045811057
0003b0 14 68 7c bc 15 63 81 bd 7f b0 ad bd d8 3f bc bd
       -0.0154056735 -0.063177265 -0.084809296 -0.09191865
0003c0 7e d6 16 bd 23 70 e4 bc b5 68 8b bd 6f 64 af bd
       -0.03682565 -0.027885502 -0.06807081 -0.08564078
0003d0 a6 aa 9f bc f5 88 8f bd 56 af 9f bd 75 be 04 bd
       -0.019490551 -0.07008544 -0.077971146 -0.032408196
0003e0 c9 72 46 bd 4c b7 77 bd ff 33 af bc 91 12 8f bd
       -0.04844931 -0.06047754 -0.021387098 -0.06985963
0003f0 0d 3f 8a bc 9a fc 5a bd 58 cd 33 bd 2d 23 0b bd
       -0.016875768 -0.053463556 -0.043897003 -0.033969093

fc3.weight f4 [1, 300]
000000 7e 15 99 bc 5e 3e 1a 3d 82 80 e7 bb 09 c0 cf 3c
       -0.018687006 0.037657134 -0.00706488 0.025360124
000010 3e 66 97 3c 9d a4 0a 3b 4a 44 d4 3b ce f8 9c 3c
       0.01848137 0.0021155246 0.0064778673 0.019161608
000020 06 5f 90 3c e5 45 2d bc db 75 e5 3c 73 90 62 3c
       0.017623436 -0.010575746 0.0280103 0.013828385
000030 fc 8d 87 3b 60 8b bb 3c 21 8d c2 bc 21 eb 43 3c
       0.004136799 0.022893608 -0.023748936 0.011957915
000040 0f ab 2a 3c e4 4d f1 3a 97 c9 a4 bc f3 76 60 bc
       0.01041676 0.0018410054 -0.020115657 -0.013700235
000050 f4 c5 f0 bc 6a e5 5b 3c e6 0b 15 3d 82 90 dc bc
       -0.029391266 0.013421396 0.0363883 -0.026924375
000060 18 01 bb bc ee 08 9f bc 0a 61 e3 3a 0d 2c 09 3c
       -0.02282767 -0.019413438 0.0017347645 0.008372319
000070 28 6d bc 3c 75 db 14 bc 2f 31 aa 3c 6d 16 8a 3c
       0.023001269 -0.009085526 0.020775406 0.016856397
000080 be bb 28 3c ca 11 d2 3c fc 1b 01 3b 8d 89 08 bb
       0.0102986675 0.025643248 0.0019700518 -0.002083394
000090 1b 75 62 3b 08 fd c9 3b 45 70 8a 3c 0d ed 86 3c
       0.0034554664 0.006164197 0.016899237 0.016470456
0000a0 ad 03 8a bc a8 23 c2 3b 6c bc ff bc cf 58 a6 bc
       -0.016847456 0.0059246607 -0.031217776 -0.02030602
0000b0 ea 01 ea bb f5 6e 8b 3c 4c 8f 06 3a 56 51 9e bc
       -0.0071413415 0.017020682 0.0005133047 -0.019325893
0000c0 0c 75 01 bd 95 9b 82 bc fa 74 d5 3b 36 9e 99 3b
       -0.031605765 -0.015943328 0.006514189 0.0046880497
0000d0 4f 2c a3 bc ca e9 bd bc f9 98 cf bc fd 3d 5f bc
       -0.019918589 -0.023182768 -0.025341498 -0.013625619
0000e0 4e d0 a9 3b 31 d3 41 bb 62 14 6c bc 97 d5 8c bc
       0.0051823026 -0.0029575343 -0.0144091565 -0.017191691
0000f0 76 6a 92 3c c8 dd b0 3c f4 83 fb b9 a6 65 1e bc
       0.01787303 0.021590129 -0.00047972763 -0.00966779
000100 96 94 18 3c 2f ae 2a bb 7d b4 0b bc ba 27 65 bc
       0.009312769 -0.0026043763 -0.0085269185 -0.013986522
000110 19 ab c0 bc 3a dc 62 3c af c0 29 bc 4a 8e d0 3c
       -0.023519086 0.013846451 -0.010360881 0.025458474
000120 8d ec 04 ba 38 c3 30 3c 17 4f ae 3c fb 00 e0 ba
       -0.0005070649 0.010788731 0.021277947 -0.0017090136
000130 87 b9 35 bc 96 af 20 bc 35 55 88 bc 1c 76 ff 3c
       -0.011091596 -0.009807488 -0.016642192 0.031184249
000140 6c 5c 76 3c 97 c9 a4 3c c3 13 76 3c f4 0d fe 3c
       0.0150366835 0.020115657 0.01501936 0.031012513
000150 8a 24 d2 3a 16 96 1e bc 2e a5 9f 3c 9d 5e 85 3c
       0.0016032618 -0.009679338 0.019487944 0.016280467
000160 eb 0c 64 3c 26 e2 9c 3c 0a cd 51 3c 13 3c 7b 3c
       0.0139190955 0.019150805 0.012805233 0.015334147
000170 8c 54 7c bc 05 44 88 3c 2e a9 16 bc d2 5d d3 3c
       -0.015401017 0.016633997 -0.009195609 0.025801573
000180 76 9f 9e 3c 18 3a 3e 3c 1a 8b d6 3c 41 3a c8 bc
       0.019363146 0.01161053 0.026189376 -0.02444184
000190 d8 de 47 3c 37 d7 b5 ba 66 20 9c 3c 43 2a 6c bc
       0.012199126 -0.0013873343 0.019058418 -0.014414373
0001a0 a6 3c 90 bc 95 cc 97 3b db 74 e1 ba 9c bd 71 3c
       -0.017607044 0.0046325424 -0.0017200963 0.014754679
0001b0 82 f9 57 3c 19 55 c6 bc 82 fa 5b 3c da 52 6f 3a
       0.013182046 -0.0242105 0.013426425 0.00091294723
0001c0 1f 63 30 bc 9e d9 96 bb 8d f4 8b 3c 3c e5 06 3b
       -0.01076582 -0.0046035787 0.017084384 0.0020583412
0001d0 73 d0 68 3b 40 e4 b4 ba b1 b4 c4 3c 5c 24 7d bc
       0.0035524636 -0.0013800934 0.024011942 -0.015450563
0001e0 0d b1 10 bb 4f 0b 35 3a c2 18 d8 bc c3 cb 16 bc
       -0.0022078187 0.0006906287 -0.026378993 -0.009203854
0001f0 66 10 a7 3b 20 b8 3f 3c 07 90 3e bc b6 ce 93 b8
       0.0050983904 0.011701614 -0.0116310185 -7.048009e-05
000200 b3 d1 ed bb 90 88 36 3c 7f ad 21 bc e3 a3 6b bc
       -0.007257664 0.0111409575 -0.009868025 -0.014382335
000210 2d b6 18 3b f5 01 19 bd 3a 2c de 3c 14 ca 74 bc
       0.0023301945 -0.037355382 0.027120698 -0.014940757
000220 3d 18 8b 3c b7 95 a9 bc 51 3c 4a bc 8a 2a 51 ba
       0.016979331 -0.020701272 -0.012343482 -0.0007979056
000230 c6 d2 9d bc 39 6a c3 bb 31 3e c5 bc 43 2b 94 ba
       -0.019265544 -0.0059635905 -0.024077507 -0.0011304397
000240 8d e5 01 bc 82 29 50 3c f5 2f 89 3c ee 6e 27 3c
       -0.007928264 0.012705209 0.0167465 0.010219319
000250 54 35 e5 bc 20 dc b9 bc 3d 05 8a bc c3 0a a3 bc
       -0.02797953 -0.022687972 -0.016848201 -0.019902593
000260 16 bb 1c 3c 20 9d 37 3c 45 cc 1c 3c 65 0a 8f bc
       0.009566089 0.011206895 0.009570186 -0.017461011
000270 4e 6c 29 3c 97 cf 23 bc 77 05 a7 3c c1 9d 46 bc
       0.010340763 -0.009998224 0.020388348 -0.012122572
000280 4b 93 e4 bc 54 4b 86 3c 7b 8a ae bc 16 c3 a3 3b
       -0.027902266 0.016393341 -0.021306267 0.0049976213
000290 be fc 99 3c 83 bf e9 3c 8e 55 99 3c 3d 95 8b bc
       0.018797275 0.028533703 0.018717553 -0.017038936
0002a0 c4 4b 0e bc f5 ca 04 3c 15 ab 0e bb bd 03 84 3c
       -0.008685056 0.008105029 -0.0021769453 0.016115064
0002b0 ea 2e 56 3c ce 7f 93 3c b7 df be 3c e9 00 4d bc
       0.013072709 0.018005278 0.023300035 -0.012512424
0002c0 e0 d9 b0 3c 3c ec 70 bc 13 1b 52 3c 8f ca ab 3c
       0.021588266 -0.01470476 0.012823838 0.02097061
0002d0 1e 9b 16 3a 4f 4d aa 3b 6f 44 2c 3a 5b 2c eb 3b
       0.000574516 0.005197204 0.00065714767 0.0071769184
0002e0 c1 a4 c9 bc 33 0a ef bc 91 c6 cd 3c d3 cd ea bc
       -0.024614694 -0.029179668 0.025119098 -0.028662598
0002f0 52 86 5f bc 1f 91 a0 bc 07 46 a9 3c 68 7e cf 3b
       -0.013642864 -0.01960045 0.020663274 0.0063322075
000300 da 78 d8 bc 33 f6 69 3c 1e a6 90 3c e8 5f b9 3c
       -0.026424814 0.01427989 0.017657336 0.02262874
000310 f3 45 e4 3c 19 e7 cf bb e3 97 ed 3c 68 a5 3c 3c
       0.027865386 -0.0063446877 0.02900309 0.011514045
000320 1d c2 03 3c 55 ca 0e bc 37 ec 3e bc 45 d0 93 bb
       0.008041886 -0.008715232 -0.011652998 -0.0045109116
000330 a7 f0 3d bc 9f 59 a3 3c 52 c7 d0 bb de e0 9a bc
       -0.0115930205 0.019940196 -0.006371417 -0.018906053
000340 52 e1 54 bc de c6 96 bc 35 30 0a bc 20 5e b5 3c
       -0.012993174 -0.018405374 -0.008434345 0.022139609
000350 87 e2 aa 3c 87 25 a4 3a aa 33 d0 3c 9a 25 e9 3a
       0.02085997 0.0012523391 0.02541526 0.0017787695
000360 48 c1 bb bc ab d4 63 bc 81 28 4c bb e8 ec ab bc
       -0.022919312 -0.013905684 -0.0031152072 -0.02098699
000370 77 ec a6 3b 07 a2 22 bb 36 21 19 3c 4a 45 58 3c
       0.005094107 -0.0024815814 0.009346297 0.013200114
000380 7e a3 2b 3b 60 77 36 bc 02 4a d5 3c 2b 34 eb 3a
       0.0026189978 -0.01113686 0.026036266 0.0017944624
000390 05 fe 9b bb fb 79 e9 39 f7 6d 80 bc 62 8a d0 bc
       -0.004760506 0.00044532106 -0.015677435 -0.025456611
0003a0 2e 4a 11 3c 05 a4 91 3b 66 36 90 3c ec 54 8a ba
       0.0088677835 0.0044446015 0.017604064 -0.0010553873
0003b0 60 3a bc bb 62 84 d1 bb d1 80 49 3c 53 ff 68 bc
       -0.0057442635 -0.006393955 0.012298779 -0.01422103
0003c0 6f 05 aa bc 45 d8 01 3c 74 6c 01 3d 2b fb 67 3c
       -0.020754544 0.007925098 0.03159757 0.014159004
0003d0 74 e5 f1 3b dc 1c f8 3c 4d 98 91 3c 30 0d b0 3a
       0.0073820893 0.030287199 0.017772818 0.0013431665
0003e0 fb 0f ea bc 6f b1 37 3b b8 3c bc bc 2d ee 27 3b
       -0.028572073 0.0028029343 -0.022978172 0.0025624142
0003f0 7c 56 f1 bc 55 50 1a 3c 05 26 8d 3a 31 ff c2 3c
       -0.029460184 0.009418567 0.0010768777 0.023803325
